cnn/models/pavia/pavia1pmodel06-16-13-04-14_0-0.pkl (torch, 787419 bytes, 102 tensors)

weight f4 [96, 103, 3, 3]
000000 fc f9 2f 3c b1 4b 82 bb 44 c7 3c 3c 65 fd 1f 3b
       0.010740753 -0.0039763083 0.011522118 0.002441251
000010 ba 4e 96 3c 23 b6 3b 3c e8 09 e7 ba 58 67 c4 bc
       0.018348087 0.011456999 -0.0017626854 -0.02397506
000020 f4 94 14 3c 9a b2 d2 bc b9 01 f3 3b 5f 7d 8d 3b
       0.009068716 -0.02571993 0.007415977 0.004317924
000030 ef 58 6d bb fe 10 fa 3c 57 03 ae 3b 40 d3 71 3c
       -0.0036216339 0.03052568 0.0053104567 0.014759839
000040 68 34 82 3c 69 97 91 bc b0 63 24 bc 70 4d 0b 3d
       0.01589413 -0.017772393 -0.010033533 0.034009397
000050 48 9f f7 bc 6c 08 fd 39 5c 9b 42 3a e9 67 d4 3c
       -0.030227318 0.00048262195 0.0007423663 0.025928454
000060 99 0d 16 bb 1c c0 28 3c e2 bd 53 ba cb 2f 85 bc
       -0.0022896288 0.010299709 -0.0008077306 -0.016258141
000070 ea b0 80 bc e0 cf 6d bc 34 85 e1 bc bb 1c 99 bc
       -0.01570936 -0.014514893 -0.027529337 -0.018690458
000080 68 ed 24 3c 8e de b5 3c e5 d6 3e 3b 0f 34 70 bc
       0.010066368 0.022200849 0.0029119786 -0.014660849
000090 a8 bf 82 3c 40 6c 21 bc e6 3f c2 bb b5 17 84 bc
       0.01596053 -0.009852469 -0.0059280274 -0.016124586
0000a0 4c 5e 03 bc 30 16 e6 bc 0c 49 6f 3c 31 cd 61 3c
       -0.008018088 -0.028086752 0.014604818 0.013781832
0000b0 c5 48 d0 3b a3 b9 8f 3c 2f e4 84 3c 90 4d 1e 3b
       0.006356331 0.017544573 0.016222088 0.0024155118
0000c0 06 da 9e 3b a9 c0 96 3b d3 e1 9c 3c de 90 b7 3c
       0.0048477678 0.0046006036 0.01915065 0.022407945
0000d0 1e d1 c6 3c 4d d2 97 3c e7 1f cf bb 8f 05 8e 3a
       0.024269637 0.018532896 -0.0063209417 0.0010835397
0000e0 c7 42 bb bb 93 e9 a4 3c f3 6d c3 3b c4 41 03 3d
       -0.0057147476 0.020130908 0.0059640347 0.03204514
0000f0 21 2b 8c 3c 85 4b db bc 00 19 17 3c e2 9e 05 3d
       0.01711041 -0.026769409 0.009222269 0.032622226
000100 ed 29 ff 3c a1 78 80 39 60 70 44 3c ab 7b e6 bc
       0.031147921 0.00024503938 0.011989683 -0.028135141
000110 d7 9a 07 bc 85 9a 87 3c 3c c1 ea bc 8c 98 e5 3c
       -0.008276663 0.016553173 -0.028656594 0.028026842
000120 64 eb a5 bc c0 17 4e 3c 7e ab 16 ba 5a d2 df 3b
       -0.020253845 0.012578905 -0.00057476 0.006830496
000130 f6 56 ac 3b b3 fc e9 bc 99 fb cd bb 96 c4 a2 bc
       0.00525939 -0.02856288 -0.0062860963 -0.01986913
000140 9b ef de 3c b3 01 42 bb 8e 4f f4 bc a0 b5 0b 3c
       0.027213862 -0.0029603064 -0.02982309 0.0085271895
000150 6a 88 77 3c 5e 7e 49 bc b2 f3 a6 ba 5b 67 70 3c
       0.015108207 -0.012298195 -0.0012737422 0.014673079
000160 d2 3e a1 bc 96 13 91 bc 22 1c 15 bb 05 85 a7 bc
       -0.019683275 -0.017709535 -0.0022752364 -0.02044917
000170 d5 2f a8 3c d0 b4 62 3b b3 ed af 3c bc 75 9b 3c
       0.02053062 0.0034592636 0.021475649 0.018977039
000180 1f 62 c9 bc b3 1d a2 bc 44 81 bb bc 11 cf 20 bc
       -0.02458292 -0.019789552 -0.022888787 -0.0098149935
000190 7e 4d 1f bc 87 cf a0 bb c4 87 fb bc 82 63 80 3c
       -0.009723065 -0.0049075517 -0.030704387 0.015672449
0001a0 f2 44 a2 3c 3e 27 2e 3c 28 30 ad 3c 1f 87 c1 3c
       0.019808266 0.010629473 0.021141127 0.023624001
0001b0 32 38 01 bd 4b b8 e8 3b c6 69 f7 3c 5a 4a bb bc
       -0.031547733 0.0071020476 0.030201804 -0.022862602
0001c0 3f 1c 4a bc c3 ab ad b9 81 49 a2 bc 0b fb b1 bb
       -0.012335836 -0.00033125104 -0.01981044 -0.005431538
0001d0 9e 0d b6 bb 53 5e f0 3c 59 49 9a 38 53 32 90 3c
       -0.0055558225 0.029341852 7.356954e-05 0.017602121
0001e0 97 20 c7 3c df 52 87 3c 94 ac dc bc f8 97 ca 3c
       0.024307532 0.016519008 -0.02693776 0.024730667
0001f0 c0 28 b5 3c ed 27 c5 bc 5f 30 36 bc ec 11 c7 3c
       0.022114158 -0.02406689 -0.011119931 0.024300538
000200 f7 29 01 bd be d6 e5 bc f0 2d a5 bc 03 30 39 3c
       -0.03153416 -0.028056499 -0.020163506 0.011302951
000210 41 02 52 bc 63 93 e7 bc 9b 34 41 3c f8 ec 89 3c
       -0.01281792 -0.028268522 0.011792327 0.016836628
000220 df f6 6a 3c 81 5a e4 bc bb c6 02 3d a5 60 50 ba
       0.014341085 -0.027875187 0.031927805 -0.00079489715
000230 98 63 f4 bc 5c 4a 91 bb 46 64 b3 3c bb 51 67 3c
       -0.029832646 -0.004433913 0.0218984 0.014118607
000240 29 94 05 38 19 20 ce 3c dd 76 f3 bc cf f5 bd 3c
       3.1847656e-05 0.02516179 -0.029719764 0.0231885
000250 f7 4f 0b 3d c4 35 99 bc 5e ef f7 3b 12 57 95 bb
       0.034011807 -0.018702395 0.0075663766 -0.0045574987
000260 3a 17 e8 bc ac 05 f6 38 bd 5d 0a bc dc d6 e3 bc
       -0.028331388 0.000117312506 -0.0084452005 -0.027812414
000270 f2 ad b3 bc 7f 07 3b 3b bf 23 00 3d 3e 4f 51 3c
       -0.02193353 0.0028538404 0.03128409 0.0127752405
000280 3f 2e ab bc fe b4 af 3c 75 67 44 3b 24 17 f0 bc
       -0.020896075 0.021448608 0.0029968892 -0.02930791
000290 f3 b4 bd 3a 87 9c b8 3c 14 1a 8b bc e4 2f a0 b9
       0.0014473483 0.022535576 -0.016980208 -0.0003055326
0002a0 d3 b7 77 bc a4 64 cd bc f2 79 9f bc 84 09 60 3b
       -0.015119511 -0.025072403 -0.019467328 0.003418536
0002b0 74 8c bf 3c dd 72 cc bb c2 c1 e2 bc 12 4d e1 3a
       0.023382403 -0.0062392787 -0.027680282 0.0017189106
0002c0 3a a9 de bc 05 4d 37 3b 7e 20 c8 3c 10 d8 50 3c
       -0.027180303 0.0027969491 0.024429556 0.012746826
0002d0 3d 75 a2 bc 20 84 9d bb d2 ff 4f 3c ce 02 26 3c
       -0.019831294 -0.0048070103 0.01269527 0.010132505
0002e0 73 6e ea bc 3e 4d 93 bc 2b ca 2e bc c7 a8 49 3c
       -0.02861712 -0.017981168 -0.010668318 0.012308306
0002f0 51 02 e4 3c 80 e7 6d 3c d7 04 70 3c b1 96 e3 bc
       0.027833136 0.014520526 0.014649591 -0.027781816
000300 4e de b6 3c d7 95 5e 3c af a3 18 bc 13 95 71 bc
       0.0223228 0.013585529 -0.009316369 -0.014745015
000310 52 d8 1d 3c 6a 5d 99 bc ea 8d 5c 3c 30 e3 e1 3c
       0.009634094 -0.018721301 0.013461569 0.027574152
000320 26 c4 af bc d4 42 9a bc 1d cc 37 bc 6a 1c d8 bc
       -0.021455836 -0.018830694 -0.011218098 -0.026380736
000330 87 67 3a bb a0 dd a9 3c 2f 05 36 3c 9a f9 25 bc
       -0.0028443055 0.020735562 0.011109634 -0.01013031
000340 e1 16 8f ba da 0e 67 bc ac 19 cb bc 6d b9 d0 bb
       -0.0010916853 -0.014102662 -0.024792515 -0.0063697607
000350 a7 e3 73 3b ee 00 80 bc 09 38 c2 bc cc 94 0a 3c
       0.0037214549 -0.015625443 -0.02370836 0.0084583275
000360 a8 f0 a2 3b 5f 10 e9 bb 4e 23 11 3c 44 13 00 3d
       0.004972536 -0.0071125473 0.008858515 0.031268373
000370 de 0f 8c 3b 89 cf aa bc 81 a7 fb 3c c5 e3 c4 3c
       0.0042743525 -0.020850914 0.03071952 0.02403439
000380 0c 6f 88 bb 09 82 6f bc 4a 2e 30 bc 77 41 e7 3c
       -0.0041636284 -0.014618405 -0.010753224 0.028229458
000390 95 ae 93 3c 73 a2 69 bc 9d 70 2e 3b a4 af ea 3b
       0.018027583 -0.014259922 0.0026617416 0.0071620513
0003a0 6d 78 16 3c 3e 10 44 bb dd c3 8b bc 02 54 f1 3a
       0.009183985 -0.0029916908 -0.017061168 0.0018411877
0003b0 42 e2 14 bc 43 fa 21 bc 94 45 61 bc 33 b7 6b bc
       -0.009087147 -0.009886327 -0.013749499 -0.01438694
0003c0 29 27 74 bc 4a 8f 59 3c e9 d3 ea bc e7 5c fe bc
       -0.014901915 0.013278792 -0.0286655 -0.031050159
0003d0 7f 32 fa 3c 04 30 3c 3c 1c 93 9a 3c c5 f8 85 3c
       0.030541657 0.011486057 0.018868975 0.016353974
0003e0 43 6f 35 bc 2f 42 a4 bc d0 b9 b2 bc 3e 19 5d bb
       -0.01107389 -0.02005109 -0.021817118 -0.003373697
0003f0 b2 88 01 3c b1 5d e2 bc 58 43 cd bc fc b3 9c 3c
       0.007906126 -0.027632566 -0.025056526 0.019128792

weight f4 [96]
000000 75 9e 7c 3f 00 1c 7b 3f e0 12 7e 3f 8c 07 7e 3f
       0.98679286 0.980896 0.9924755 0.99230266
000010 51 52 7d 3f 97 04 7d 3f 2c 5b 7d 3f 2d 52 7b 3f
       0.9895373 0.9883513 0.9896724 0.98172265
000020 9c c6 80 3f fa 52 7c 3f a7 c1 7e 3f 7c ad 7f 3f
       1.0060611 0.9856411 0.9951424 0.9987409
000030 c5 6b 7b 3f 15 9a 7c 3f 78 f6 7c 3f 7e 99 7c 3f
       0.9821132 0.9867261 0.9881358 0.9867171
000040 a8 90 7c 3f bb dc 7d 3f eb 5a 7e 3f 69 03 7d 3f
       0.9865823 0.9916493 0.9935748 0.9883333
000050 f5 59 7c 3f b6 92 7b 3f eb 86 7c 3f 6f 4c 7c 3f
       0.98574764 0.9827074 0.9864337 0.9855413
000060 60 de 7c 3f 88 9b 7b 3f bd 51 7d 3f bc b7 7c 3f
       0.9877682 0.98284197 0.9895285 0.98717856
000070 53 8a 7c 3f d7 95 7c 3f fd 95 7b 3f 19 05 7c 3f
       0.98648566 0.9866614 0.9827574 0.9844528
000080 b1 3b 7d 3f 6a 7f 7d 3f 7b be 7c 3f 22 98 7d 3f
       0.98919207 0.99022543 0.9872815 0.9906026
000090 c4 e5 7d 3f c4 3f 7d 3f 90 d7 7b 3f f1 72 7b 3f
       0.9917872 0.98925424 0.983758 0.9822226
0000a0 c8 88 7e 3f 41 89 7c 3f c7 f3 7c 3f b7 b5 7c 3f
       0.9942746 0.9864693 0.98809475 0.98714775
0000b0 ee ba 7e 3f 65 ae 7b 3f f8 93 7d 3f c3 76 7c 3f
       0.9950398 0.9831298 0.9905391 0.98618716
0000c0 e2 bb 7c 3f f8 64 7c 3f 81 c4 7c 3f e4 7a 7c 3f
       0.98724186 0.98591566 0.9873734 0.98625016
0000d0 6d d3 7d 3f f0 e0 7b 3f 87 db 7c 3f a7 91 7c 3f
       0.99150735 0.983901 0.9877247 0.9865975
0000e0 9a 54 7c 3f 4e 93 7e 3f 61 3c 7c 3f fd fd 7a 3f
       0.9856659 0.9944352 0.9852963 0.98043805
0000f0 09 36 7d 3f b2 fe 7e 3f 24 93 7d 3f 31 b4 7d 3f
       0.98910576 0.99607384 0.99052644 0.99103075
000100 6d 91 7d 3f a9 db 7c 3f e4 94 7d 3f 24 00 7d 3f
       0.9905003 0.98772675 0.99055314 0.9882834
000110 20 8b 7d 3f 02 57 7c 3f a9 04 7c 3f 10 d4 7d 3f
       0.9904041 0.98570263 0.9844461 0.99151707
000120 fd 6b 7e 3f aa a2 7f 3f 88 48 7e 3f 33 5d 7c 3f
       0.9938353 0.9985758 0.99329424 0.9857971
000130 9f a5 80 3f 19 65 7c 3f 23 8b 7d 3f e0 14 7c 3f
       1.0050544 0.9859176 0.9904043 0.9846935
000140 b0 60 7c 3f ed ff 7c 3f 7d 37 7c 3f e0 29 7e 3f
       0.98585033 0.9882801 0.9852217 0.99282646
000150 a5 1d 7c 3f f1 ab 7b 3f af 1c 7e 3f 79 5b 7c 3f
       0.98482734 0.98309237 0.9926252 0.98577076
000160 4d 39 7c 3f 93 15 7c 3f 8c 35 7d 3f a6 87 7c 3f
       0.98524934 0.9847042 0.9890983 0.98644483
000170 eb a9 7c 3f 58 5e 7e 3f 0a c4 7c 3f 48 74 7e 3f
       0.98696774 0.9936271 0.9873663 0.9939618

bias f4 [96]
000000 2f 3b ac bb c7 b3 b5 bb d7 80 99 ba cd 53 9f 3b
       -0.0052560787 -0.005545113 -0.0011711371 0.0048622848
000010 2c 00 94 bc 80 06 e1 b9 f7 fb f5 ba c8 e3 96 bb
       -0.018066488 -0.00042920187 -0.0018767108 -0.0046047904
000020 12 8e a4 3b 17 9b 81 3a 47 fd c6 3b f5 cb 60 3c
       0.005021819 0.0009888139 0.0060726735 0.013720502
000030 9d e8 1d 3b a3 c6 aa bb 0e 4f 10 3b ba 86 f1 bb
       0.0024094947 -0.0052116676 0.0022019777 -0.007370797
000040 a2 ca cd 39 ef 0d 5e 3c 42 86 cb bb df e5 8e 3c
       0.0003925162 0.013553127 -0.006211073 0.017443595
000050 3d f9 7a 3b 75 4b af 3a a1 cb 94 38 63 3f 22 bb
       0.003829553 0.0013373928 7.095119e-05 -0.002475702
000060 b4 a8 ef 3a 64 29 65 b9 e5 51 f2 bb 96 16 be bb
       0.001828453 -0.00021854561 -0.0073950165 -0.0058010323
000070 4b 67 17 bb db 01 13 bb d5 1d ae b7 9c ca fb 3b
       -0.002310234 -0.0022431526 -2.0756308e-05 0.007684065
000080 80 22 88 bc e2 b2 48 ba cd d6 04 3c 0b d1 23 3c
       -0.016618013 -0.000765605 0.008107853 0.00999857
000090 d5 91 5e 3b ff 6c 5e bb 7d 39 ed 3a 9f 09 35 bb
       0.0033961434 -0.0033939478 0.0018098798 -0.0027624143
0000a0 15 f9 95 3a de 13 93 3b 36 04 31 bb 91 09 49 bc
       0.001144203 0.0044884523 -0.0027010567 -0.012270347
0000b0 7e 4e 15 ba 95 ce ca bb 8c 16 f5 39 0d fa b3 bb
       -0.0005695595 -0.0061891773 0.0004674684 -0.005492455
0000c0 85 f8 24 38 ca 7a ee b9 38 93 d7 bb d7 a0 f1 39
       3.93321e-05 -0.00045486382 -0.006578829 0.00046086937
0000d0 c4 e3 f2 bb 70 71 76 b9 1b b8 a7 3b ac 23 0c 3a
       -0.0074124057 -0.00023502647 0.0051183826 0.00053458917
0000e0 8c fd 4b ba 9c 20 b4 bb 57 78 fb 3b ce fb 7c 3b
       -0.0007781617 -0.0054970514 0.0076742577 0.0038602236
0000f0 9d b1 0d 3b a2 04 e6 3b aa 14 1e bc 51 b8 2b bc
       0.0021620758 0.0070195952 -0.009648481 -0.010480956
000100 ee d6 e6 bb c6 53 7b bb 9b b5 54 3b 25 98 3c 3b
       -0.0070446646 -0.0038349493 0.0032456878 0.0028777209
000110 d3 4a 29 3b 77 57 87 3b ab d8 44 bb 9b 29 8c 3a
       0.0025831952 0.0041302997 -0.003003637 0.0010693552
000120 34 75 1d 3c ee 0f 09 3c 79 80 fb ba 74 07 8f bb
       0.009610463 0.008365614 -0.0019188068 -0.004364902
000130 98 ad 99 3a e6 7e 9d 3a d1 e6 08 bc 91 4d 7d bb
       0.0011724709 0.0012015968 -0.008355812 -0.003865097
000140 a4 d1 4e ba d5 f7 3c bb 3e 2c e6 39 a5 99 dc 39
       -0.0007889515 -0.0028834243 0.00043901982 0.00042076144
000150 fd 13 3e bb 0a 1b 72 bb 16 6f 86 bb 71 a2 cb 3a
       -0.0029003613 -0.0036942386 -0.004102598 0.0015536082
000160 c3 19 17 3b 91 85 a4 bb f4 1d cc bb 14 76 5e bc
       0.0023056127 -0.005020805 -0.0062291566 -0.013577957
000170 ba d1 41 bb 10 13 bf 3a 51 25 0d 3c cf b5 8c 3b
       -0.002957447 0.0014577825 0.008614854 0.004294134

running_mean f4 [96]
000000 2e 3a 9b c4 cc ab ee 43 cc 7b c8 c4 ad 29 13 c5
       -1241.8181 477.34216 -1603.8687 -2354.6047
000010 20 ca a1 43 70 f3 14 c4 34 05 e3 c4 07 65 23 c4
       323.5791 -595.8037 -1816.1626 -653.57855
000020 18 57 e9 c3 56 4b d8 43 fd 97 8d c3 c2 84 40 44
       -466.68042 432.58856 -283.1874 770.07434
000030 aa 3a 78 c4 3f c4 a0 44 e5 41 6b 42 d9 67 42 43
       -992.9166 1286.1327 58.81435 194.40565
000040 1a 76 83 41 eb 1c ec 43 0e e0 1d 43 3b 65 7a 44
       16.432667 472.22592 157.87521 1001.5817
000050 43 b2 d2 c3 e8 1c 1f c5 d0 a0 08 c4 4d 89 52 c4
       -421.39267 -2545.8066 -546.5127 -842.1453
000060 65 d3 45 44 61 2b a8 c4 38 f5 5f c4 fe 72 de c1
       791.30304 -1345.3556 -895.83154 -27.806149
000070 47 b2 41 c4 b2 ff 1c c4 ce 64 21 45 d1 2c 34 c4
       -774.7856 -627.99524 2582.3003 -720.70026
000080 78 77 9b c4 f7 08 13 43 4e 48 d1 44 eb 55 a0 44
       -1243.7334 147.03502 1674.2595 1282.6849
000090 48 d1 f4 44 83 d8 92 c3 6d 74 c9 44 cc 1b 0b c4
       1958.54 -293.6915 1611.6383 -556.4343
0000a0 a5 9c 90 c4 6e e2 cb 44 24 c4 b9 c4 9d 5c f6 c4
       -1156.8951 1631.0759 -1486.1294 -1970.8942
0000b0 2b 4f 00 c5 9f 19 ce c4 df e4 66 43 73 c4 d9 44
       -2052.948 -1648.8007 230.89403 1742.139
0000c0 62 3c 93 c4 e3 b2 fe 44 5d 77 e0 43 3e ad b1 c4
       -1177.887 2037.5902 448.93253 -1421.4138
0000d0 a1 a6 2f c4 9a 26 15 c4 f4 7e 79 c3 0f 16 6b c4
       -702.6036 -596.60315 -249.49591 -940.34467
0000e0 d7 21 71 c4 80 43 bb c3 02 ba 16 45 ce 88 27 c4
       -964.52875 -374.52734 2411.6255 -670.1376
0000f0 3c 0f e9 42 14 ac e6 c4 0b 8b 83 43 52 aa db c1
       116.529755 -1845.3774 263.08627 -27.458164
000100 c5 7b 6e c3 10 a4 b1 c4 c1 b7 20 43 05 c9 d0 43
       -238.48347 -1421.127 160.71779 417.57047
000110 8d d7 0b c4 de a9 94 44 b2 5c 0d c3 c4 84 cc c4
       -559.368 1189.3083 -141.36209 -1636.1489
000120 ec 53 1a c4 b9 74 27 43 0d 0a 91 c4 c8 0a d4 c4
       -617.3113 167.45595 -1160.3141 -1696.3369
000130 b4 47 00 c3 29 df 90 c4 ec 9d c7 c4 2a 0e 6f c2
       -128.28009 -1158.9738 -1596.935 -59.763832
000140 79 9c bf 44 1a 7b 01 44 f0 36 5f c4 5c 01 8a c4
       1532.8898 517.92346 -892.8584 -1104.0425
000150 3b 89 b2 c3 b4 4b 2b 45 2d 78 ae c4 79 dd e5 44
       -357.0721 2740.7314 -1395.7555 1838.921
000160 f6 02 72 c4 62 92 3a 43 11 3c 7a 44 c8 60 0e c4
       -968.04626 186.57181 1000.93854 -569.5122
000170 df f4 a9 44 d7 37 75 c3 60 7c 5a 42 53 6e 4a c4
       1359.6522 -245.21812 54.62146 -809.7238

running_var f4 [96]
000000 7c fa fe 48 23 de 44 48 73 55 49 49 58 b7 15 49
       522195.88 201592.55 824663.2 613237.5
000010 e6 96 60 47 39 4b 5e 48 3a ef 3e 49 37 74 d4 48
       57494.9 227628.89 782067.6 435105.72
000020 a0 c1 d9 48 d4 92 e9 48 96 87 d3 47 e5 1d 17 48
       445965.0 478358.62 108303.17 154743.58
000030 dc d5 27 49 06 30 c7 48 3e 48 23 48 f9 fd be 48
       687453.75 407936.2 167200.97 391151.78
000040 55 c6 d2 48 0a 8e c6 48 c3 22 74 49 46 fc 0f 49
       431666.66 406640.3 999980.2 589764.4
000050 63 51 32 48 2a b6 92 49 c2 0b a3 48 ca 22 c0 48
       182597.55 1.2018612e+06 333918.06 393494.3
000060 50 25 55 48 54 cc 0b 49 2e 2f 14 49 01 79 51 49
       218261.25 572613.25 606962.9 858000.06
000070 af fe 56 48 fe d7 23 48 6d 8c 5a 49 8e 1d b6 48
       220154.73 167775.97 895174.8 372972.44
000080 51 fc ae 48 dd ed de 48 14 78 12 49 a6 cc 2f 49
       358370.53 456558.9 599937.25 720074.4
000090 e5 ea 40 49 ad 1e a0 48 fb 9d 03 49 6f b2 2a 49
       790190.3 327925.4 539103.7 699174.94
0000a0 b9 0f 95 48 6d ac 0e 49 a1 19 08 49 34 30 2e 49
       305277.78 584390.8 557466.06 713475.25
0000b0 2e 79 35 49 eb 16 f0 48 58 ce 3f 48 b9 95 1c 49
       743314.9 491703.34 196409.38 641371.56
0000c0 ee 88 e0 48 7f 03 3b 49 ba 56 41 48 51 bd 23 49
       459847.44 766007.94 197978.9 670677.06
0000d0 5b 0c 0e 49 14 58 48 49 9f 46 a5 48 50 9c 00 49
       581829.7 820609.25 338484.97 526789.0
0000e0 33 31 02 48 a7 13 a1 47 25 a4 49 49 29 1e 3c 49
       133316.8 82471.305 825922.3 770530.56
0000f0 f9 7e 8e 48 0b 81 29 49 e4 52 f5 47 68 27 80 47
       291831.78 694288.7 125605.78 65614.81
000100 37 d2 26 49 6f 42 28 49 cb 79 b3 48 67 48 67 48
       683299.44 689190.94 367566.34 236833.61
000110 50 05 1f 49 83 b3 1f 49 f5 88 b7 48 81 54 01 49
       651349.0 654136.2 375879.66 529736.06
000120 78 23 6a 48 ac be 8c 47 2e 92 0d 49 b6 60 de 48
       239757.88 72061.34 579874.9 455429.7
000130 fe df 97 48 2b 2c 32 49 11 1e 0f 49 84 d6 36 48
       311039.94 729794.7 586209.06 187226.06
000140 95 95 2d 49 af 90 8a 48 da b5 80 48 aa 58 e3 48
       711001.3 283781.47 263598.8 465605.3
000150 32 1e b5 48 fd df ab 49 73 2a 27 49 2e b0 32 49
       370929.56 1.4079996e+06 684711.2 731906.9
000160 77 7f 57 48 28 80 39 48 7b 94 8f 48 01 ad 86 48
       220669.86 189952.62 294051.84 275816.03
000170 c4 77 40 49 37 87 de 48 ff 52 a1 48 89 e1 86 48
       788348.25 455737.72 330391.97 276236.28

weight f4 [32, 96, 1, 1]
000000 bf 66 0a 3d 07 b3 10 bd 3f 66 6b 3d 5d 30 87 3c
       0.033789393 -0.035326984 0.057470556 0.016502554
000010 0c 8e 95 3b 60 de 0e 3c 82 2f 73 3d 21 26 67 bd
       0.0045640524 0.0087200105 0.05937148 -0.056432847
000020 29 6a 18 3c 50 6f 11 bb 50 61 45 3c 39 a3 d3 3c
       0.009302654 -0.0022191592 0.012047127 0.025834667
000030 07 b5 fe bc ee da 21 bd 2f 6a 10 bd df c5 d1 3d
       -0.03109218 -0.03951543 -0.035257515 0.10242819
000040 6f e1 71 bd 8d 61 bf 3c 4c 1f bd 3d 56 37 00 3d
       -0.05905288 0.023361946 0.09234485 0.031302772
000050 db 09 2e bc 76 ac db 3c 1f 33 bd bb 37 1d 94 3d
       -0.010622467 0.026815634 -0.0057739164 0.07232135
000060 e4 f0 71 3d a9 c8 15 bd 95 da bb bd 49 bf 87 bc
       0.05906762 -0.036568318 -0.091725506 -0.016570704
000070 f1 8b 80 3d 3b ff 8f 3d 05 c4 6e bd 67 12 b1 3d
       0.06276692 0.07031103 -0.058292408 0.08646088
000080 3e 67 34 3d 59 fa c5 3c e6 41 13 3d 6b 93 32 bd
       0.044043772 0.024167227 0.035951518 -0.04359762
000090 45 e5 8b 3d 44 f8 08 3d 12 75 bb 3d f9 ea b5 3d
       0.06830839 0.03343989 0.09153189 0.08882708
0000a0 10 2a f4 3c 65 db ba bd 7e 87 87 bc e6 4c be 3d
       0.029805213 -0.091238774 -0.0165441 0.09292011
0000b0 0d 1f 83 bd 02 cd da bc 55 fd 9a 3d ed 28 12 3c
       -0.06402407 -0.026709083 0.075678505 0.00892089
0000c0 a1 08 e3 bd ba 0b 50 bd 7f c7 87 3d 15 43 82 bc
       -0.1108563 -0.050792433 0.06629848 -0.015901128
0000d0 81 d3 44 3d d4 66 f2 3c 27 d1 73 bd 59 37 d9 bc
       0.04805327 0.029590048 -0.059525635 -0.02651565
0000e0 c8 05 85 3c 82 0a 4f 3b e3 72 32 3d b2 12 59 3c
       0.016238108 0.0031591957 0.043566596 0.013249086
0000f0 ad 49 87 3d fc 98 27 3d 00 02 86 3d 60 f2 19 bd
       0.066058494 0.04091738 0.0654335 -0.037584662
000100 3e 06 2b bd f6 fa be 3d 2d e1 ea 3c 7c c1 2d bd
       -0.041754 0.09325211 0.028671825 -0.04242085
000110 97 b8 96 bd 82 30 a6 3d 05 80 89 bd ee 79 c5 bd
       -0.073594265 0.08114721 -0.06713871 -0.09642397
000120 ca 75 73 3c 0e 70 00 3d 1c b4 50 3d 03 da b8 3c
       0.014859626 0.031356864 0.050953016 0.022564894
000130 0e 70 9c 3d 7d 95 2a 3d a1 05 be 3d 1c f8 c4 3c
       0.0763856 0.04164647 0.092784174 0.024044089
000140 1d 27 d3 bb ed 26 1a 3d aa 48 6a bc b5 e9 f0 bb
       -0.0064438717 0.03763478 -0.014299551 -0.007352079
000150 46 01 92 3d ca 36 34 bb bc 8a 9f 3c cb 6d 5c 3c
       0.07129149 -0.0027498477 0.019475333 0.013453911
000160 07 6b 9e 3d 03 57 71 bd 36 86 b2 3d 25 f1 3d bd
       0.077352576 -0.05892087 0.08717005 -0.04637255
000170 70 82 be 3c 39 c5 b1 bd de 23 d1 3d 3c e3 03 3c
       0.023255557 -0.08680195 0.10211919 0.008049782
000180 4c d7 e3 3d f3 af 36 3d b6 a8 a3 bd 08 57 5c 3c
       0.11125049 0.044601392 -0.079911634 0.013448484
000190 17 52 21 bd ca 33 8b bd f7 3b 0e bc 20 78 33 bd
       -0.039384928 -0.06796987 -0.008681289 -0.043815732
0001a0 08 78 65 3b 71 40 9e 3c 66 7b 23 bc a9 b0 ec bc
       0.003501417 0.019317837 -0.009978151 -0.028892832
0001b0 d0 8e 20 3d 0c 5d 5f bc 08 29 bc 3b 76 f0 a5 bd
       0.039198697 -0.013633024 0.005742196 -0.08102505
0001c0 9f 99 a1 3d 0a ba 97 3d c9 87 86 3d 98 59 0c bd
       0.07890629 0.07408531 0.06568868 -0.03426513
0001d0 a0 ec 0b bd 95 9c 33 3d 1f a1 b3 3b 6b d4 82 3d
       -0.03416121 0.0438505 0.0054818536 0.06388172
0001e0 f1 7d 86 bd 14 8e b8 bd a8 66 bc bd 5b 01 f9 bc
       -0.0656699 -0.09011474 -0.091992676 -0.030396154
0001f0 89 b7 a5 bd cd 98 3c bc 5e 44 92 3d 1b f0 9b 3d
       -0.08091647 -0.01151104 0.07141946 0.07614156
000200 b7 a1 50 bd 3c 32 82 3d f5 8e 85 bd 20 10 df bc
       -0.050935473 0.06357238 -0.065214075 -0.027229369
000210 bb eb 9c bd 2e 5e 98 bc 1d e8 0a bd 04 15 0e 3d
       -0.076621495 -0.018599596 -0.033912767 0.03468801
000220 01 f8 aa 3d 16 1c a8 bb 8b c9 da bb 6e 45 c7 3b
       0.08348084 -0.005130301 -0.006676858 0.0060812747
000230 1d 22 75 bd 81 b8 5c 3d fe 74 c5 3d 28 6a ed bc
       -0.059846986 0.053886894 0.09641455 -0.028981283
000240 50 d8 1e bd 2a e1 08 3d a7 32 2a bc 7d fe 70 bd
       -0.03878051 0.03341786 -0.010388053 -0.05883645
000250 08 02 ac 3c df 13 66 bd a8 ff 19 bd 11 2e 07 3c
       0.020997062 -0.056171294 -0.03759733 0.008250729
000260 eb 1f 40 bd 32 2a 89 3d a8 bc 7e 3d 31 5d a4 3d
       -0.04690544 0.06697501 0.062191635 0.08025587
000270 d7 c2 a8 3d 9f 18 73 3d e8 76 bb bd da d4 cb 3d
       0.08240288 0.059349652 -0.09153539 0.099527076
000280 93 a5 a4 3b 7a da 7f bd c3 7e 4e 3d c3 6f 3a 3d
       0.005024621 -0.062464215 0.05041386 0.04551674
000290 37 2f 49 3d f6 d6 d3 3c 34 37 c6 bd 6b 12 a6 bd
       0.049117293 0.025859337 -0.09678498 -0.08108982
0002a0 fc cc dd 3d 90 1a 96 3d bb 70 9a bd 76 d7 8f 3c
       0.10830113 0.07329285 -0.07541033 0.017558794
0002b0 73 72 d1 bd f1 fa 9e bc 88 52 2b 3d 77 74 84 3d
       -0.102269076 -0.019406768 0.041826755 0.064675264
0002c0 5b ff 7b 3d 75 e2 10 3c e4 82 a3 bd e3 a7 ea 3b
       0.061522823 0.008843054 -0.0798395 0.007161127
0002d0 be 85 22 bd e2 6b 06 3c c6 77 15 bd c1 41 95 bd
       -0.039678328 0.008204432 -0.036491178 -0.07287932
0002e0 3a da 66 3d 9f 96 a9 bd 9d a5 96 bc 3b 3f 2d 3d
       0.05636046 -0.08280682 -0.018389517 0.04229663
0002f0 4a 2a c3 3c b0 0a bb bb 63 e7 4d bd fc 8a ca 3d
       0.023823876 -0.005708061 -0.050269496 0.098897904
000300 55 c7 a3 3d ba 0e a3 bd 34 8d 18 bc 5c 0b 8f bd
       0.07997004 -0.07961793 -0.009311009 -0.069845885
000310 ba c6 c3 3d f3 7b 06 bd b6 ec 55 3d 16 09 1e bd
       0.095593885 -0.03283305 0.0522277 -0.038582884
000320 e2 38 25 3d 5c 72 00 bd c0 bd d0 bd 45 37 ec bc
       0.04033745 -0.03135906 -0.10192442 -0.028834948
000330 11 18 40 3c d3 07 84 bd 1e 44 0d bd ec 1f 84 bd
       0.011724488 -0.06446805 -0.03448879 -0.06451401
000340 f3 61 ae 3d ca df 75 3d 03 1e b8 3d 0f a4 88 bd
       0.08514776 0.060027875 0.08990099 -0.06671917
000350 66 fa 69 3d f8 f6 1a bd 63 aa 66 bd f2 ec c8 3d
       0.057123564 -0.037833184 -0.056314837 0.09810819
000360 c8 99 fb 3b a3 d2 56 bc 33 96 2e bd 1b c9 24 bd
       0.0076782443 -0.013111743 -0.04262371 -0.04023085
000370 80 d4 aa 3d 1a b0 98 3d 36 ce 9e bd 1f 1e 90 bc
       0.083413124 0.07455464 -0.07754175 -0.017592488
000380 49 1f 3e bc 3c 30 b0 bd a5 f0 ac 3d da 35 45 3d
       -0.011604139 -0.0860295 0.08444337 0.04814706
000390 91 8a 8b 3c 1b 24 a2 3d 6d 4a 6b bd bc 55 73 3d
       0.017033847 0.07917043 -0.057444025 0.059407935
0003a0 fb 86 b7 bd 88 b0 ff 3c e9 42 bb bd 39 e7 84 3d
       -0.08961292 0.031212106 -0.091436215 0.06489415
0003b0 aa 55 b0 3d 89 48 b1 3d 14 09 3a bd c5 47 8c bb
       0.08610089 0.08656413 -0.045418814 -0.0042810165
0003c0 40 be 12 bd ff d1 64 bd 78 08 0f bc bf cf 0c 3d
       -0.035825968 -0.05586433 -0.008730046 0.03437781
0003d0 a3 6e 38 bd 9e eb de 3b dd c4 5a 3d 18 56 14 bd
       -0.045027386 0.00680299 0.0534104 -0.036214918
0003e0 12 eb 87 3d 2f 2d b8 3d f2 e0 62 bd e8 42 8a bd
       0.06636633 0.08992993 -0.055390306 -0.067510426
0003f0 ef b0 83 3d 93 43 a7 3d ee e9 c9 bc 15 8c b5 bc
       0.06430232 0.08167186 -0.02464768 -0.022161523

weight f4 [32]
000000 62 d4 7e 3f 7d 29 81 3f ed e1 80 3f 8d 2e 80 3f
       0.9954282 1.0090786 1.0068947 1.0014206
000010 53 47 80 3f 02 bf 7d 3f 5c 76 7e 3f 51 a3 78 3f
       1.0021766 0.9911958 0.9939935 0.971242
000020 c0 94 7c 3f 66 12 7e 3f 92 c3 7e 3f 37 00 84 3f
       0.98664474 0.99246824 0.99517167 1.0312566
000030 2e 38 7e 3f 8f c9 7e 3f 89 14 82 3f 0c 81 7e 3f
       0.99304473 0.99526304 1.0162517 0.9941566
000040 a6 fa 7f 3f dc b9 7d 3f a8 50 80 3f f1 5a 7e 3f
       0.99991834 0.99111724 1.0024614 0.99357516
000050 cd fb 7e 3f 9f 48 81 3f 4d 03 81 3f 3d 6b 7c 3f
       0.9960297 1.0100287 1.0079132 0.9860113
000060 99 fc 7b 3f 0c 2c 7d 3f f2 99 7f 3f f9 86 7d 3f
       0.9843231 0.98895335 0.99844277 0.99034077
000070 4e e2 7a 3f b9 37 7c 3f 71 75 7d 3f 7f 9b 7d 3f
       0.98001564 0.98522526 0.99007326 0.99065393

bias f4 [32]
000000 b4 27 5b bb 9f 5b 4f 3c 8b 0a 90 bb 14 35 71 bc
       -0.0033440413 0.0126561215 -0.004395788 -0.0147221275
000010 d4 19 06 3d 99 cb 95 ba 15 6f 70 bc 50 7c 67 ba
       0.032739475 -0.0011428475 -0.0146749215 -0.00088304747
000020 4c 18 0e 3a 15 f3 eb 3b 01 50 4f 3b 3f 31 a6 3b
       0.00054204906 0.0072006085 0.003163338 0.0050717886
000030 86 03 da 3a 84 30 01 38 77 32 40 bc c4 0b 5b 3b
       0.001663313 3.080118e-05 -0.011730782 0.003342376
000040 a5 c0 4c 3c 0c 19 8e bb b0 1c 54 3b 28 c0 f3 bb
       0.012497102 -0.004336482 0.0032365732 -0.0074386783
000050 c2 b7 0c 3c 27 18 15 3c 25 90 80 bc a6 68 44 3a
       0.008588733 0.009099997 -0.015693733 0.00074924005
000060 9c da 7a 3c 8a e1 8c bb 63 98 94 bc 1e 0d 39 3b
       0.01531091 -0.0042993473 -0.01813907 0.0028236578
000070 2b 09 c2 bc 1d 2c 15 3b bc 24 b6 3b fe 3b c6 3b
       -0.023686012 0.002276189 0.0055585783 0.006049632

running_mean f4 [32]
000000 5d f5 f2 3e 9e 1d 03 bd 2a f6 9a 3e ad d5 6e 3a
       0.47452822 -0.032010667 0.30265933 0.00091108197
000010 0c 42 b0 bd fc 83 50 bd bc 0e 27 be 86 84 73 bc
       -0.086063474 -0.05090712 -0.16314214 -0.014863139
000020 56 33 16 3e be c1 6d 3d 96 d9 0e bd 5c 40 e9 3d
       0.1466802 0.058046095 -0.034875475 0.11389229
000030 2e 4e 9d 3d 46 ba b9 3d f0 2a 0b be 1c a6 93 be
       0.07680927 0.09068732 -0.13590598 -0.2883767
000040 34 3c 35 3e 6f 0b c5 bd 9b bd ab 3c 09 03 cc 3d
       0.17698747 -0.096213214 0.020964434 0.099615164
000050 f8 d3 73 bc 26 9a a3 bd 07 b7 74 be 20 de 9b be
       -0.01488208 -0.07988386 -0.23897944 -0.30442905
000060 28 c4 41 be 36 55 f9 bd 64 c3 15 3d 25 83 b9 bd
       -0.18922484 -0.12174456 0.036563292 -0.09058217
000070 f8 33 44 3e 8e 7a 17 3e c1 d2 0e 3e 2c 86 e1 bd
       0.1916045 0.14792845 0.13947584 -0.110119194

running_var f4 [32]
000000 55 e7 6a 3d 42 64 97 3d 78 46 ae 3c 90 67 61 3d
       0.05734952 0.073921695 0.021273836 0.055030406
000010 1b 86 0d 3e b9 b3 19 3d 69 98 e1 3c 8b 0c 01 3e
       0.13820688 0.037524913 0.027538495 0.12602441
000020 ac 51 e4 3d b5 26 d5 3d e3 67 80 3e 53 14 5d 3c
       0.1114839 0.104077734 0.2507926 0.013493615
000030 bc 65 a8 3d 8f 25 0e 3d 07 9b 37 3c a1 36 ac 3d
       0.08222529 0.034703787 0.011206395 0.08408857
000040 0f fd 3c 3d 78 f0 d6 3c e4 38 57 3c d4 b1 38 3d
       0.046139773 0.026237711 0.013136122 0.045091465
000050 c0 30 91 3c e6 df b2 3c aa 80 5b 3d d3 e8 40 3e
       0.017723441 0.021835279 0.0535895 0.18838815
000060 9a 9b 89 3d 11 53 20 3d ea 15 68 3c 5a a7 c1 3d
       0.06719132 0.03914172 0.014165381 0.09455748
000070 f5 d2 42 3e 77 3f 99 3d c1 a4 19 3e f0 6c 64 3d
       0.19025786 0.07482808 0.15004255 0.055767953

weight f4 [32, 96, 1, 1]
000000 60 af 20 3d db c8 c5 bd 6b 5f c6 3d 55 12 58 bd
       0.03922975 -0.09657451 0.09686168 -0.052751858
000010 d5 92 5c 3d 24 ca bb bc 06 5e b1 3d 59 1b 97 3c
       0.053850967 -0.022923537 0.08660512 0.018445658
000020 d9 a9 64 3d 3c 9d 66 bc e1 b9 a8 bc 0a 4d 4c 3c
       0.05582604 -0.0140755735 -0.020596446 0.012469539
000030 c0 65 0a 3d 1f a6 6b bd 47 f1 c1 3c cc d6 20 bd
       0.033788443 -0.057531472 0.02367462 -0.039267346
000040 b4 ce 3d bd 4c be 5f 3c 8f a7 ca 3d 3a e1 20 bd
       -0.046339706 0.01365621 0.098952405 -0.039277293
000050 03 ae 2d 3c 43 a2 b8 3d f3 9b 5a 3d 86 c2 81 bd
       0.01060057 0.09015324 0.05337138 -0.063359305
000060 8a c1 67 3d ab 0d a6 bd 5a 35 95 bc 36 6f b6 3c
       0.056581058 -0.08108076 -0.018213917 0.022269826
000070 9b eb 24 bd c3 61 47 bd 74 a2 3c bc 63 7a 5c bd
       -0.040263753 -0.048677217 -0.011513341 -0.053827655
000080 92 4b 5a 3d 61 f2 c3 bc bf 82 ba 3d 21 56 b5 bd
       0.053294726 -0.023919286 0.09106969 -0.088543184
000090 34 af 81 3c af dc e9 3c 88 29 95 bc 8d 48 c6 bd
       0.015830614 0.028547613 -0.01820828 -0.09681807
0000a0 2c e0 bf 3d a6 bf 86 3c bd fb 7c 3d ea 4f d0 3b
       0.09368929 0.016448807 0.061763514 0.0063571827
0000b0 5f 0a 99 bd dd 2d a6 bd cd f5 51 3d 15 e6 87 3d
       -0.07472681 -0.081142165 0.051259805 0.066356815
0000c0 5b b6 be 3d ec ba 80 3d c7 d1 d3 3d a3 ce 8b 3c
       0.09312125 0.062856525 0.10342746 0.017066306
0000d0 c0 33 83 3d 72 2d 54 bd 3a 06 b9 bd 0b a7 be bd
       0.06406355 -0.051801153 -0.09034391 -0.09309205
0000e0 9d bb 0d 3a 2c fa 69 3d bf a3 86 3c 4d 2f 6a 3d
       0.00054066797 0.057123348 0.016435502 0.057174016
0000f0 9c 2e 7a bd be 59 b5 3d 8a 64 b1 3d c8 ae bb bd
       -0.061079606 0.088550076 0.086617544 -0.09164196
000100 48 ae 9c bc e1 d8 a0 3c 57 56 d3 3d 69 22 92 39
       -0.019126073 0.019634666 0.103192024 0.00027872928
000110 06 a9 ea bc bf ef 94 bd 5c 79 f7 bc 7e cf b7 3d
       -0.02864505 -0.072722904 -0.030209236 0.08975123
000120 3d 8d 59 3c 3e ea 5c bd 03 ce 5a 3d b5 f5 ba bb
       0.013278303 -0.05393433 0.053419124 -0.00570556
000130 21 4c 7d bc 22 5c 98 3b 5e f1 33 bd 56 5f 29 bb
       -0.015460045 0.004649655 -0.043931358 -0.0025844178
000140 ca e0 bf 3c da 8c 5c bd 96 4a 99 3d 95 b6 06 bd
       0.023422617 -0.053845264 0.07484929 -0.032888968
000150 a3 82 93 bd 70 59 bb 3d a0 6a aa 3d 13 f0 b9 bd
       -0.07202651 0.09147918 0.08321118 -0.09078994
000160 f8 f7 c9 bc 34 6c bc bd b6 bf b3 3d b0 d3 a9 bb
       -0.024654374 -0.092003256 0.087768 -0.005182706
000170 7e e5 fb bc 74 8c ba 3d e0 be 2e bd 6d de 13 bd
       -0.030749079 0.091088206 -0.0426625 -0.036100794
000180 97 16 b4 3d 00 97 f4 3b 3b 74 b2 bd 41 c2 2d bd
       0.08793371 0.0074642897 -0.087135755 -0.042421583
000190 22 f5 7b bd f9 c1 47 3c 98 f6 04 3d 43 ba 4f 3d
       -0.061513074 0.012192243 0.032461733 0.050714742
0001a0 98 63 c9 3d 3c 6c 5c bd 37 fe 6a bd f5 a8 10 3d
       0.09833449 -0.053814158 -0.057371344 0.03531738
0001b0 25 65 af bd e5 be 1d 3d 84 21 3b 3d a3 2d c3 bc
       -0.08564214 0.03851213 0.04568626 -0.023825472
0001c0 40 e6 14 bd 31 fe dc bc 75 64 78 3c 80 9a 1f 3d
       -0.036352396 -0.026976677 0.01516067 0.038965702
0001d0 70 b4 d2 bd f0 03 22 3d 35 23 9d 3d 6c fb ac bd
       -0.10288322 0.039554536 0.07672731 -0.084463924
0001e0 65 57 3f 3c 2f 98 f9 3c 0c 45 6a 3d af fa 70 3d
       0.011678551 0.030468075 0.057194754 0.05883282
0001f0 38 36 e8 3c 6f 4d 99 bd cf 9c b0 3c ce 5a a4 3d
       0.028346166 -0.074854724 0.021559147 0.08025132
000200 23 7f d7 3c f4 c2 97 3d 83 85 ba bb df 33 0a bd
       0.02630574 0.07410231 -0.0056921854 -0.033740874
000210 ca c8 ca 3c 82 c0 b5 3d dc 4e 98 bc 3d 30 41 bc
       0.024753947 0.088746086 -0.01859229 -0.011791286
000220 6a c0 5f bd 9a ad b3 3d 75 a8 a2 bd 1a e5 cd 3d
       -0.05462686 0.08773346 -0.07942287 0.10053463
000230 77 fe 03 3d c3 3c c3 bd f0 bb 77 3d 11 6f 92 bd
       0.0322251 -0.09533074 0.060481966 -0.071500905
000240 d0 16 a5 bd 5f 0e c8 bd b6 4f 0e bd 9c 2f 24 bd
       -0.08060992 -0.09768366 -0.034743987 -0.040084466
000250 b8 2a 0c 3d b5 73 9b bc 07 ec 18 bd 8d 74 f2 3c
       0.034220427 -0.018976072 -0.03733447 0.029596591
000260 b2 e2 88 bc 67 00 d0 bb 9d 8a 2a bd 11 ed 85 bd
       -0.01670966 -0.006347704 -0.0416361 -0.065393575
000270 bd 2c 45 3d 9b ad 99 3a 00 2c bc bd 13 2f c9 3d
       0.04813837 0.0011724712 -0.0918808 0.09823432
000280 22 d0 b5 bc bf 4c 77 3c 6b 24 d0 bd 54 d6 d0 bd
       -0.022193972 0.015093981 -0.10163196 -0.1019713
000290 5f 56 d2 bb b9 13 10 3d 09 44 8d bd 33 45 ad bd
       -0.0064189876 0.03517506 -0.06897742 -0.08460464
0002a0 24 5d 94 3d 8e 45 00 bd cd c4 8f bd d8 76 c0 3d
       0.07244328 -0.031316333 -0.07019959 0.09397668
0002b0 ad 64 94 39 e6 be 80 bd 62 36 37 3d 26 bb ae bd
       0.0002830377 -0.06286411 0.044729598 -0.085317895
0002c0 9b 10 d2 3d 7d 92 37 3d 02 33 13 3d bc a4 02 bd
       0.102570735 0.044817436 0.035937317 -0.031895384
0002d0 82 55 0a 3d 55 eb cb bd 53 aa 87 3c 74 11 8b 3d
       0.033772953 -0.099569954 0.01656071 0.06790438
0002e0 f0 26 b8 3d 36 1b 42 bd 6d a9 d5 3c 17 a0 9c bd
       0.08991802 -0.04738923 0.026081765 -0.07647722
0002f0 4f a6 de 3d 35 44 20 ba 49 73 f8 bb d9 d7 b7 3b
       0.108715646 -0.0006113679 -0.0075821024 0.005610448
000300 b9 d6 26 bd e5 80 a6 3d 6c 11 8e 3d ac 9d 17 3d
       -0.04073212 0.081300534 0.06936917 0.037015602
000310 d3 a4 4f bb 6a a6 4c bd 1c 46 b3 3d 0f 47 a8 bd
       -0.0031683936 -0.049963392 0.08753607 -0.08216678
000320 3d 4a d5 3d f3 41 96 bd a3 59 6f bd 7d 86 ea 3d
       0.104145505 -0.073367976 -0.058435094 0.11451433
000330 0e c8 bd 3d f0 5b 90 3d c3 f1 83 bd 52 f4 4b 3d
       0.09266673 0.07048786 -0.06442597 0.04979355
000340 cf 11 50 3d 79 dd 97 3d 4d 24 9c bd 5d f7 b5 bd
       0.050798234 0.074152894 -0.07624111 -0.088850714
000350 3d f9 81 bb 13 80 a8 bd 5a 77 30 3d 1a 5e 89 3b
       -0.003966479 -0.08227553 0.043082573 0.004192126
000360 87 92 90 bd 92 24 9f bd cb 99 c9 bc b8 6d fa 3c
       -0.07059198 -0.07770647 -0.024609467 0.030569896
000370 16 1c b4 3d be 37 9a bc 43 e8 bb 3d 6b d7 ac bd
       0.087944195 -0.018825408 0.0917516 -0.08439525
000380 d9 51 58 bd 82 c1 d4 bc ff 94 5c bd 22 05 44 3c
       -0.05281243 -0.025971178 -0.05385303 0.011964114
000390 4c 1d 19 3d 97 96 9d bd 94 fc 32 3d 66 8e 37 bd
       0.037381455 -0.07694738 0.04369791 -0.044813536
0003a0 27 4d 66 3d 20 fa 3c bd 64 95 ce bd 32 63 e4 bc
       0.056225922 -0.046136975 -0.10087088 -0.027879331
0003b0 5e 1e a3 bd 8d dd 15 3c 36 98 70 3d 35 b2 25 bd
       -0.079647765 0.00914706 0.05873891 -0.040453155
0003c0 66 d4 84 3d a6 1e a9 bd da eb d3 3d 2f 2a 91 3d
       0.06485824 -0.08257799 0.103477195 0.07088124
0003d0 41 76 53 3c 28 6e 95 bd f8 3b 1c bd e6 62 9a bd
       0.012906612 -0.07296401 -0.03814313 -0.07538395
0003e0 01 49 dc 3c f1 d4 5f bc 6f 61 1e bd 2f 9a 07 3c
       0.02689028 -0.013661609 -0.03866714 0.008276506
0003f0 97 cd d1 3d df 32 a3 3d 8f fd 44 ba 3b 23 a2 bd
       0.10244291 0.07968687 -0.000751459 -0.07916876

weight f4 [32]
000000 a2 69 80 3f 51 db 84 3f 8f 59 7f 3f 12 54 80 3f
       1.0032237 1.037943 0.9974603 1.0025656
000010 c2 76 81 3f a0 77 7c 3f 13 a8 7e 3f aa ae 7d 3f
       1.0114367 0.98620033 0.9947521 0.9909464
000020 02 dd 7f 3f 22 21 7d 3f e2 bb 7f 3f e1 95 80 3f
       0.99946606 0.9887868 0.9989606 1.004574
000030 21 f0 7d 3f 0b a6 7e 3f 7d 40 80 3f 58 fb 7c 3f
       0.9919453 0.9947211 1.001968 0.9882102
000040 a7 d7 7e 3f 19 8f 7d 3f 9a 20 80 3f 99 68 7d 3f
       0.9954781 0.99046475 1.0009949 0.9898773
000050 6c 54 7f 3f 84 a2 7f 3f 51 1e 82 3f 1f bd 82 3f
       0.9973819 0.99857354 1.0165502 1.0213965
000060 8c 56 7d 3f ad c7 7b 3f f4 8d 80 3f e5 49 7d 3f
       0.98960185 0.98351556 1.0043321 0.9894088
000070 96 8a 80 3f 3c 82 7e 3f 7c 76 7d 3f e4 66 80 3f
       1.0042293 0.9941747 0.9900892 1.00314

bias f4 [32]
000000 4e 4c 8e bb 47 08 8b 3c 6d 0c 9a bb 82 a3 3c bc
       -0.0043425923 0.01697172 -0.0047011883 -0.011513593
000010 2f 6c 0b 3d 69 77 52 bc 07 e5 99 bc 6a 75 36 3b
       0.03403872 -0.012845852 -0.018785967 0.002784098
000020 24 00 12 bb 68 60 85 3c 42 e4 b0 3b ae 7a aa 3b
       -0.0022277916 0.016281322 0.005398304 0.005202613
000030 5c 6c db ba 73 68 45 3c a6 14 6f bc b8 b3 b1 bb
       -0.0016740668 0.012048828 -0.014592325 -0.0054230355
000040 d0 9b 40 3c 8a 60 9a bb 22 9d 5e bb e7 8f 65 bc
       0.011755899 -0.0047112154 -0.003396817 -0.01401136
000050 bc 08 a9 3b d5 bd 1c 3c 48 ae 32 bc 3e f0 8d 3b
       0.005158512 0.009566744 -0.01090581 0.0043316176
000060 5b 14 a6 3b 2b 84 23 bc 2d 78 b9 bc aa 9f 4b 3b
       0.0050683445 -0.009980242 -0.022640312 0.003107051
000070 06 73 9f bc ba 5d 8a 3b 83 68 21 3c 43 74 25 3c
       -0.019464027 0.004222599 0.009851578 0.01009852

running_mean f4 [32]
000000 69 79 2e 3e d0 98 9a bd 6f 77 95 3d 58 e2 83 be
       0.17038502 -0.07548678 0.07298171 -0.25758624
000010 f4 2c 3f be 86 12 49 bd 33 18 ab 3e 70 fa d4 3d
       -0.18669492 -0.04908993 0.334169 0.1039933
000020 a8 5d 0d 3e 1e 8b 0f be e3 65 67 3e 58 e7 f8 3d
       0.13805258 -0.14017913 0.2259746 0.121535
000030 43 06 bf be 56 ea e8 be f7 ea 99 bc 62 3e c6 bd
       -0.37309465 -0.45491284 -0.018788798 -0.09679867
000040 bf 58 fb bd c7 d1 c1 bd 46 7f 5f 3e 47 e5 8b be
       -0.12272786 -0.0946384 0.21825895 -0.27323362
000050 4f 94 f7 be 0c 2a 12 3d 60 81 9e bd 2f 8e 1f 3e
       -0.48355338 0.03568463 -0.0773952 0.15581582
000060 28 e8 8e be 73 72 dd be eb 52 c5 bd d0 d7 ec bd
       -0.27911496 -0.4325138 -0.09634956 -0.115646005
000070 36 1b 92 bc e1 cf d6 be 8d c8 34 be d8 35 80 be
       -0.01783524 -0.41955474 -0.17654629 -0.2504108

running_var f4 [32]
000000 20 29 5a 3d e1 45 34 3c db 80 7c 3d 96 6a 0a 3e
       0.053261876 0.011002989 0.061646324 0.13517222
000010 25 36 17 3e 1e 76 da 3d c5 75 ad 3d b6 13 a3 3d
       0.14766748 0.1066706 0.084697284 0.07962744
000020 50 5e 78 3c 51 a2 12 3e 19 e5 17 3d 74 36 61 3d
       0.015159205 0.14319731 0.03708372 0.05498357
000030 07 7a 95 3d 73 6f 66 3e 49 58 0f 3d 9c 48 0b 3d
       0.072986655 0.22503452 0.034996305 0.034004793
000040 b6 2a 91 3d 13 54 8d 3d a2 10 22 3e 12 ee 98 3d
       0.070882246 0.069008015 0.15826657 0.07467283
000050 89 b2 ae 3d 68 60 cd 3c 57 84 a6 3c 81 ed 4b 3c
       0.08530147 0.025070384 0.020326776 0.012446762
000060 1a 47 01 3d 8f c5 83 3e 20 b4 b3 3c c9 5b 3d 3d
       0.03156195 0.25736663 0.021936476 0.04623011
000070 20 00 92 3c 90 42 25 3e 76 53 14 3e ab 19 41 3d
       0.017822325 0.16138673 0.14484963 0.04714362

weight f4 [96, 32, 1, 1]
000000 32 93 e6 bd 2a 4a 94 3d 01 90 77 3d 5d 2d 95 3c
       -0.11258544 0.07240708 0.060440067 0.018210107
000010 38 31 4e 3d 35 0d 5a bd ea 8f 23 3e f9 77 35 3d
       0.050339907 -0.05323525 0.15972868 0.044303868
000020 5c 9f 1b 3e 2b 74 78 3d dc 38 15 3e 3d f0 e6 bd
       0.1519751 0.06065766 0.14572471 -0.112762906
000030 2e 13 2f bd b1 5b e5 bb 94 13 20 be fa 66 0f be
       -0.0427429 -0.006999456 -0.15632468 -0.14004126
000040 ad 9b b2 bc b7 01 43 3c bc ca 9f bd 12 42 12 be
       -0.021802748 0.011902264 -0.078023404 -0.14283016
000050 a1 e2 fd bd a5 aa f2 bd a4 34 0b be 00 41 f9 3c
       -0.12396742 -0.11848954 -0.135943 0.030426502
000060 b9 58 24 3e ae 00 0d be be 4c c4 3d be b5 f9 3d
       0.1604947 -0.1376979 0.0958495 0.12192868
000070 fa 80 95 bd 57 2d 67 3d 52 4f ca 3d ac 87 a9 3d
       -0.07299991 0.056439724 0.098784104 0.082778305
000080 e1 e3 23 3e bd 9f b2 3d 10 dd 0c 3e 9f ce 2e 3e
       0.16004898 0.08721874 0.13756204 0.17071007
000090 2f 7e d3 3d 4a 86 82 bc 14 bd d0 bd 07 a3 f3 3d
       0.10326802 -0.015933175 -0.10192314 0.118963294
0000a0 7c 6b 0a 3e 6b d9 cc bd 3e b0 f0 bd c8 d5 45 3d
       0.13517565 -0.10002407 -0.117523655 0.04829958
0000b0 20 33 c7 3d 2f 5b 60 3d e4 d3 05 bd cf e9 c2 bd
       0.09726548 0.05477446 -0.032672778 -0.09517252
0000c0 02 d6 16 3e d8 64 ea 3c 06 01 e3 3d 0f 6f 0e be
       0.14730075 0.02861254 0.110841796 -0.13909553
0000d0 ad 28 97 3d 1d 1f a7 bd c7 94 1e 3e 8f a6 51 3d
       0.07380805 -0.08160231 0.15486442 0.051184233
0000e0 b3 2c 53 bd 1f 77 2c 3d 0e ec 01 3d 54 45 a1 bd
       -0.0515563 0.04210579 0.03171926 -0.078745514
0000f0 75 40 1f bd a9 65 61 3d 19 7e 06 be 9b 04 3e ba
       -0.03887983 0.05502859 -0.1313404 -0.0007248611
000100 fb da d8 3c 71 e1 08 3e 73 33 3b 3e 35 f3 39 3d
       0.026471606 0.13367249 0.18281345 0.045397956
000110 35 6c ff bd 50 f5 fd 3d c3 82 50 bd aa ab 0d 3d
       -0.12471811 0.12400305 -0.050905954 0.03458754
000120 d6 0c 21 be 91 52 e5 bd ed 18 b4 bd ae ae 87 3b
       -0.15727553 -0.11197389 -0.08793817 0.0041406965
000130 6c d3 c8 3d 13 ea dc 3d 69 c7 bc bd 26 86 94 3d
       0.098059505 0.107868336 -0.09217722 0.07252149
000140 fb 8f ec ba 27 de ee bd 8d 35 27 be bf 3a 18 3e
       -0.0018048281 -0.11663466 -0.16329022 0.1486616
000150 3f 78 38 be f8 7c 0c be 68 15 e4 3d 14 a2 83 3d
       -0.1801462 -0.13719547 0.111368954 0.06427398
000160 32 b8 26 3d 4c 27 af bd 77 c8 0f be eb 36 9e bd
       0.040703006 -0.08552417 -0.14041315 -0.077253185
000170 4e 7c 96 3d da 4d 0f 3d de c4 b1 bc 10 af 18 be
       0.07347928 0.034986354 -0.021700319 -0.14910531
000180 55 33 32 3e 78 9f 01 3c 9c 3b fb 3d 31 26 30 be
       0.17402394 0.0079115555 0.12267229 -0.17202069
000190 78 46 1a be 8b 0d 23 3e 8d 4d 1f be 33 42 ca bd
       -0.15065944 0.15923135 -0.15556927 -0.09875908
0001a0 0a 82 20 be b5 d1 4b 3d 4b 53 d7 b7 6a 25 ef 3d
       -0.15674606 0.04976054 -2.5668784e-05 0.11677058
0001b0 da fe 2e 3e 63 f8 96 bd 00 6f c3 3d 13 f3 1b be
       0.17089406 -0.07371595 0.09542656 -0.15229444
0001c0 16 3b cc 3d cd 17 93 bd 8d c6 b4 bd 0b e2 eb 3d
       0.09972207 -0.07182274 -0.08826933 0.11517724
0001d0 a7 b0 f9 bd f5 cb 8e 3d 76 b6 05 be 40 25 be bd
       -0.12191897 0.069724955 -0.13057885 -0.092844486
0001e0 4e b3 a0 3d d2 d6 e9 3d 9b a3 20 3e 3b e6 f3 bd
       0.078467 0.11417927 0.1568741 -0.11909147
0001f0 6c 58 9d bd 3c e4 a2 bd f9 e7 a7 3d 52 6c 47 3d
       -0.07682881 -0.079536885 0.08198542 0.048687287
000200 eb 3e 3d bc 20 2b 84 3d f9 b8 25 be f3 a2 88 bd
       -0.011550645 0.06453538 -0.16183843 -0.06671705
000210 59 71 2e be 8e 01 0f 3e b6 73 22 be 76 8a ea 3d
       -0.17035426 0.13965437 -0.15864453 0.114521906
000220 1a 57 03 3c 6d 36 51 ba 95 e4 f9 bd 22 4e bc 3d
       0.008016372 -0.00079808274 -0.12201802 0.0919459
000230 82 25 30 be 30 73 5f bd 4b 74 55 bd e6 ba 1c be
       -0.17201808 -0.05455321 -0.05211286 -0.15305671
000240 0a d0 e8 3d 0b 03 e7 bd aa 22 9d 3c ef de ce bd
       0.11367805 -0.11279877 0.019181568 -0.10101115
000250 23 53 ac 3a d3 c3 d9 bb 27 38 0e be 77 22 4d bd
       0.0013147335 -0.0066456585 -0.13888608 -0.050081696
000260 06 b6 24 3e 6c af 2a be 1c e2 14 bd 01 b4 2f bb
       0.16085061 -0.1666848 -0.036348447 -0.0026810172
000270 73 2f de 3c 8c d6 e0 3c 09 54 81 3d c6 86 41 bd
       0.027122235 0.027446054 0.063148566 -0.04724767
000280 81 1e c5 3d b4 26 fc 3c d0 36 57 bd a8 cd 1e 3e
       0.09624959 0.030780174 -0.052542508 0.15508139
000290 11 38 0f be 9c d8 cc 3d 2e b1 2e be d6 0a 49 3c
       -0.13986231 0.100022525 -0.17059776 0.01227065
0002a0 85 97 e3 bd 59 11 98 bc 2e c1 20 3c 71 78 27 be
       -0.111128844 -0.01856296 0.009811683 -0.16354539
0002b0 2a db 02 be 09 94 50 3d fb 6b 09 be e6 75 83 bd
       -0.12778917 0.050922427 -0.13420098 -0.06418972
0002c0 85 17 6d bd 54 87 4f bb 41 a7 b0 bd 48 52 eb 3c
       -0.057883758 -0.0031666355 -0.08625651 0.028725758
0002d0 da fb aa bc e3 c5 a4 3c 92 2e 38 be a5 91 9b 3d
       -0.020872045 0.020113891 -0.17986515 0.07596139
0002e0 34 04 a3 bd 81 59 c0 bd 3d 1c af bd 3c 48 bd 3d
       -0.07959786 -0.093920715 -0.08550308 0.09242293
0002f0 65 17 33 3e f6 5d 08 3e 3d 35 29 be ec d3 f9 3d
       0.17489393 0.13317093 -0.16524215 0.12198624
000300 29 75 32 3e b0 29 08 3e aa be 8c 3d ee 42 12 3e
       0.17427506 0.13297153 0.06872304 0.14283344
000310 7b 4b 63 3d c5 1c 39 3d 13 8a 15 be 2f 06 7e bd
       0.055491906 0.045193452 -0.14603452 -0.062017616
000320 5d dc 2c be 96 09 31 bd 1a d4 e9 3d 2e 79 cb bc
       -0.16880937 -0.043222032 0.11417408 -0.024838056
000330 d3 12 09 bd 7a 3a 1e 3e a5 dc 04 3e e7 a2 a2 bd
       -0.033465218 0.15451995 0.12974794 -0.079412274
000340 51 cc 99 3d ea 7d e5 bd f8 3d 2d bd d4 76 a3 3c
       0.075096734 -0.11205657 -0.042295426 0.019954123
000350 66 a2 f5 bd a0 6a 06 bd f8 6e 26 be 11 e8 2a 3e
       -0.11993866 -0.03281653 -0.16253269 0.16690089
000360 d3 13 14 be 91 e5 09 bd 88 76 89 3d 85 41 37 3d
       -0.14460687 -0.033666197 0.06712061 0.04474022
000370 e3 14 a1 bd a7 83 2f be fc 5d 64 3d 68 af 2f be
       -0.07865312 -0.17140065 0.055753693 -0.17156756
000380 ea d7 10 3d ac 36 26 3e 51 3c 1a bd ea b4 ab bd
       0.03536216 0.16231793 -0.03765518 -0.08384116
000390 9c 24 fd 3d ea a2 4a 3c e4 07 75 bd 4e 43 fd bd
       0.12360498 0.012367943 -0.05982198 -0.12366353
0003a0 47 68 d9 3d 85 45 8e bd e2 cb 2c 3e 36 f8 cc bd
       0.106155924 -0.069468535 0.1687465 -0.1000828
0003b0 66 fc ba bd c2 76 16 be 37 9f 3b bd 97 c3 ee bd
       -0.091301724 -0.1469374 -0.045806136 -0.116583996
0003c0 d7 d8 03 3e e7 18 1a 3e 21 ff 1f be 18 b6 de 3d
       0.12875687 0.15048562 -0.15624668 0.108745754
0003d0 db 44 73 3d ad 06 ae bd de 3a 06 be b2 19 04 bd
       0.059391838 -0.08497367 -0.13108394 -0.032251067
0003e0 e9 fc 20 3e f8 09 c7 3b 1f 1f 07 be f3 ae 1d 3d
       0.15721478 0.0060741864 -0.13195466 0.038496923
0003f0 b9 33 20 bd a8 a5 a3 bd e1 35 34 bd 1b c9 29 be
       -0.039111827 -0.07990581 -0.043996695 -0.16580622

weight f4 [96]
000000 d2 0f 7d 3f ca 0f 7d 3f 9d 0f 7d 3f db 0f 7d 3f
       0.98852265 0.9885222 0.9885195 0.9885232
000010 cf 0f 7d 3f 85 0f 7d 3f ab 0f 7d 3f 05 10 7d 3f
       0.98852247 0.98851806 0.9885203 0.9885257
000020 7c 0f 7d 3f db 0f 7d 3f d7 0f 7d 3f cd 0f 7d 3f
       0.9885175 0.9885232 0.98852295 0.98852235
000030 d3 0f 7d 3f 93 0f 7d 3f 4c 0f 7d 3f 95 0f 7d 3f
       0.9885227 0.9885189 0.98851466 0.988519
000040 30 0c 7d 3f a0 0f 7d 3f de 0f 7d 3f cb 0f 7d 3f
       0.9884672 0.98851967 0.98852336 0.98852223
000050 ca 0f 7d 3f d4 0f 7d 3f d5 0f 7d 3f 90 0f 7d 3f
       0.9885222 0.98852277 0.9885228 0.9885187
000060 d9 0f 7d 3f d7 0f 7d 3f ba 0f 7d 3f be 0f 7d 3f
       0.98852307 0.98852295 0.9885212 0.98852146
000070 83 0f 7d 3f 4e 00 7d 3f d7 0f 7d 3f c3 0f 7d 3f
       0.98851794 0.9882859 0.98852295 0.98852175
000080 d8 0f 7d 3f cd 0f 7d 3f e1 0f 7d 3f 13 0f 7d 3f
       0.988523 0.98852235 0.98852354 0.98851126
000090 d5 0f 7d 3f f2 0e 7d 3f 93 0f 7d 3f d4 0f 7d 3f
       0.9885228 0.9885093 0.9885189 0.98852277
0000a0 b7 0f 7d 3f bd 0f 7d 3f d9 0f 7d 3f c2 0f 7d 3f
       0.98852104 0.9885214 0.98852307 0.9885217
0000b0 2d 04 7d 3f da 0f 7d 3f f4 0e 7d 3f dd 0f 7d 3f
       0.98834497 0.9885231 0.9885094 0.9885233
0000c0 ca 0f 7d 3f d8 0f 7d 3f c4 0f 7d 3f ab 0f 7d 3f
       0.9885222 0.988523 0.9885218 0.9885203
0000d0 e4 0f 7d 3f dc 0f 7d 3f d4 0f 7d 3f d8 0f 7d 3f
       0.9885237 0.98852324 0.98852277 0.988523
0000e0 d8 0f 7d 3f cd 0f 7d 3f d6 0f 7d 3f 9a 0f 7d 3f
       0.988523 0.98852235 0.9885229 0.9885193
0000f0 dc 0f 7d 3f 85 0f 7d 3f c8 0f 7d 3f bc 0f 7d 3f
       0.98852324 0.98851806 0.98852205 0.98852134
000100 ab 0f 7d 3f b5 0f 7d 3f d8 0f 7d 3f da 0f 7d 3f
       0.9885203 0.9885209 0.988523 0.9885231
000110 b0 0f 7d 3f 92 0f 7d 3f d6 0f 7d 3f bd 0f 7d 3f
       0.9885206 0.98851883 0.9885229 0.9885214
000120 d9 0f 7d 3f bc 0f 7d 3f cd 0f 7d 3f be 0f 7d 3f
       0.98852307 0.98852134 0.98852235 0.98852146
000130 e7 0f 7d 3f dd 0f 7d 3f df 0f 7d 3f cc 0f 7d 3f
       0.9885239 0.9885233 0.9885234 0.9885223
000140 57 0f 7d 3f d7 0f 7d 3f d7 0f 7d 3f d9 0f 7d 3f
       0.9885153 0.98852295 0.98852295 0.98852307
000150 01 0f 7d 3f d9 0f 7d 3f ca 0c 7d 3f df 0f 7d 3f
       0.9885102 0.98852307 0.9884764 0.9885234
000160 c8 0f 7d 3f c7 0e 7d 3f dd 0f 7d 3f 6a 05 7d 3f
       0.98852205 0.98850673 0.9885233 0.98836386
000170 d1 0f 7d 3f cd 0f 7d 3f c7 0f 7d 3f d5 0f 7d 3f
       0.9885226 0.98852235 0.988522 0.9885228
