cnn/models/pavia/pavia1pmodel06-16-13-02-26_0-0.pkl (torch, 787419 bytes, 102 tensors)

weight f4 [96, 103, 3, 3]
00000000: c3cf d03c 1dc8 f3bb 6be8 69bb 403f cc3c
00000010: 5aec aebc 4f95 ba3c 57dc 973b dd29 b73c
00000020: 40b5 0e3c 7f8e 993b 27ac 853c a62b b93b
00000030: ce80 ad3c 8498 e3bb 270c 333b 8333 f73b
00000040: 51d0 243c 0a00 f03b ac2a 0f3d 256c 8e3c
00000050: f311 c4bb 8b9d 43bc 08b2 18bb c5e9 ffbb
00000060: b2f6 fdba 1459 9e3b 2310 df3c a636 bf3c
00000070: 5f3c c7bc a6d4 db3c 4f2c 7f3c 37a0 073d
00000080: 49cb dc3c b941 adbc b182 ddbc ee3f ffbb
00000090: 1386 073d b249 a53a 2ddf a83c 9e77 1abc
000000a0: 12e1 0b3d 2a07 02bc 545f fa3c ddc8 3f3b
000000b0: 7c77 38bc f9d1 a73c c9d3 3fbc 522b 833c
000000c0: cd02 a5bb 739f 93ba 730d cabc 711a 2cbc
000000d0: c6dc 963c d0d4 55bb c6e6 0f3d d654 ef3c
000000e0: 962f 693b b135 94bc c32a a93c dd04 773c
000000f0: dddf 83bc 2ec2 af3c c201 bc3c 7315 eb3c
00000100: f9e1 88bc 692a 7ebb b753 0fb9 0003 483b
00000110: 2d62 b4bc cb38 a4bc ffb4 853c 2130 d2bb
00000120: 43b0 5d3c 6fd6 0a3b 3ca5 1c3c 9a8c b13b
00000130: 5164 0c3c f844 813c ea52 e8bc 15ef 5e3c
00000140: af45 bdbc d690 debc 3974 133b f612 b1bb
00000150: a82a 843c 8a8e b7bc 965b eebc 8e23 c53c
00000160: 35cb 02bc ed09 913c b842 103c 139a b8bc
00000170: 18c9 0f3c 94d5 b13b b1d2 cabc 0c60 67bc
00000180: 73f9 463c f57e 653b 3c6c 4dbc 6781 3fbc
00000190: e294 f23c 98e0 99bb afc9 773c 3dc6 253c
000001a0: 881f aabc 40b5 dcbc 070b e73c d82e c53a
000001b0: 81e9 943c 7d3b 833b 4df9 123c dfaf a03c
000001c0: 6a3f cb3c d102 c2bc 9d74 463b 609e a23c
000001d0: bca6 b03c 7caf 663c e364 e3bc 6782 d7bc
000001e0: 07f0 d1bc 31fd 7cbb 2a54 e63c 1549 bdbc
000001f0: 6521 303c 251d a6bc 7d15 14bd 456e 2cbc
00000200: ab45 843c 55e2 c23c 00cd e0bc 9b34 7c3b
00000210: 5376 cc3c b398 6e3c f765 953c 862b 8a3c
00000220: e08e 8e3c a48b dc3b 8a23 e2bc cf5c 0abd
00000230: 1c0b 90bc 7401 c9bb 81fa d2bc e6d7 273c
00000240: cb40 533b 1207 30bc 52f1 263c c6e2 8b3b
00000250: 75d9 413c 48d2 923c 343d 60bc 0906 ce3c
00000260: 7e2c c5bb 74a7 f5bb 843e 0cbd e3cc c2bc
00000270: 8ef6 ccbc 12ae b5bc 56f0 973c d893 5bbc
00000280: ee4a f4bc a76b 1d3c e362 9d3b 1297 903c
00000290: 7b87 a0bc 9439 b33a 3770 9cbc ac50 30bc
000002a0: c2bb e4bc 7c30 9fbc cbcd 3fbc 4330 0d3c
000002b0: 4fdc 593b da33 b53b 3c16 dc3c 66ef c83c
000002c0: db32 9b3c 63b6 87ba 76e2 d7bc 8735 c53c
000002d0: 772d 52bc 5656 8fbb 8d45 eebc 5394 35bc
000002e0: c6f4 d9bc 6cc1 df3c bac0 eebc 96cc e6bc
000002f0: aa03 9aba c141 b4bc a87a 213c 5357 5abc
00000300: 9af5 a0bc badf 7abb 0266 ae3c cd4e c0bc
00000310: fdef 4a3c e578 ab3c 9be1 e03c 93cc bfbc
00000320: fcbe f43b 903f e1bc 3052 b93c bd85 65bc
00000330: 7bd3 9e3c f4d8 5cba b0a9 e0ba de05 90bb
00000340: a497 ae3b c286 7c3c 863d 1f3b 5fb5 c23b
00000350: 81d8 f5bc 7970 c73c ae3e dd3c 26dc e43c
00000360: b367 a73c efae b9bc 015a 35bc c6b2 d53c
00000370: 1a51 e2bc 128c ec3c 89c7 c1bc 43a4 babc
00000380: da34 933c beeb d5bc a9a4 ccbb 8e39 c93c
00000390: b4d9 c33c 4742 e53c 7e78 ccbb 42a1 b9bc
000003a0: 9e2f 053d 48aa 86bb c475 80bc 7fec 133c
000003b0: 8d47 abbc d139 a53c 6f51 983c 0ece c9bc
000003c0: 2828 c2bc 254f b5ba 5dfe 893c ff72 3fbb
000003d0: 7121 74bc 2667 323b 6f20 febc 7fb8 c2bc
000003e0: c3a9 a4bc 5327 f13c 9059 f53c 9a50 e3bb
000003f0: 284a 1bb9 c931 853c 6199 cf3b ae3b 87bc
0.025489694 -0.007439627 -0.003569151 0.024932504 -0.021352936 0.022776274 0.004634421 0.02235883
0.008710206 0.0046861763 0.01631744 0.0056509553 0.021179583 -0.0069456715 0.0027320476 0.0075439825
0.010059432 0.0073242234 0.034952804 0.017385552 -0.005983585 -0.011939417 -0.0023299474 -0.00780985
-0.0019375889 0.0048323963 0.027229374 0.023341488 -0.02432078 0.026834797 0.015574529 0.033111777
0.026952403 -0.021149503 -0.027039858 -0.0077896034 0.033086848 0.0012610464 0.020614231 -0.009427933
0.03415019 -0.007936278 0.030563034 0.002926401 -0.011258956 0.020485865 -0.011708208 0.016011868
-0.0050357343 -0.001126273 -0.024664616 -0.010504351 0.01841582 -0.0032628067 0.035132192 0.029215258
0.0035581342 -0.018092008 0.020650273 0.015076843 -0.016097957 0.021454897 0.022950057 0.028696751
-0.016709315 -0.0038782603 -0.00013668729 0.0030519366 -0.02201947 -0.020046612 0.016321657 -0.006414429
0.013530794 0.0021184941 0.009560879 0.0054183723 0.008568839 0.015779957 -0.028359849 0.013606806
-0.023104517 -0.027168673 0.0022499694 -0.0054038716 0.016133621 -0.022406835 -0.029096406 0.024064805
-0.007983019 0.017704928 0.0088049695 -0.022534406 0.008775972 0.005427072 -0.024758669 -0.01412202
0.012144434 0.00350183 -0.012538012 -0.011688567 0.029612008 -0.004695963 0.015123769 0.0101180645
-0.020766988 -0.026941895 0.0282035 0.0015043868 0.01817775 0.0040048943 0.008970571 0.019615112
0.024810512 -0.023682984 0.003028191 0.01985091 0.02156388 0.014079925 -0.027758067 -0.026307298
-0.02562715 -0.0038603062 0.028116304 -0.023106137 0.010750149 -0.02027757 -0.036153305 -0.010524337
0.016146502 0.023789564 -0.027441502 0.0038483504 0.024958765 0.0145627735 0.018237097 0.016866457
0.017402112 0.0067305136 -0.027604837 -0.033779915 -0.017583422 -0.0061342064 -0.025754215 0.010244345
0.0032234665 -0.010743873 0.010189371 0.004268977 0.011831631 0.017922536 -0.013686467 0.025149362
-0.006017267 -0.0074967686 -0.034239307 -0.023779338 -0.02501991 -0.02217773 0.018547218 -0.013401948
-0.029820886 0.009608186 0.004803048 0.017650161 -0.019595852 0.0013673776 -0.019096477 -0.010761421
-0.027921561 -0.019432299 -0.01170678 0.0086174635 0.0033242886 0.005529863 0.02686607 0.024528217
0.018945148 -0.0010354038 -0.026353102 0.024073375 -0.0128282225 -0.0043743057 -0.029085899 -0.0110827265
-0.026605975 0.02731391 -0.029144634 -0.028173726 -0.001175036 -0.02200401 0.009855904 -0.013326484
-0.019648362 -0.0038280324 0.021288875 -0.023475075 0.012386319 0.02093167 0.027451327 -0.023412978
0.007469056 -0.02749613 0.022622198 -0.0140089365 0.019387951 -0.00084246625 -0.0017140415 -0.0043952307
0.0053281356 0.015412988 0.0024298145 0.0059420313 -0.030010464 0.024345623 0.027007427 0.027937006
0.02043519 -0.022666423 -0.011068822 0.026086222 -0.027626563 0.028875384 -0.023654716 -0.022783404
0.017969538 -0.026113387 -0.006245215 0.024563577 0.02390752 0.027985705 -0.0062399497 -0.022659902
0.032516114 -0.0041096546 -0.015681155 0.009028553 -0.020908142 0.02016917 0.018593518 -0.024634387
-0.023700789 -0.0013832791 0.016844923 -0.002921283 -0.014900551 0.0027222126 -0.031021325 -0.023769615
-0.02010048 0.029437697 0.029949933 -0.0069370987 -0.00014809577 0.016259091 0.006335423 -0.01650795

weight f4 [96]
00000000: 26d3 7a3f 7cbc 7a3f 86a3 783f 379d 7b3f
00000010: c4fa 793f 9ee9 793f 1300 7a3f 30b0 7a3f
00000020: 7293 7a3f 263b 793f 91cf 7a3f df29 7d3f
00000030: 48ad 793f 2e8b 7a3f a198 793f 0b0b 7a3f
00000040: e744 7b3f cf6f 7b3f 206b 7a3f a3df 7a3f
00000050: dc62 793f 8e18 783f cc8e 7a3f b09a 7a3f
00000060: 0c03 7b3f a336 7e3f 7f16 7c3f 2ce5 793f
00000070: 68fe 793f 6f82 7a3f 5caf 7d3f 3166 7c3f
00000080: fe99 763f 69aa 7b3f 6fc2 7c3f 8d0a 7c3f
00000090: 6542 7c3f ce07 7c3f ac83 793f 4f54 793f
000000a0: 4a04 7b3f 6f7b 793f 0bd3 793f 64eb 773f
000000b0: d6fb 783f 13d9 7a3f d0bc 7a3f 14a8 793f
000000c0: 427e 7a3f eac0 7a3f 76c7 7a3f 4a79 7a3f
000000d0: 4db4 7a3f 4e4c 7a3f c3cf 7a3f 2a1e 7c3f
000000e0: 5443 7b3f d33d 7a3f 7397 7a3f 0e60 7d3f
000000f0: 046b 7a3f e753 7a3f a1d0 793f c48c 7a3f
00000100: 3e3f 7b3f e1e0 7a3f ae81 793f 263f 7a3f
00000110: 08f5 783f 1a71 7d3f fff8 793f f199 783f
00000120: ce5a 7a3f 2197 7c3f c724 7b3f 7b34 7a3f
00000130: 2dff 7a3f 59bf 7b3f 6426 7a3f 9dfc 793f
00000140: 9249 7a3f 44a8 7a3f 8e37 7a3f 10a0 7a3f
00000150: df00 7b3f d6bc 793f a681 7a3f 8de2 7a3f
00000160: 5230 793f da77 7a3f dd96 793f 699a 7a3f
00000170: 35cd 7b3f 09cf 7a3f 81b3 793f c96b 783f
0.97978437 0.97943854 0.97124517 0.98286766 0.9764826 0.97622097 0.97656363 0.9792509
0.97881234 0.9735588 0.9797297 0.98892015 0.9753003 0.9786862 0.9749852 0.976731
0.9815201 0.9821748 0.9781971 0.9799749 0.9741647 0.9691247 0.9787414 0.97892284
0.98051524 0.9930212 0.98471826 0.97615314 0.9765382 0.97855276 0.990957 0.9859343
0.96328723 0.983069 0.9873418 0.984536 0.9853881 0.9844941 0.9746654 0.9739427
0.9805342 0.9745397 0.9758765 0.9684355 0.9725927 0.9798748 0.97944355 0.9752209
0.97848904 0.97950613 0.97960603 0.9784132 0.9793137 0.9777268 0.9797327 0.98483527
0.9814961 0.97750586 0.97887343 0.9897469 0.9781954 0.97784275 0.9758397 0.9787104
0.98143375 0.9799939 0.974635 0.97752607 0.9724889 0.99000704 0.9764556 0.97109896
0.97794807 0.98668104 0.9810299 0.9773633 0.9804562 0.9833885 0.9771483 0.9765108
0.9776851 0.97913 0.9774102 0.97900486 0.98048204 0.97553766 0.9785408 0.9800194
0.97339356 0.9783913 0.97495824 0.9789186 0.98359996 0.9797216 0.97539526 0.9703947

bias f4 [96]
00000000: 8c37 143b edd2 98bb 18f2 99bb 2764 16bc
00000010: 034b ec3a 7236 2ebc 8bd2 b83b 0a3b 5bbb
00000020: 1e77 c1b8 ac5c 56bc a210 173c ff23 c9bb
00000030: 6f0d 83bc 020e 153c aaa0 723b 5b65 53bb
00000040: 093f 8fbb de72 99bb 49a3 03bc 8b00 0fbc
00000050: 6b57 363b e4b8 8ebb 4150 dfba b7bf 33bb
00000060: c06a 60bb 9d5f 973a 972d 043b 58cc 90bb
00000070: 75b7 7539 25e3 07ba f554 11bb 0c6e 07bb
00000080: eebb a1bb 48bd 9d3b 0801 013b e1ee 14bb
00000090: 9daa 1fbc f7a7 753c 0589 5f3b 3ab6 b8ba
000000a0: ae36 28bc dffa c93a 8dea b83a c16b 7bbc
000000b0: ba8a 46bc 9b81 41bc 369f 6dbb 7092 82bb
000000c0: 72c3 b4ba c474 e13b 578f 1f3b 1693 4cbb
000000d0: 1b9a 863b ab7e 59bc 0c7b 98bc 5db5 983b
000000e0: 3e57 92ba 3d6e 04bc ca81 15bb bbc5 eabb
000000f0: 4772 95bb a9d3 2f3b 71ca 293b f4dd 5ebb
00000100: 21a6 1abb 29bf fa3a 2638 97bb 55d5 d239
00000110: 82e6 77bc f5a7 d43b bd97 8cbc 049d 383b
00000120: 9d67 a6bb 7905 ec3b 9870 e4b9 5816 e33b
00000130: 9e40 983b 45e2 a0ba 9c70 23bb 3974 d0bb
00000140: 334f bcbb ccf7 acbb 6a0b debb bd69 94bb
00000150: 4f94 6fbb 394a 01ba 78fc aebb d6f4 10ba
00000160: d2d5 c0ba 89dc 28ba d77e 40bb 50de 903c
00000170: 1d20 99ba 7d04 25bc 1f5c 9637 2399 10bc
0.0022616116 -0.004663816 -0.0046980493 -0.009179152 0.0018027726 -0.010633098 0.005640333 -0.0033451938
-9.2251445e-05 -0.013083618 0.009220274 -0.0061383243 -0.015997617 0.009097578 0.0037022033 -0.0032256457
-0.004371528 -0.0046828827 -0.008034536 -0.008728157 0.0027823101 -0.004355537 -0.0017037467 -0.0027427503
-0.0034243315 0.0011548881 0.0020168775 -0.004418891 0.00023433364 -0.00051836885 -0.0022175882 -0.0020664958
-0.004935733 0.004813824 0.0019684453 -0.002272539 -0.009745267 0.014993659 0.003410877 -0.0014092394
-0.010266943 0.0015409848 0.0014107988 -0.015345515 -0.012118036 -0.0118106855 -0.0036258227 -0.003984742
-0.0013791157 0.0068803746 0.0024346912 -0.00312156 0.0041077263 -0.013274829 -0.01861336 0.004660292
-0.0011164916 -0.0080829235 -0.0022812956 -0.0071646846 -0.004560742 0.002682904 0.0025908018 -0.0034006806
-0.0023597556 0.0019130456 -0.0046148477 0.00040213266 -0.015130641 0.0064897486 -0.017162198 0.002816976
-0.0050782696 0.007202801 -0.00043571438 0.006930154 0.004646375 -0.0012274465 -0.0024938947 -0.006361511
-0.005746746 -0.005278563 -0.006776263 -0.0045292065 -0.0036556905 -0.00049320195 -0.005340155 -0.00055296475
-0.0014712161 -0.00064415537 -0.0029372477 0.017684132 -0.0011682544 -0.010071871 1.792429e-05 -0.008825573

running_mean f4 [96]
00000000: 17ad b4c4 43b9 d744 7d70 e0c4 c5d3 18c4
00000010: ce68 67c4 08da a9c3 768f 0c45 a158 1244
00000020: 8230 63c4 e785 5ec3 2d88 1a44 b7cc 4dc4
00000030: 9b11 7144 fced d143 4f23 80c4 627c 4f44
00000040: fbf8 4d44 3147 3045 2d2b 05c5 0ed3 08c4
00000050: 21ca e5c3 dcae 0ac5 21cb ed41 6be4 8f43
00000060: 74d8 dec4 0510 6043 e752 1743 f9b0 be44
00000070: 8989 b343 c864 f5c4 d872 75c3 e359 2744
00000080: db65 7444 377e 4d44 87bc f843 2d27 2943
00000090: 3dab a043 8fd0 8143 ecf8 2ec3 3494 3944
000000a0: cbef 7644 b76c 46c3 42dc dec3 c2a6 9143
000000b0: c34f 8ec4 c339 8741 72f4 99c4 fe74 37c1
000000c0: 68a2 cac3 0872 ec43 2a21 5943 ae20 3ec4
000000d0: b6c8 34c4 20dc b2c4 3f81 58c4 9d11 c4c3
000000e0: b071 c044 6287 aec3 d0b6 0f45 4980 eec3
000000f0: 5de1 b344 078f 2843 c811 89c3 109d 96c4
00000100: b6cc cdc4 d9ca e544 7874 e9c2 eb03 e3c4
00000110: fa7f 27c4 8710 7042 de3e 15c4 2390 ca43
00000120: 6ef7 8942 e275 b2c4 a990 2ec3 b4ae 8d44
00000130: 9fcf 33c4 e7dd 4fc4 7b71 ffc3 f3ca 7943
00000140: 4481 54c4 0ded 9244 9e20 2944 a88c 9dc4
00000150: a657 6ec4 f1f1 fd44 ef52 b2c3 4432 20c4
00000160: b729 95c3 8d44 a1c3 9d95 54c4 d617 e9c3
00000170: 3a0b adc4 862b 34c4 2938 98c4 bb23 1d44
-1445.409 1725.7894 -1795.5153 -611.3089 -925.6376 -339.70337 2248.9663 585.3848
-908.75793 -222.52306 618.12775 -823.19867 964.2751 419.85925 -1025.1034 829.9435
823.8903 2820.4495 -2130.6985 -547.2977 -459.57913 -2218.9287 29.724184 287.78452
-1782.7642 224.06258 151.32384 1525.5304 359.0745 -1963.1494 -245.44861 669.4045
977.5915 821.9721 497.47287 169.15303 321.3378 259.62936 -174.97235 742.3157
987.74677 -198.42467 -445.72076 291.3028 -1138.4926 16.903204 -1231.6389 -11.466063
-405.2688 472.89087 217.12955 -760.5106 -723.1361 -1430.8789 -866.0195 -392.1376
1539.5527 -349.05768 2299.4258 -477.00223 1439.0426 168.5587 -274.13892 -1204.9082
-1646.3972 1838.339 -116.72748 -1816.1224 -669.99963 60.01614 -596.9823 405.12607
68.98326 -1427.6838 -174.56508 1133.4595 -719.2441 -831.4672 -510.88657 249.79277
-850.0198 1175.4078 676.50964 -1260.3955 -953.3695 2031.5607 -356.64792 -640.7854
-298.3259 -322.53555 -850.3377 -466.18622 -1384.3508 -720.68005 -1217.755 628.5583

running_var f4 [96]
00000000: 8a4c e348 59d9 c948 8730 3949 198d 5448
00000010: 44a9 9148 6def 0848 4ece 3f49 d766 fe47
00000020: a34b 0048 f0dc 0849 c320 a448 1c8e 2c48
00000030: 7109 c948 b23d 9c48 7d19 3b48 7bc9 2248
00000040: 0d78 8f48 bfe9 a349 b1c3 2349 ac92 8d48
00000050: 299b 9048 e990 7449 c32a 5649 6333 9a48
00000060: 65c8 2c49 5884 1f49 fbd2 2148 5b8c cf48
00000070: 8f7b c848 5aec f248 ba8d a348 13f1 0448
00000080: d5cb 9148 4fe7 1648 7280 2748 031d d747
00000090: 5ac4 eb48 942a a048 495b 9648 3dba df48
000000a0: 4e1a cc48 3d6d fe48 bab9 d048 5d5f 3b49
000000b0: 5e98 5849 8ee9 8547 9825 ca48 f98d 3948
000000c0: 8121 1549 94cf d948 aa36 b148 d830 c248
000000d0: c1d2 3b48 ab5a e248 2202 7c48 12ac b048
000000e0: 4316 9148 8ae3 d148 4c0e 6249 99fa 6648
000000f0: c518 3349 885f 0a49 4db3 4148 6bef 6749
00000100: 4c6d c248 d95c 2b49 7e1b 8a48 5d63 0249
00000110: b0b8 ab48 d70a bc48 c67a e548 fef5 d848
00000120: b25e a447 4d62 8648 823e 0949 a6d7 b648
00000130: b1f5 db47 e9da 8e48 f478 4948 fd70 0648
00000140: 2e63 8648 33c6 6149 f3fa 2c48 a81a 9b48
00000150: 7db0 6948 09d8 1949 0f06 2e48 5697 8a47
00000160: 6036 2549 8a5d c448 f66a 0248 45cb a648
00000170: 31c8 ae48 bbce 6649 67da a048 8532 4948
465508.3 413386.78 758536.44 217652.39 298314.12 140221.7 785636.9 130253.68
131374.55 560591.0 336134.1 176696.44 411723.53 319981.56 191589.95 166693.92
293824.4 1.3427759e+06 670779.06 289941.38 296153.28 1.00174256e+06 877228.2 315803.1
707718.3 653381.5 165707.92 425058.84 410588.47 497506.8 334957.8 136132.3
298590.66 154525.23 171521.78 110138.02 482850.8 328020.62 307930.28 458193.9
418002.44 521065.9 427469.8 767477.8 887173.9 68563.11 413996.75 190007.89
610840.06 446076.62 362933.3 397702.75 192331.02 463573.34 258056.53 361824.56
297138.1 429852.3 925924.75 236522.39 733580.3 566776.5 198349.2 950006.7
398186.38 701901.56 282843.94 534069.8 351685.5 385110.72 469974.2 444335.94
84157.39 275218.4 562152.1 374461.2 112619.38 292567.28 206307.81 137667.95
275225.44 924771.2 177131.8 317653.25 239297.95 630144.56 178200.23 70958.67
676710.0 402156.3 133547.84 341594.16 357953.53 945387.7 329427.22 206026.08

weight f4 [32, 96, 1, 1]
00000000: 05d2 ce3c 5216 9abd 2eed 643d 9bcc 69bd
00000010: 282f 0dbd daa7 253a 5dca 6a3d 53aa 473c
00000020: b187 85bd ef24 0c3d 83ed 833d cf97 15bc
00000030: 7c54 713d cc6e a1bc a2d9 e43c a767 b53d
00000040: 9245 5fbd 0f9b 8dbd 14f3 6a3c f64d f9bb
00000050: 405f 17bd 0297 38bd c668 2a3d cfa3 b53d
00000060: bd62 0cbd ab63 46bb d4f5 b73d 4d36 2d3d
00000070: 0548 40bc 30fc a4bd 8cb6 8f3d 2297 673d
00000080: 4e75 243d 3ab0 73bd a2a1 853d beee 81bd
00000090: f3ec 1cbd 17ef 5e3c 7778 283d 494e ad3a
000000a0: 030e 56bd 8e61 aebd d5cd 50bd 90e2 b7bd
000000b0: 448b c83d 058a 233d ca16 ccbd 3249 213d
000000c0: 8b08 15bb 2530 f43c 2337 963c 17ee ab3d
000000d0: 73f4 3fbd 0cf0 3abd 84be cf3d 9270 e4bc
000000e0: a895 b53d 77c7 13bc 8017 c83d d2e0 61bc
000000f0: a846 90bd d213 97bd 88a4 81bd eea4 f2bc
00000100: e4a7 47bb 2306 1a3c d022 963c becc 023d
00000110: caaa cebd d65f b73d 764d c33c 33ed 833d
00000120: ec9d 6b3c 6c3d ae3d 8420 a33d 1608 c5bb
00000130: 3f58 24bb e50e b4bd a880 d73c f90f 9bbc
00000140: 7adc 4b3d 62fc 083d d254 c03d 4e89 753d
00000150: 7f6f d03c 0fc3 16bc 1259 78bd 9271 5e3d
00000160: 90cd 8c3d cba0 183d 9262 93bd 9195 6f3d
00000170: 62aa eebb f9aa 753d c5c3 433c 00bb 0fbd
00000180: 1b04 b23d f7c9 aa3d e1d9 0a3d 16ad 23bd
00000190: 1187 21bd 83c4 93bd 29c5 63bd 0a63 7a3d
000001a0: 3dcd 85bd 6a17 e3bc 8ccd d43c b8c0 f3bc
000001b0: 6f00 aa3d 6ce3 393d 2722 77bb c0a3 903d
000001c0: 3b20 963b 75a1 1bbd 5a46 fcbb bded c2bd
000001d0: 2e4c e43b 4806 a63d 7649 ac3d 8d7f a6ba
000001e0: 4d2a b93d 288b 51bd f5e4 d43d e327 c2bc
000001f0: ea58 afbc cf62 90bd ae7d 973c bc5e adbd
00000200: 013b 203d 9df2 1ebd 10b0 4fbc f5a7 a1bc
00000210: d2ea 033d 2a62 953d bed4 e73c 8c93 9dbd
00000220: e44d e3bc b44a 793c 72e5 273d 5ca9 67bd
00000230: cef2 b83d 413a 9abd 98f0 863d a418 a2bd
00000240: 1577 623d 6180 fcbc 0815 50bd febc 45bd
00000250: a7dc 8ebd 2d6f 4c3c f59e c9bd 2b5e df3c
00000260: 59b8 93bd b595 ba3d 3a33 18bd b5b8 993d
00000270: a5a0 543b 827b 9d3d 9edf a63d 0e2e 96bd
00000280: 0654 6bbd 34da c0bd c6d5 be3d 6527 a8bd
00000290: 20e1 a2bd c3be e3bd 4afe b43d 136a adbc
000002a0: abb4 a9bc ef34 2dbc 5406 bbbd 250f 063c
000002b0: dcd1 693d 0cfa 87bd 46e4 8c3c c9be 75bd
000002c0: aa15 48bc 3f56 b33c 92a5 afbd d45c 03bd
000002d0: 9d16 6abd dfda 61bd 99c1 b4bd c7bc 6f3c
000002e0: 13de 25bd a1f4 1d3d ad85 8f3d 7850 b1bc
000002f0: 4877 45bd 3a34 bfbd 30e0 10bd 8083 993d
00000300: e08e a43c 37de b93d 64e6 a0bd 5a6c c93d
00000310: 4553 643d 322b ce3d 42e9 6e3c 43af 1c3c
00000320: 1653 a8bd 7cec ca3d 3f95 51bd f28f cbbd
00000330: 8ef8 1a3d 0875 04bd 1270 9fbc e1b7 28bd
00000340: 6f5b a13c 1a02 b03d 9072 2b3d ce36 ca3c
00000350: 8a9b 933d 6576 8a3d bcaa d8bc 8afe a2bd
00000360: 4133 23bc d079 d13d 4883 963c f6ba 0b3d
00000370: d1d0 2bbd 9898 c3bd 7cab c13d 9066 77bc
00000380: 3750 8d3d 0722 54bd 2d57 10bc 730a a03d
00000390: 3e9e d53c d2d1 7dbd f95a 983d a09d 98bd
000003a0: 8011 84bc 1e3f a93d 1580 173c a949 a1bc
000003b0: f5c7 c03c f8fa 91bd 0ee6 0dbd d32c e6bc
000003c0: 6e7f 92bd 4f8e 1fbd 614e 7f3d 9be6 7abd
000003d0: 6a24 b53a 9d8c 733d bb6c 1b3c 38da 6c3c
000003e0: 57d0 10bd 0328 12bd 53cb cabc 40a2 b43c
000003f0: 439c a8bc 6e7f 903d 9b0a c13d 97ff 4bbc
0.02524663 -0.075237885 0.055890255 -0.057079893 -0.0344688 0.00063192623 0.057321895 0.012186605
-0.06520022 0.03421491 0.06441786 -0.009130432 0.05891846 -0.019706152 0.027935807 0.08857661
-0.054509707 -0.06914341 0.014340181 -0.0076081706 -0.03695607 -0.045065887 0.041603826 0.08869135
-0.03427385 -0.003027181 0.08982435 0.042288113 -0.011735921 -0.080559134 0.0701724 0.056540616
0.040150933 -0.059494235 0.0652497 -0.063443646 -0.03831191 0.013606808 0.04113051 0.0013222183
-0.052259456 -0.08514701 -0.050977547 -0.0897876 0.09792188 0.039926548 -0.09965284 0.039376445
-0.0022740688 0.029808113 0.018336838 0.083950214 -0.046863984 -0.045639083 0.1014376 -0.027885709
0.08866435 -0.009019724 0.09770107 -0.0137865115 -0.070447266 -0.07376827 -0.0633021 -0.02961966
-0.003046506 0.009400877 0.018327147 0.03193354 -0.10091169 0.08953826 0.023840647 0.064417265
0.014380913 0.08507809 0.07965186 -0.006012927 -0.0025077013 -0.087919034 0.026306465 -0.018928515
0.04977081 0.033443816 0.09391178 0.059945397 0.02544379 -0.009201779 -0.06063182 0.054307528
0.068751454 0.03726272 -0.07196535 0.058492247 -0.007283495 0.059977505 0.011948531 -0.035090446
0.08692189 0.08339303 0.03389919 -0.03995999 -0.03943545 -0.07215216 -0.05560795 0.061129607
-0.06533287 -0.027721126 0.025976919 -0.029754981 0.08300864 0.045382902 -0.0037709565 0.07062483
0.004581479 -0.037995774 -0.0076988162 -0.09518001 0.006967089 0.08106667 0.08412449 -0.0012702808
0.09041271 -0.0511581 0.103952326 -0.02370066 -0.021404702 -0.07050096 0.018492546 -0.08465335
0.03911877 -0.038805593 -0.012676254 -0.019733408 0.032206364 0.07294114 0.028299686 -0.07694158
-0.027747102 0.0152155645 0.0409903 -0.056557998 0.09030686 -0.07530642 0.06588858 -0.07914856
0.055289347 -0.030822935 -0.050801307 -0.04827594 -0.0697568 0.012477678 -0.09844772 0.027266582
-0.07212896 0.091105856 -0.03715823 0.07505933 0.0032444384 0.07689573 0.0814812 -0.07333003
-0.057453178 -0.09416619 0.09318118 -0.08210639 -0.079530954 -0.11120369 0.08837564 -0.021168744
-0.020716032 -0.010571702 -0.09132066 0.008182322 0.057084903 -0.066394895 0.017198693 -0.0599964
-0.012212196 0.021891711 -0.08576502 -0.03207095 -0.057150472 -0.055140372 -0.08825988 0.01463241
-0.04049499 0.038563374 0.070079185 -0.021644816 -0.04820946 -0.09336133 -0.03537005 0.07495785
0.02008766 0.09075587 -0.078564435 0.098351195 0.055743475 0.100668326 0.01458198 0.00956327
-0.082189724 0.09908387 -0.051167723 -0.09939565 0.037834696 -0.032338172 -0.019462619 -0.041190986
0.01969692 0.08594151 0.041857302 0.024684336 0.07207401 0.06760863 -0.0264486 -0.07958706
-0.00996095 0.10228312 0.018373147 0.034113847 -0.04194719 -0.09550589 0.09456536 -0.015100136
0.069000654 -0.051790264 -0.008809847 0.07814493 0.026076432 -0.06196768 0.07439227 -0.074519396
-0.016121626 0.08263992 0.009246846 -0.019688444 0.023532847 -0.071279466 -0.034643225 -0.028097546
-0.071532115 -0.038954075 0.062330607 -0.06125508 0.0013820056 0.05946027 0.009486373 0.014456324
-0.03535494 -0.03568269 -0.024755156 0.022050023 -0.020582324 0.07055555 0.09425851 -0.012451074

weight f4 [32]
00000000: 4d97 7b3f f379 7e3f 193e 7a3f 9dc9 7b3f
00000010: 07b3 7d3f 6b38 793f b442 783f 29eb 793f
00000020: 8dc5 7d3f 3d95 7f3f b62f 7f3f 978e 843f
00000030: 0aa3 7d3f 05be 7d3f f002 7a3f df46 7b3f
00000040: 745a 7a3f db54 7f3f 782a 7c3f 9dfd 7d3f
00000050: b07e 7c3f c57b 7b3f 48db 7b3f fd34 7d3f
00000060: a5cb 773f db57 7e3f a991 7e3f 0842 7f3f
00000070: 641c 793f d29c 7a3f 4cb7 7a3f be3a 7b3f
0.9827774 0.9940483 0.97751004 0.9835451 0.991013 0.9735171 0.9697678 0.9762445
0.99129564 0.99837095 0.99682176 1.0356015 0.990769 0.9911807 0.9766073 0.98155016
0.9779427 0.99738854 0.985023 0.9921511 0.9863081 0.9823573 0.9838147 0.9890898
0.9679511 0.99352807 0.9944101 0.9971013 0.97308946 0.9789554 0.9793594 0.9813651

bias f4 [32]
00000000: e909 8abc 5bf5 48bc 6ea8 7dbc 5e8c 4c3c
00000010: 2948 213b e863 aebc 0234 0bbb 9718 b13b
00000020: b094 823c df06 a43c 13c1 f23b 5115 833c
00000030: fb1a a3bc 7a85 833c 1438 97bb 77c6 16bc
00000040: d7c2 9b3c 8977 afbb 9667 173c cc5f 883c
00000050: 3eea 3c3c 4fc0 c13b 88c1 bdbb 0245 b8bb
00000060: 3642 42bc 370e e8bc 7684 793c cdd1 d53b
00000070: e3d3 4d3c 0b00 02bb 3cb1 623c 3df4 c4bb
-0.016850429 -0.012265529 -0.015482051 0.012484638 0.0024609661 -0.021287873 -0.0021240716 0.0054045427
0.01594004 0.020022808 0.00740827 0.016001375 -0.019910326 0.016054858 -0.0046148393 -0.009202591
0.019013805 -0.005354826 0.009241005 0.016647242 0.011530457 0.0059128175 -0.005790893 -0.0056234607
-0.011856606 -0.02832709 0.015229335 0.0065252543 0.012562725 -0.0019836451 0.013836201 -0.006010561

running_mean f4 [32]
00000000: c9ac 883e fb2c 76be 84d3 e73d 1419 733d
00000010: 3475 38be 387b a2be 1c15 73be fbd7 2d3e
00000020: 3a71 4dbe c8e8 333c 976a ab3c ea8a 05bd
00000030: a97a b23e 305f 703c 9e17 603e 0097 ed3e
00000040: 9744 363d 365a edbc 2804 95be 2ae3 5ebc
00000050: d114 923c 6bbc 9f3d 3069 2dbe 2155 b63b
00000060: c0a7 5e3e 89bc 923e cbbc b03d 53ec 95bd
00000070: 1a55 f9bd e050 883e 8953 0abd 75a4 de3e
0.26694325 -0.24040596 0.1131964 0.05935009 -0.1801346 -0.31734633 -0.23738521 0.16976921
-0.20062724 0.010980792 0.02092485 -0.032603182 0.34859207 0.014671132 0.21884009 0.46404266
0.044499006 -0.02897368 -0.29104733 -0.013603965 0.017832192 0.0779961 -0.16934657 0.0055643474
0.21743679 0.28659466 0.086297594 -0.07320466 -0.12174435 0.26624203 -0.03377107 0.43484846

running_var f4 [32]
00000000: b067 083e 0579 243d 4009 8a3d 377f dc3c
00000010: d424 8f3c 9432 973d f75c 183d 009f df3d
00000020: 6003 013d ac22 e03d 8573 c13c 13c6 343c
00000030: 7b5b 1f3e 0ea4 af3c 3d4f 4a3d adc3 ce3d
00000040: f372 b83d 8725 3c3d a47a fa3c 2336 c23d
00000050: 04c1 5f3d bca2 813d 755d 2f3d f4a6 853c
00000060: 7f66 c13d 7425 893d 8ac5 643e d103 ae3c
00000070: aba5 483e 5157 0c3e 4ab0 433e 170e 103e
0.13320804 0.040154476 0.067400455 0.02691613 0.017473616 0.07382694 0.037198033 0.10918999
0.03149736 0.10944113 0.023614654 0.011033553 0.15562241 0.021440532 0.049391974 0.10095916
0.090063 0.045934226 0.030576058 0.09482982 0.054627433 0.06329867 0.042813737 0.016314961
0.09443378 0.06696597 0.2234098 0.021242054 0.19594447 0.13705184 0.19110218 0.14067875

weight f4 [32, 96, 1, 1]
00000000: 2653 0cbd 3c27 60bd 29ab 0b3d b4c0 41bd
00000010: 198b b23d 48fc 7e3c e1fa 9fbd 9678 33bd
00000020: 5118 a63d 58a8 553c fac9 913d 23d8 8c3c
00000030: 3fe8 b9bd 6500 623c b41d d1bd 90b4 873d
00000040: ab37 4e3d 6197 29bd 9f3d 4d3d e9c6 9ebd
00000050: a811 f0bb cc2b 9cbc a1ad 843d 13df f63b
00000060: 01a3 bcbc a66b 8dbb b0a9 a4bd 2efe 82bd
00000070: 5e4c 753d 5d15 c33d 5fc6 81bd 8d0f f23a
00000080: 22a9 a6bd d610 cebc 1261 823d 526c d93c
00000090: a8a9 6cbd 5fe0 38bc 6ac8 4cbd 79e9 5e3d
000000a0: 0148 373d 53e5 283d 2e3f 40bd 95b9 db3c
000000b0: 29e2 a6bd d342 a23c b0d4 59bd 4461 04bd
000000c0: cff2 a3bd b3d7 7a3d f635 6e3d 3bdf d23c
000000d0: cd80 d03d 9bf0 4dbd 8fad bdbc 6e7f 1a3c
000000e0: 5f73 cebb b740 70bc 355e cfbd 02c2 563d
000000f0: 94ec b9bd 0039 19bd e82a c7bd fb31 3cbd
00000100: d0ca fc3c a5ec ae3d 1a93 12bc 849b b1bd
00000110: fb3c 9c3b 0462 b83d a387 8b3c 0481 723c
00000120: ef69 a33d d182 273d 5d66 853d bcf5 93bd
00000130: 4250 bc3b fc42 8cbd b1aa 763d eb3c 133d
00000140: 1fc8 7ebd df97 ccbd 76bc b0bd a2f6 9abc
00000150: ce0a 553c 6e11 f63a 4add ccbd bfd9 133d
00000160: be71 b53d 0c92 333b 60c6 aabc 0bb2 9abd
00000170: 9823 cd3d 0f3c 983d f26f 8a3d e853 823d
00000180: 2338 c0bd 7719 b9bc 2c3a eebb 8876 3d3d
00000190: 9421 a33c 30f8 513d d1dd ee3c 3139 0dbd
000001a0: 4cbe b8bd 82d8 edbc 2923 523d 48dd 5abd
000001b0: f886 063d 494e 9bbd f90e 8bbd 8c9b 14bd
000001c0: 049d 483d 42b0 7dbd 1a6c 383d c9aa 2d3d
000001d0: e157 a43d c121 b0bd 1271 0dbd e95f b3bd
000001e0: 4dd8 f93c fabf 68bd 287f f63c 7e31 2a3d
000001f0: 62fe 2bbd 8afa a33c 0e45 9abd d276 8f3d
00000200: 2c95 4b3d 3bee f93a 6340 18bc 97cc b6bc
00000210: d74d 47bc b695 09bd ee43 b03d 6f88 763d
00000220: f916 88bd e23e 9c3d 9787 26bd 8a67 babd
00000230: edf9 a5bd 602d 903c 1abe b13d 72bb a6bd
00000240: 00d1 81bc 79b1 c6bd cee2 4f3d 06e3 c53d
00000250: 7e92 8a3d a0cf 83bc c655 c1bd 9e5b afbd
00000260: d88d 01bd 3ef1 79bd 7b90 0cbd 2893 da3c
00000270: 34c2 943d 5019 1abc 6375 9dbd 33ff a53d
00000280: 99cb 93bd 2c01 c5bc 9ec4 2a3c 5c73 64bc
00000290: 8659 b5bd c196 393d 0ea8 7c3d d355 503d
000002a0: 05a9 ecba 215f ccbd afd2 bb3d 60f1 973d
000002b0: 1d39 843d c102 80bd fde4 9bbd 68f0 9a3c
000002c0: 368c 683d 8dac 57bc 897a bf3c 8477 bfbc
000002d0: b9fe f73c 4858 a5bc dcb9 4d3d 3639 11bd
000002e0: e754 cc3d 4d5b a9bd 740f b8bd 1c8e 90bd
000002f0: 3806 803c 8835 be3d 44be a83d 2f64 a13d
00000300: bc3a a53d a795 b63c 305f 963d fb1f 8e3d
00000310: a7b8 bfbc a5cc 87bd b42b bdbc c152 a0bc
00000320: 1d5e 213d 2b2b 983d a092 9b3d 05bb 80bd
00000330: 6567 f83c 446c 9dbd c800 87bc 1924 debc
00000340: 98da 70bc a4c5 8fbd 55bd 753d 4c3f a33d
00000350: afaf 953c 2628 9e3d 02b8 c33a b1ef fdbc
00000360: ed58 37bb cfbc 04bc 4fb3 9e3c efc5 82bc
00000370: 305d a9bd 9dff b0bc a317 973d 7d0c 37bd
00000380: 3a4a 6f3d 36de 963d d3b5 303d 3056 cd3d
00000390: f1cd 983d 4de1 f23c 56f1 903d ffbc a3bd
000003a0: 2461 c63d 446a 563d eca2 b4bd 7d7d b4bd
000003b0: 1ecd 043d 9a47 bf3d ea1d 813c b8d7 a4bd
000003c0: 887e 203d 58a8 d6bc c9ef b43d acfd 87bc
000003d0: 68ea 513b 59da 78bd 8bc9 433d 7179 c7bc
000003e0: b1c0 71bd 8e10 823d 3641 8e3c b188 da3b
000003f0: 7356 a03c cb64 01bc 8fb7 75bd ed35 123d
-0.034258984 -0.054724917 0.034098778 -0.047302917 0.08717937 0.015563078 -0.07811523 -0.04381617
0.08110107 0.013040625 0.07118602 0.017192906 -0.090775006 0.013794039 -0.102107435 0.066262364
0.050346058 -0.04140413 0.050107595 -0.07752783 -0.0073263235 -0.019063853 0.064784296 0.0075339167
-0.023026945 -0.004315811 -0.08040178 -0.06396137 0.059887283 0.09525559 -0.063366644 0.0018467769
-0.08137728 -0.025154512 0.06366171 0.026540909 -0.057778984 -0.011283963 -0.049995817 0.054421876
0.044746403 0.041234326 -0.046935253 0.02682189 -0.081486054 0.019807255 -0.05318135 -0.032319322
-0.080052964 0.061240863 0.05815693 0.02574121 0.10180817 -0.050278287 -0.023154048 0.009429796
-0.0063003744 -0.014663867 -0.101253904 0.052431114 -0.09078327 -0.037407875 -0.097249806 -0.045946103
0.030858427 0.0854123 -0.008946205 -0.086722404 0.0047680116 0.0900307 0.01703245 0.014801268
0.079791896 0.04089624 0.06513665 -0.072246045 0.005746872 -0.06848714 0.060221378 0.035946768
-0.06220257 -0.099899046 -0.08629696 -0.018916432 0.013003064 0.0018773505 -0.10003145 0.03609633
0.08859585 0.0027400283 -0.020846546 -0.0755349 0.100165546 0.0743333 0.06759633 0.0636366
-0.09385707 -0.02259515 -0.007270118 0.04625562 0.019913472 0.05126208 0.029158505 -0.03447837
-0.09020671 -0.029033903 0.051303063 -0.053433686 0.03284356 -0.07583291 -0.06789965 -0.036281154
0.048977867 -0.06193567 0.04502497 0.0423992 0.08024574 -0.08600188 -0.03453166 -0.08758528
0.030498648 -0.056823708 0.03008993 0.041551106 -0.041990645 0.020016927 -0.075327024 0.07005085
0.04970281 0.0019068191 -0.009292695 -0.022314353 -0.012164555 -0.03359004 0.086067066 0.060188707
-0.06645007 0.076291814 -0.040656652 -0.0910178 -0.0810431 0.017599761 0.08678837 -0.08141221
-0.01584673 -0.09701819 0.050753407 0.09662442 0.067662224 -0.016090214 -0.09440188 -0.085623965
-0.031629413 -0.061021082 -0.034317475 0.026681498 0.07263604 -0.009405449 -0.07688405 0.08105316
-0.072165675 -0.02404841 0.010422854 -0.013943519 -0.08854966 0.045309786 0.061683707 0.0508631
-0.0018055743 -0.09979082 0.09171044 0.074190855 0.06456206 -0.06250525 -0.076120354 0.018913463
0.05677434 -0.013163698 0.023373859 -0.02337242 0.030272828 -0.020183697 0.050226077 -0.03545495
0.09977131 -0.08269367 -0.089873224 -0.07058355 0.015627965 0.09287554 0.08239415 0.07880437
0.08067843 0.022288157 0.07342374 0.069396935 -0.023403479 -0.0663083 -0.023092128 -0.01957071
0.039396394 0.07430109 0.07596326 -0.06285671 0.03032274 -0.07686666 -0.016479865 -0.027116822
-0.014700554 -0.07020119 0.059995014 0.07971057 0.018272249 0.077225015 0.0014932158 -0.030998083
-0.0027976588 -0.008101656 0.01937261 -0.015963523 -0.08269727 -0.02160626 0.07377555 -0.044689644
0.058420397 0.07366602 0.04314215 0.100262046 0.07461155 0.029648447 0.07077281 -0.079950325
0.09686497 0.052347437 -0.088201374 -0.088129975 0.032422177 0.09339829 0.015761334 -0.080489576
0.03918317 -0.02620332 0.08834798 -0.016600452 0.0032030586 -0.060755108 0.04779963 -0.0243499
-0.059021655 0.06350814 0.01736508 0.006669127 0.019572472 -0.007897566 -0.05998951 0.03569596

weight f4 [32]
00000000: 0fe8 7b3f 4de8 7c3f b057 7c3f f24d 7c3f
00000010: 6cbf 793f 6ae1 7c3f aea8 7b3f 3990 7a3f
00000020: a360 803f 0b92 7d3f ca6e 7c3f a59d 7b3f
00000030: a21f 7e3f 1950 7d3f 0696 7b3f f4c9 7a3f
00000040: 95c7 783f e583 7b3f d52d 7c3f 74b3 7f3f
00000050: 75e2 7b3f 770e 7c3f a289 823f ff11 813f
00000060: 3c75 7a3f 388a 7e3f d43b 7b3f adc9 813f
00000070: 2b5e 7d3f e65f 7c3f 8fe7 823f 8a36 7d3f
0.9840097 0.9879196 0.985713 0.98556435 0.9755771 0.98781455 0.9830426 0.97876316
1.0029491 0.9905097 0.9860655 0.9828742 0.9926702 0.98950344 0.9827579 0.97964406
0.9717954 0.9824813 0.98507434 0.998832 0.9839242 0.9845957 1.0198252 1.0083617
0.97835135 0.99429655 0.98138165 1.0139672 0.98971814 0.9858383 1.0226916 0.98911345

bias f4 [32]
00000000: e91c 95bc 7569 2bbc d724 63bc e750 a03c
00000010: 1de7 5839 6de5 d3bc 6e13 6abb d9fc cb3b
00000020: 308f 813c 9cb5 a73c 9f7d 243c 10f8 903c
00000030: 51ac f5bc 0632 5c3c 9b47 6abb 0e13 adbb
00000040: 75f1 9a3c ca60 2fbc 8e10 373c a9a8 b53c
00000050: 6c4f 3c3c a275 f53b 0f7c ebbb 502f 143b
00000060: f00c 5abc 0679 b9bc 3051 ba3c 53f6 4d3c
00000070: 4308 903c 0b26 b5ba a5be 583c 65b8 fabb
-0.018202262 -0.010462155 -0.013863764 0.019569827 0.00020685462 -0.025866235 -0.0035717147 0.00622521
0.015815347 0.02047234 0.010039716 0.01769641 -0.029989393 0.013439661 -0.0035748247 -0.0052818125
0.018913964 -0.010704229 0.011173381 0.02217515 0.011493545 0.0074908296 -0.00718642 0.0022611208
-0.013308749 -0.022640716 0.022743791 0.012570935 0.017582064 -0.0013820542 0.013229047 -0.007651376

running_mean f4 [32]
00000000: fe98 91bd 75b5 eebd e665 a43e 96cb cebd
00000010: 46e5 d03d 6d22 773e 5856 e63d d25e e03e
00000020: d6e0 d63d fb94 ea3d 513d 653d a0bc 11be
00000030: 00c2 eb3d 175a 8db9 00f4 493b f800 67bd
00000040: e2a2 8e3e e7d3 b63e 4d94 87be 55ed c5bd
00000050: c9d9 0ebf 4666 a7be 02f8 333e 783b 70be
00000060: a15d f4bd 0a85 963e f1e9 1bbe 0d38 48bd
00000070: d1cb b53d 70ee 37be 3f38 ed3d f77e 5b3e
-0.07109259 -0.11655704 0.32108992 -0.10097425 0.101999804 0.24134226 0.112469375 0.43822342
0.10492103 0.11454197 0.05596668 -0.14232111 0.11511612 -0.00026960738 0.0030815601 -0.05639741
0.27858645 0.35708544 -0.26480332 -0.09664408 -0.55801064 -0.32695216 0.17575076 -0.23460186
-0.11931921 0.29398376 -0.1522596 -0.04888158 0.088767655 -0.1796205 0.11582994 0.21435152

running_var f4 [32]
00000000: fdc6 a43d c5a5 b03d fe1f 133d 8808 643d
00000010: 6643 9c3d 86af a23d 24ab b23d aef7 ba3d
00000020: f7f2 763c 3d91 993d dc5e d13d 0ece b33d
00000030: 200a d83d 3898 5b3d bc76 283d e314 833d
00000040: 4523 e63d 18be 8f3d e4a4 2b3e cf95 9b3d
00000050: bf78 823e 9e06 063e 67c2 a03c 0689 913c
00000060: 8019 273d 181f 5c3d 0381 f03d 1c62 723c
00000070: 90f4 083d 9c37 7f3d 1f39 673c 598b f03d
0.080457665 0.08625368 0.035919182 0.0556722 0.07630043 0.07943635 0.08724049 0.091292724
0.015072576 0.07498405 0.10223171 0.08779536 0.10548806 0.053611964 0.04112886 0.06400468
0.11237196 0.070186794 0.1676212 0.07596933 0.25482747 0.13088462 0.019623948 0.017765533
0.040795803 0.05374059 0.11743357 0.014793899 0.033436358 0.062308893 0.01411274 0.117453285

weight f4 [96, 32, 1, 1]
00000000: f26b bdbd 42ca 093e 4df6 ac3d dd38 273d
00000010: 5ffa fd3c 74da 213e 4661 983d b7af 47bd
00000020: 612e 6dba 61c4 dabd e44b e53d 2243 42bd
00000030: 9e02 e13c 2bbc f9bd 5afb 843d 8dd7 27bd
00000040: 64b7 ef3d e3a9 03be 6672 cdbd 6787 b5bd
00000050: 7a88 f0bc d834 5ebd 9cad bfbd 3a4b 80bd
00000060: 5eac d2bd 173e 8f3d 4bc2 8fbd ff78 b3bd
00000070: fb4b ebbd f29c 00be f420 01be 0c70 f7bc
00000080: 4b61 8e3c a82f 8f3d 1017 423d bc2f f0bd
00000090: 6065 f1bd 0081 ae3c fb85 003e d157 d93c
000000a0: a430 d7bd a2d4 26be a647 16be 69b6 e7bb
000000b0: ed36 633d 692d b43d f9dc f63b 29d1 04be
000000c0: c6e9 debd bf80 7a3d e15a ec3c 94a0 02be
000000d0: 288f 133e d067 1e3c 11fe d1bb 590c c4bc
000000e0: bb76 f8bd 6e6d e2bd a770 323e ca1f 84bd
000000f0: 4b1d 4abd 9f43 4d3d 8f0f 5b3b 69e6 cf3d
00000100: 8c6f 763d 42ab 073e fe92 2b3d 519c de3d
00000110: a011 10be 4ee9 723d c220 24be 2521 32bd
00000120: 7ee1 cd3d 6fd4 03be fac0 91bd 119f 32be
00000130: 48e1 163d d4e0 19be 606e cb3d bbea d6bd
00000140: 8653 74bd 8858 e53a 04df 1b3e affd df3c
00000150: 63e6 103e ed8e 043d c04c 56bd 3ffa 25be
00000160: e1be 1abd a4be f8bd 001c 63bd c94d 263e
00000170: 4f1c a2bd e35a 253e 2579 cd3d d479 24bd
00000180: 5940 67bd d4ec 243e 4d6c 5cbd 07eb 983d
00000190: 677f 87bd 8a13 b13d ed7f 3bbe 25c4 1ebe
000001a0: 7725 643d 1a24 f7bd 3c9f 51bb a30c 67bd
000001b0: ec0b 193e 88c3 d93c 6421 1f3e ca96 673d
000001c0: 5472 debd 6e0f 17bd 461a 013c 5ea6 f93d
000001d0: 2fbc 02be 0e3c b73c a78c 37be 9653 e73d
000001e0: ee82 98bd 0988 cbbd 37ab 4fbd 903a 0cbe
000001f0: 0c76 1bbe 74ec 443d 3d3e 7c3d d0d6 ad3c
00000200: a182 de3d 712b cabd 6431 163e c377 28be
00000210: c002 43bd e7fd bc3c f01a 1cbe ba3b fc3d
00000220: 2969 ff3d 39a9 8dbd 0ba4 093d 70aa 28be
00000230: 8840 4cbc dc5e 35bd eb71 0e3e 17a7 dd3d
00000240: c578 b6bd fd04 c0bc aeee 733d 48d6 aebd
00000250: 6dd0 c7bd dcea 0fbe 5853 323c 1831 2d3d
00000260: d771 cf3d e7ef 11be 9a3d 80bd 384d e93d
00000270: a24f e7bd a71d 2d3e 87c3 613d 6362 c33d
00000280: a930 1abe f8c9 913d 25da 11be c890 c9bd
00000290: 10e6 1abe f787 d23a 0385 a93b e44a 0f3d
000002a0: a193 303e a82e 383c a0b8 f4bd 346c 923d
000002b0: 78ba 11bb 778c 0b3e 4ca2 723d 9c16 04be
000002c0: 31a4 d0bd e098 b43c 23a7 c53d 6ecf a23d
000002d0: 1d22 9d3d f8ab 243c 46db 9abb eb33 08be
000002e0: 4406 5abc 6610 153e 0d0a e3bd aaa8 aebd
000002f0: fe9b fdbd fa7a 20be 9180 aabd 1490 c23c
00000300: 90cd 253e 03f5 e03d 13b3 823d 82c4 01be
00000310: 2778 0e3e 3d73 033e 5409 953d e048 dfbd
00000320: e6dd 183e fc1a 903d ca0f 903d b385 42be
00000330: 0836 f0bd ea97 59bd 775f a6bd 2523 ffbd
00000340: 015d 673d 5812 233e fba1 ebbd 6875 19be
00000350: 8f30 25be faf2 04bc 5293 aabd 84b5 153e
00000360: a2e3 2abe 4009 b13c 4128 f63c c76c 19bc
00000370: 1512 fdbc afa6 28bd eec2 253e 0b92 263e
00000380: 0f66 f93c 7e48 d43d 0b2f a53d d6e7 cd3d
00000390: c90b 193e a2df 11bd 00b5 003c d42e 2ebe
000003a0: bb99 e03d fa68 09bd 6c07 b73d 07ec 06bd
000003b0: bfec b93d 364f fcbb b67e 01be dfc8 12bd
000003c0: 0650 13be cb1e 1fbe 2f78 efbd 1d31 8ebd
000003d0: 599f bc3d 2531 0a3e 1ba8 303c daef b7bd
000003e0: b5a8 67bd 1896 f4bd 57fc 193e dfdc 31be
000003f0: 6823 b83d 1a71 7c3c cff4 963d bef0 cdbd
-0.092491046 0.13456061 0.08445416 0.040825713 0.031003175 0.1580599 0.074404284 -0.04875156
-0.00090477435 -0.106819876 0.111961156 -0.047427304 0.027467068 -0.12194093 0.06493254 -0.04097705
0.11704901 -0.12857775 -0.100315854 -0.088637166 -0.029361952 -0.054249614 -0.09359285 -0.06264348
-0.10286783 0.069942646 -0.0701948 -0.087633125 -0.114891015 -0.1255987 -0.12610227 -0.030204795
0.017380377 0.069915116 0.047385275 -0.117278546 -0.11786914 0.021301746 0.1255111 0.026531132
-0.10507324 -0.1629205 -0.14675769 -0.0070713055 0.055472303 0.08797724 0.007533666 -0.12970413
-0.108844325 0.061157938 0.028851928 -0.12756568 0.14410079 0.0096683055 -0.006408461 -0.02393167
-0.12132021 -0.11056028 0.17425786 -0.06451376 -0.049344342 0.050113317 0.0033426022 0.10151369
0.060164973 0.13248923 0.04188823 0.10869659 -0.14069223 0.059304528 -0.16028121 -0.04348864
0.10052775 -0.12874006 -0.071168855 -0.17443492 0.03683594 -0.15027171 0.09933162 -0.1049399
-0.059649967 0.0017497698 0.15221792 0.027342645 0.14150386 0.032362867 -0.05231929 -0.16208743
-0.037779693 -0.12145737 -0.055446625 0.1624061 -0.07915556 0.16147952 0.10032872 -0.040155247
-0.05645785 0.16105968 -0.05381422 0.07466703 -0.06616097 0.08646305 -0.18310519 -0.1550451
0.05569979 -0.12067433 -0.003198578 -0.056408536 0.14945954 0.026582494 0.15540081 0.056540288
-0.1086165 -0.03687995 0.007879799 0.12189935 -0.12767099 0.022367503 -0.17924748 0.112952396
-0.07446848 -0.09938056 -0.050700393 -0.13694215 -0.1518175 0.04807706 0.061582793 0.021220595
0.10864759 -0.09871567 0.14667279 -0.16451935 -0.047610044 0.023070289 -0.15244651 0.123160794
0.124712296 -0.06917042 0.03360371 -0.16471267 -0.012466557 -0.044279918 0.13910644 0.108228855
-0.08909754 -0.023439879 0.059553795 -0.08536965 -0.09756551 -0.14054435 0.0108841285 0.042283148
0.10129135 -0.14251672 -0.062617496 0.113916814 -0.11294486 0.16905843 0.05511811 0.0954025
-0.15057625 0.071186006 -0.14243372 -0.09842068 -0.15126824 0.0016062249 0.005173327 0.03498353
0.17243816 0.0112415925 -0.11949277 0.07149544 -0.0022236388 0.13627802 0.05923681 -0.1289925
-0.10187567 0.022045553 0.096510194 0.0794972 0.07672522 0.010050766 -0.0047258465 -0.13301055
-0.013307158 0.14557037 -0.110859014 -0.08528264 -0.12383269 -0.15671912 -0.08325303 0.023750342
0.16191697 0.10984232 0.06381812 -0.12672618 0.13913022 0.12836929 0.0727717 -0.10902572
0.14928398 0.07036397 0.070342615 -0.18996315 -0.11729056 -0.053123392 -0.08123677 -0.12457875
0.05648518 0.15924966 -0.11505505 -0.14986193 -0.16131805 -0.008114571 -0.0832888 0.14620024
-0.16688398 0.021610856 0.030048491 -0.009364313 -0.030892411 -0.041174587 0.16187641 0.16266648
0.030444173 0.10365389 0.08065613 0.10053985 0.14945902 -0.035613663 0.007855654 -0.17010051
0.10966822 -0.03354738 0.089369625 -0.032939937 0.09078359 -0.0076998724 -0.12645993 -0.035836097
-0.14385995 -0.1553909 -0.11692845 -0.06942961 0.09210081 0.1349531 0.010782267 -0.08981295
-0.056557376 -0.119426906 0.15037666 -0.17369412 0.08991128 0.015407825 0.07370912 -0.100556836

weight f4 [96]
00000000: 3b93 7a3f 6593 7a3f 4593 7a3f fa92 7a3f
00000010: 8893 7a3f 3993 7a3f ec91 7a3f 4a93 7a3f
00000020: 8a93 7a3f 7993 7a3f 7e93 7a3f 0893 7a3f
00000030: 5e93 7a3f 3b93 7a3f 5c93 7a3f 8493 7a3f
00000040: c892 7a3f 638c 7a3f 7493 7a3f 4793 7a3f
00000050: 8593 7a3f 7193 7a3f 5693 7a3f 3093 7a3f
00000060: db7e 7a3f 6893 7a3f 7e93 7a3f 6493 7a3f
00000070: 8893 7a3f 8093 7a3f 7893 7a3f 6193 7a3f
00000080: 7f93 7a3f 7f93 7a3f 7093 7a3f 7a93 7a3f
00000090: 6393 7a3f 4c93 7a3f 8093 7a3f 5c93 7a3f
000000a0: 7993 7a3f 3193 7a3f 5593 7a3f 2293 7a3f
000000b0: 0e93 7a3f 1b93 7a3f 7293 7a3f 5c93 7a3f
000000c0: 5493 7a3f a793 7a3f 2f93 7a3f 7d93 7a3f
000000d0: 5884 7a3f 7493 7a3f 398d 7a3f 0b93 7a3f
000000e0: 7693 7a3f 7893 7a3f 5693 7a3f 8193 7a3f
000000f0: 7e93 7a3f 4b93 7a3f f892 7a3f 5993 7a3f
00000100: 358f 7a3f 7e93 7a3f 6e93 7a3f 4793 7a3f
00000110: 7793 7a3f 6293 7a3f d092 7a3f 7293 7a3f
00000120: 8193 7a3f 7c93 7a3f 9993 7a3f c892 7a3f
00000130: 4e93 7a3f 8193 7a3f 5d93 7a3f 4d93 7a3f
00000140: 7093 7a3f 6193 7a3f 8293 7a3f 8593 7a3f
00000150: fc92 7a3f 9391 7a3f 4991 7a3f 7793 7a3f
00000160: 588f 7a3f 5693 7a3f 4493 7a3f 8193 7a3f
00000170: fc92 7a3f 8293 7a3f 6c93 7a3f 0d93 7a3f
0.97880906 0.97881156 0.97880965 0.9788052 0.97881365 0.97880894 0.9787891 0.97880995
0.97881377 0.97881275 0.97881305 0.978806 0.97881114 0.97880906 0.978811 0.9788134
0.9788022 0.97870463 0.97881246 0.9788098 0.97881347 0.9788123 0.97881067 0.9788084
0.97849816 0.97881174 0.97881305 0.9788115 0.97881365 0.9788132 0.9788127 0.9788113
0.9788131 0.9788131 0.9788122 0.9788128 0.97881144 0.9788101 0.9788132 0.978811
0.97881275 0.97880846 0.9788106 0.97880757 0.9788064 0.97880715 0.97881234 0.978811
0.97881055 0.9788155 0.97880834 0.978813 0.9785819 0.97881246 0.9787174 0.9788062
0.9788126 0.9788127 0.97881067 0.97881323 0.97881305 0.97881 0.97880507 0.97881085
0.97874767 0.97881305 0.9788121 0.9788098 0.97881263 0.9788114 0.9788027 0.97881234
0.97881323 0.97881293 0.97881466 0.9788022 0.9788102 0.97881323 0.9788111 0.97881013
0.9788122 0.9788113 0.9788133 0.97881347 0.9788053 0.9787838 0.9787794 0.97881263
0.97874975 0.97881067 0.9788096 0.97881323 0.9788053 0.9788133 0.978812 0.9788063

bias f4 [96]
00000000: 34f9 3dbb e15a f53a 42a5 30bb 740a 3abb
00000010: 8b0d c9b9 803a 2abb e4aa f2bb b8c7 02bb
00000020: f002 9939 ea06 7b3a d9cd e139 2bcf 6dbb
00000030: 2a67 063a 8902 4ebb e750 113b 7daa ae37
00000040: aab7 aabb 00bc 76bc e2f4 9c39 0855 1d3b
00000050: 5639 46ba c634 acba b7b8 2fbb e8e7 40bb
00000060: 6623 cfbc 48bd f3ba 913b c039 5646 0dbb
00000070: 9902 8dba 654d 8dba 2dae f83a 229a 873a
00000080: 3352 1d3a 6f61 25ba e6b3 d0ba 3508 0b38
00000090: a789 a6ba 2617 32ba 0bb5 1d38 355f 39bb
000000a0: dfc9 32ba e6ee 4dbb dcb6 dcba 1047 bc3a
000000b0: e005 57bb 1714 70bb 5d63 683a ec60 02bb
000000c0: 9718 34bb a589 31ba a234 54bb 9ad1 39b9
000000d0: 4a49 b1bc 4dbd 96ba fcb9 66bc afd6 83bb
000000e0: eecc a83a 6189 9fb8 0dd7 dcba 87af 6ab8
000000f0: 0438 883a 8965 103b 081d 893b 1d1f 2c3b
00000100: 49e9 3bbc 8c46 b53a c0a8 033a af0e 333b
00000110: ecbf 5fba 2e49 c73a 25da 983b b6fe 933a
00000120: 7598 8f39 1f04 05bb f170 33ba fc5b a83b
00000130: 3c85 113b 8b40 f839 9621 c83a 00c0 06ba
00000140: 3978 923a 6f7b 103b cb95 a8b9 e8ab 523a
00000150: ed7b 87bb 940c 00bc 1ae7 0bbc 276a 84ba
00000160: 0884 3bbc a2fd 9fba 9d92 de3a 1465 0238
00000170: fb7b 87bb 58df ca39 cf97 e1ba 474c 813b
-0.0028987648 0.0018719101 -0.002695397 -0.0028387578 -0.00038347798 -0.002597481 -0.0074056257 -0.0019955467
0.00029184623 0.00095759204 0.00043068713 -0.0036286812 0.0005127067 -0.0031434617 0.0022173466 2.0821806e-05
-0.0052098827 -0.015059471 0.0002993709 0.0024006981 -0.00075616443 -0.0013138286 -0.002681298 -0.0029435102
-0.025285434 -0.0018595839 0.00036665474 -0.0021556816 -0.001075822 -0.0010780512 0.0018972807 0.0010345618
0.00060013233 -0.0006308769 -0.0015922755 3.3147826e-05 -0.0012705819 -0.00067936105 3.7600326e-05 -0.0028285508
-0.0006820242 -0.0031422912 -0.0016839164 0.001436444 -0.0032809898 -0.0036633068 0.0008864904 -0.0019894196
-0.0027480477 -0.0006772525 -0.0032380004 -0.00017721058 -0.021641392 -0.0011500508 -0.014082428 -0.004023395
0.0012878457 -7.6072996e-05 -0.0016848758 -5.595342e-05 0.001039267 0.0022033176 0.004184369 0.0026263662
-0.011469194 0.0013830229 0.0005022399 0.0027321985 -0.00085353735 0.0015204304 0.0046646767 0.001129112
0.00027388675 -0.0020296646 -0.00068451377 0.0051379185 0.0022204658 0.00047350334 0.0015268798 -0.00051403046
0.0011174745 0.0022046228 -0.00032155061 0.000803648 -0.004134646 -0.007815499 -0.008538986 -0.0010102437
-0.011445053 -0.0012206326 0.001698095 3.108855e-05 -0.0041346527 0.00038694846 -0.001721138 0.0039458605

running_mean f4 [96]
00000000: 9249 5dbc 3aa0 bbbb e8e4 0fbb 9946 01bc
00000010: 28d1 45bc 6466 fa3a 89ef 08bc fe0a 9a3b
00000020: 3455 2abc 2e21 c73b a40a c3bb 5df8 da3b
00000030: 32ce d0bb 1c53 b5bb 2df0 bab9 91a3 53bb
00000040: 3f01 41bc 6dec 923a 1aa8 3cbb 1447 473c
00000050: c5ae 863b 55d8 8abc 37ff 113c 4917 0a3c
00000060: d9d2 683a 2730 78bc a563 1aba a22b 7dbc
00000070: cb67 383b 757c 39bb d467 4bbc 3a48 c33b
00000080: f285 d6bb 603e 4ebb 040a 203c d908 063c
00000090: 6bec 79ba 2ffb 853c af70 4a3b 3ece 5a3c
000000a0: 8f61 c139 163e f1bb d547 e0b9 70d6 03bb
000000b0: 41ea 093c 4b87 c93b d893 c03a 0cb2 dc3b
000000c0: 0feb 4c3c 8927 0fbc f1c7 513b 693b 9e3b
000000d0: 6d8f ba39 2c68 0bbb 3725 5cbb 7463 c23b
000000e0: 24be dabb 1cb9 25bc 62a5 9f3b 2f51 d2bb
000000f0: b059 273c 2d40 81bb 6fc5 4ebc 0209 02ba
00000100: 37a1 5c3c 26c9 f43a d930 19b8 03de 2c3c
00000110: 0137 11bc da3c b13c 7929 b63b a3d0 493c
00000120: bde7 f93b bcc9 7d3c b42f 1839 0ab0 773b
00000130: 1f18 3f3b f585 00bc 2e76 e53a 38df d1bb
00000140: 66b1 afba 8cd0 203c 7872 ef39 8faa a6bb
00000150: 637b 0a3b 020f f33b 61de 4cba e43e 5e3b
00000160: d09c 3138 7de4 1ebc fdd3 03bc 5f1d 8fbc
00000170: 1a68 363c dbd5 c03b 24d2 863b 251e a73b
-0.01350631 -0.0057258876 -0.0021956507 -0.007890367 -0.0120737925 0.0019104001 -0.008357891 0.0047010174
-0.010396291 0.0060769534 -0.005952196 0.0066824392 -0.0063722366 -0.005533589 -0.0003565563 -0.0032293538
-0.011780082 0.0011209376 -0.002878672 0.012162942 0.0041101896 -0.016948858 0.008910946 0.008428403
0.00088815164 -0.015148199 -0.0005889482 -0.015452297 0.0028138037 -0.0028302942 -0.012414891 0.005959538
-0.0065467292 -0.0031470284 0.009768013 0.00818082 -0.0009533825 0.016355125 0.0030889919 0.013354836
0.00036884515 -0.0073621375 -0.00042778128 -0.0020116828 0.008417667 0.0061501614 0.0014692498 0.006735092
0.012507214 -0.008737453 0.0032010044 0.0048288596 0.00035583545 -0.0021271808 -0.0033591518 0.005932266
-0.0066754986 -0.010114934 0.00487201 -0.0064183692 0.010214254 -0.003944418 -0.012620314 -0.0004960449
0.013466171 0.001867567 -3.6523536e-05 0.010550979 -0.008863212 0.021635462 0.005559143 0.012317809
0.0076265023 0.015489992 0.0001451362 0.0037794136 0.0029158664 -0.007844438 0.0017506534 -0.0064047836
-0.0013404309 0.009815346 0.00045670918 -0.00508625 0.0021130673 0.0074175606 -0.00078151195 0.0033911997
4.234613e-05 -0.009698031 -0.008046147 -0.01747006 0.011133218 0.0058848686 0.004114406 0.005100029

running_var f4 [96]
00000000: 1582 563e 73a8 9e3d 5217 6a3e e197 063f
00000010: 4941 b03e 0052 983e 4e47 063e 5b1a 753e
00000020: 03a9 013e 682f 033e 3a52 0e3e 7f89 8c3e
00000030: b651 cd3e 4377 b43d f5a7 153e 811b 3c3e
00000040: 622e a03e e1e8 b43d 9cc0 993e 3b7c 113f
00000050: f722 1b3e ecfd 1c3f da36 303e 87ff dd3e
00000060: 5068 323e 5e7e a83e 4c1f e53e 919d 673f
00000070: 4730 a93e 4b0e 983e cc65 ba3e d6e1 a53e
00000080: a91c df3e d240 e33e 5e32 d33e bf17 573e
00000090: 09fa 163e adc6 2f3f 6a6a 733e aef9 983e
000000a0: f9b2 c13e 0023 033e 3375 9a3e 4134 243f
000000b0: 8953 243f b311 f33e aa84 433e 3808 6d3e
000000c0: 9e38 e13e b5da 5e3f a192 423e aa9d 173e
000000d0: 588c 223e fc40 f43e 952a e33d e6e6 6f3e
000000e0: dea1 853e de47 b23e 5005 303e fdf0 bb3e
000000f0: fe95 733e 7307 2b3e 4e20 a23e a70c 853e
00000100: 4098 6d3e 8d38 a63e 7315 bf3e d70c f73e
00000110: ad76 5a3e 0622 d33e adf8 623e 1c41 5b3e
00000120: 05a4 b83e c625 753e 2634 e03e c29f 9b3e
00000130: 565c 803e 1dfb f23d 511c 803e f2cd 5d3e
00000140: 3050 2a3e c28c 1c3e 266a 0c3e b845 d63d
00000150: b511 a83e fc03 3d3e 6d80 c53d 635b 6c3e
00000160: 8bab 023e 99b8 a93e 07b9 a83e f3c9 8c3f
00000170: 1da4 903e 2f31 483e c574 b83e 103b b63e
0.2094806 0.07746973 0.22860458 0.525755 0.3442481 0.2975006 0.13113138 0.23935835
0.12662129 0.12811053 0.13898554 0.2744865 0.40101403 0.0881181 0.14614852 0.18369867
0.31285387 0.088334806 0.30029762 0.56830186 0.15150057 0.61324954 0.17208424 0.43359014
0.17422605 0.3290891 0.4475044 0.904748 0.33044645 0.29698405 0.3640579 0.32398862
0.43576553 0.4438539 0.41249365 0.21005152 0.14743818 0.6866253 0.23771062 0.2987799
0.37831858 0.1280632 0.3016754 0.64142233 0.64189965 0.4747444 0.19093576 0.23147666
0.43988508 0.8705247 0.19001247 0.14806238 0.1587385 0.4770583 0.11092106 0.23427925
0.26100057 0.34820455 0.17189527 0.36707297 0.23787686 0.1670206 0.31665272 0.25986215
0.2320261 0.3246502 0.37321052 0.48251984 0.21334334 0.41236895 0.22165175 0.21411556
0.36062637 0.2394019 0.43789786 0.30395323 0.25070447 0.11864302 0.25021604 0.21660593
0.16632152 0.1528807 0.13712367 0.104625165 0.3282601 0.18458551 0.09643636 0.23081736
0.12760751 0.3314865 0.32953665 1.099913 0.28250208 0.19550012 0.36026588 0.35591936
