cnn/models/houston/houston3pmodel06-16-13-28-57_0-9272817460317461.pkl (torch, 979001 bytes, 131 tensors)

weight f4 [96, 144, 3, 3]
0	0x3bca54ac	0.0061746445
1	0xbbd6fd5f	-0.006560966
2	0x3bea57b9	0.0071515706
3	0xbae50532	-0.0017472862
4	0x3c3aee6f	0.011409386
5	0x3bca8581	0.0061804657
6	0xbb50bdd3	-0.0031851425
7	0xbcb2fcc9	-0.021849053
8	0x3bc43d83	0.005988778
9	0xbcc0f450	-0.023553997
10	0x3b7db28f	0.0038711166
11	0x3adfd186	0.0017075993
12	0xbbc07973	-0.005873853
13	0x3cb7cdd1	0.022437008
14	0x3ae6b4e5	0.0017601518
15	0x3c3c8ae6	0.011507725
16	0x3c41c2fb	0.011826272
17	0xbc82a8e7	-0.01594968
18	0xbc20a15b	-0.009804095
19	0x3cd9d0c5	0.026588807
20	0xbcd8734a	-0.026422162
21	0xbad499a5	-0.0016220106
22	0xbac55cea	-0.0015057598
23	0x3c9dea91	0.019276889
24	0xbb02ec04	-0.0019977102
25	0x3c02591b	0.007955815
26	0xba892554	-0.0010463395
27	0xbc68fad0	-0.014219955
28	0xbc68999c	-0.01419678
29	0xbc535cab	-0.012900512
30	0xbcc47463	-0.023981279
31	0xbc868f7a	-0.016425837
32	0x3bdbf7bd	0.0067128823
33	0x3c99f82a	0.018795092
34	0x3b2f7ffc	0.0026779165
35	0xbc427ad3	-0.011870104
36	0x3c5570a7	0.013027347
37	0xbc133709	-0.008985289
38	0xbbb97bd8	-0.0056605153
39	0xbc65c4b5	-0.014023949
40	0xbbe7b33d	-0.0070709274
41	0xbcc9c63e	-0.024630662
42	0x3c52a446	0.012856549
43	0x3c483061	0.012218566
44	0x3bc49309	0.0059989733
45	0x3c6e3160	0.014538139
46	0x3c5501ae	0.013000889
47	0x3ad2828a	0.0016060632
48	0x3b73070b	0.0037083055
49	0x3b68753a	0.0035470263
50	0x3c73e9ff	0.014887332
51	0x3ca03ea4	0.01956112
52	0x3cae1fbb	0.021255365
53	0x3c8615ed	0.016367877
54	0xbba9c0fb	-0.005180476
55	0x3a2d1861	0.0006603059
56	0xbba6987b	-0.005084095
57	0x3c880ef3	0.01660869
58	0x3b963a8d	0.0045846165
59	0x3ccf5e8b	0.025313636
60	0x3c797acb	0.01522703
61	0xbcaa9fe0	-0.020828187
62	0x3c0d8f72	0.008640157
63	0x3cdc6c3e	0.026907083
64	0x3cd13468	0.025537685
65	0xb9acc3a6	-0.00032952166
66	0x3c19659c	0.0093626045
67	0xbcc68713	-0.02423433
68	0xbc0f419b	-0.008743669
69	0x3c6a0e51	0.01428564
70	0xbcba88d2	-0.02277032
71	0x3cc3da4e	0.023907807
72	0xbc8a70e8	-0.016899541
73	0x3c245524	0.010030065
74	0xba9a45c8	-0.0011770064
75	0x3b971d9c	0.004611684
76	0x3b4ff203	0.0031729944
77	0xbcd5963a	-0.02607261
78	0xbb9f1b3a	-0.0048555406
79	0xbc7c03ec	-0.015381794
80	0x3cbbc1b6	0.022919517
81	0xbb4394ec	-0.0029843403
82	0xbcd3d798	-0.025859639
83	0x3bbfbef9	0.005851623
84	0x3c31631e	0.010826854
85	0xbc4d9ea5	-0.012550031
86	0xbb8c3800	-0.0042791367
87	0x3c438b3a	0.01193505
88	0xbc8146d2	-0.01578084
89	0xbc743ea7	-0.014907516
90	0xbb3d570f	-0.0028891002
91	0xbc970d56	-0.018438976
92	0x3c7e1487	0.015507824
93	0x3a2f2ad3	0.00066821015
94	0x3c71f182	0.014767053
95	0x3c44714e	0.011989905
96	0xbcac9fc8	-0.021072283
97	0xbc861066	-0.016365241
98	0xbca177e4	-0.019710489
99	0xbc18a603	-0.009316924
100	0xbc1f8049	-0.009735175
101	0xbbc08457	-0.005875151
102	0xbce6dfb7	-0.028182847
103	0x3c196e7b	0.0093647195
104	0x3c472ce2	0.012156697
105	0x3c02e1e6	0.007988429
106	0x3c8b8e32	0.017035577
107	0x3c97a78d	0.018512512
108	0xbcde9dbc	-0.027174823
109	0x3b89b88d	0.0042029084
110	0x3cc02a6c	0.023457728
111	0xbcb06f1b	-0.021537354
112	0xbc6aed4d	-0.0143388035
113	0xbb9cdba8	-0.0047869273
114	0xbc8eb3e6	-0.017419767
115	0xbbacceab	-0.00527366
116	0xbbc2db2b	-0.005946537
117	0x3cc198e1	0.023632469
118	0xbab5d1a4	-0.0013871682
119	0x3c5903d5	0.0132455425
120	0x3c92ae1f	0.017905293
121	0x3c2016dc	0.009771075
122	0xbcdbe5bb	-0.026842942
123	0x3ca1f97c	0.019772284
124	0x3c90d38e	0.017679002
125	0xbcae43ce	-0.021272566
126	0xbc242f90	-0.010021105
127	0x3c9892c7	0.018624676
128	0xbce2468c	-0.02762153
129	0xbccf9e65	-0.025344083
130	0xbca6c874	-0.020359255
131	0x3ba7f131	0.005125188
132	0xbc3c431b	-0.011490609
133	0xbcc5b36d	-0.024133408
134	0x3c0cdbd6	0.008597335
135	0x3c5dc8ab	0.0135366125
136	0x3c2d4e85	0.010577803
137	0xbcc8361c	-0.024439864
138	0x3cca904a	0.024727006
139	0xbb8b7cad	-0.004256806
140	0xbcee4e42	-0.02909005
141	0xbb8d5066	-0.0043125628
142	0x3c9136d3	0.017726338
143	0x3c2e71f2	0.010647284
144	0xb93f3bb5	-0.00018237422
145	0x3ca12f2b	0.019675812
146	0xbcd38539	-0.025820361
147	0x3c8e96c2	0.017405871
148	0x3cca0a2c	0.024663053
149	0xbca29122	-0.019844595
150	0x3bbd56ea	0.005778183
151	0xbb8af1ed	-0.0042402656
152	0xbcc9621a	-0.024582911
153	0x3962fbed	0.00021646889
154	0xbc056b2c	-0.008143228
155	0xbcc5ad47	-0.024130477
156	0xbcaa2d8d	-0.020773673
157	0xbac52582	-0.0015041085
158	0x3cb08451	0.021547468
159	0x3c2108d3	0.009828764
160	0xbc8fe59c	-0.017565541
161	0x3c8a0db3	0.016852235
162	0x3b49c5b2	0.0030788002
163	0xbcccb68c	-0.024989389
164	0x39fda873	0.00048381425
165	0x3c8867a0	0.016650975
166	0xbc90583f	-0.017620204
167	0xbb964652	-0.0045860196
168	0xbc53ec0e	-0.012934698
169	0xbca7ec82	-0.020498518
170	0xbc8af916	-0.016964477
171	0x3b8348e7	0.0040064934
172	0x3c9d3a68	0.01919289
173	0xbbb1e6db	-0.0054291314
174	0xbcc8cbb2	-0.024511192
175	0xbad66270	-0.0016356241
176	0xbcd8fa46	-0.026486527
177	0x3b27af64	0.0025586719
178	0x3cadb22c	0.021203123
179	0x3c2817fd	0.0102596255
180	0xbc74615d	-0.014915791
181	0xbb7dfc5e	-0.003875516
182	0x3c2e4c9e	0.010638384
183	0x3bf2800e	0.007400519
184	0xbcd95170	-0.02652809
185	0xbc97b466	-0.018518638
186	0xbc090fe8	-0.008365609
187	0x3c39d227	0.011341608
188	0x3cbcecef	0.023062197
189	0x3c680039	0.014160209
190	0x3c50ca8c	0.012743603
191	0xbcb9c4fc	-0.022676937
192	0x3c949af4	0.018140294
193	0x3c126876	0.008936038
194	0xbc36002c	-0.011108439
195	0xbc3807e9	-0.011232355
196	0x3c1e22c1	0.009651841
197	0xbc7abe5f	-0.015304177
198	0x3c5c129e	0.013432173
199	0x3cc116d5	0.023570457
200	0xbc8d5f80	-0.017257452
201	0xbc813b7a	-0.015775431
202	0xbc3ae876	-0.011407962
203	0xbccd206e	-0.025039878
204	0xba8032b8	-0.000978074
205	0x3c9d69a3	0.01921541
206	0x3c202a00	0.009775639
207	0xbbbf05df	-0.0058295573
208	0xb8439da3	-4.6638434e-05
209	0xbc324544	-0.010880772
210	0xbca58541	-0.020205142
211	0xbbe9196c	-0.007113626
212	0x392cd4c2	0.00016482457
213	0xbc3680e2	-0.0111391265
214	0xbc8ec73a	-0.017428983
215	0x3c004536	0.007829001
216	0x3be9e0cc	0.0071373936
217	0xbb9d157c	-0.004793821
218	0x3c0b9f1c	0.008521821
219	0x3cdd0e68	0.026984408
220	0x3b095916	0.002095764
221	0xbca2eac8	-0.019887343
222	0x3ce4500e	0.027870204
223	0x3cb97b88	0.022641912
224	0xbb1afe6f	-0.002365019
225	0xbc0ef01b	-0.008724238
226	0xbbf46280	-0.007458031
227	0x3ccc6deb	0.024954757
228	0x3c8742ab	0.016511282
229	0xbc5330c2	-0.012890043
230	0xb7ce837a	-2.4618337e-05
231	0x3c0cfbb4	0.008604933
232	0x3c2d5e42	0.010581555
233	0xba925c23	-0.0011166375
234	0xbc3046f7	-0.010759107
235	0x3b3ed743	0.0029120005
236	0xbbc7f5cf	-0.0061023007
237	0xbbdbdcf5	-0.0067096897
238	0xbc498419	-0.012299561
239	0xbc660315	-0.014038821
240	0xbc2049f1	-0.009783254
241	0x3c65f2b9	0.01403492
242	0xbcb70e7e	-0.022345778
243	0xbcb48a6f	-0.022038667
244	0x3cdec895	0.027195254
245	0x3c3a8f63	0.011386725
246	0x3c90b240	0.017663121
247	0x3c571441	0.0131273875
248	0xbc34b6c4	-0.011029903
249	0xbc612359	-0.013741338
250	0xbc718e63	-0.01474342
251	0xba8d9755	-0.0010802547
252	0x3c2c9ee9	0.010535934
253	0xbcac2b03	-0.021016603
254	0xbc9b5d6d	-0.018965447
255	0x3c944957	0.018101377

weight f4 [96]
0	0x3f7625b9	0.9615131
1	0x3f77c773	0.9678871
2	0x3f7c37ac	0.9852245
3	0x3f77fcf9	0.9687038
4	0x3f787257	0.9704947
5	0x3f7795ac	0.96712756
6	0x3f767af5	0.9628137
7	0x3f7b62b7	0.981975
8	0x3f78a1f9	0.9712215
9	0x3f7654fc	0.96223426
10	0x3f78d49a	0.97199404
11	0x3f76211c	0.9614427
12	0x3f776327	0.9663567
13	0x3f79d8fc	0.97596717
14	0x3f7a1777	0.97692055
15	0x3f77a57d	0.9673689
16	0x3f79c985	0.9757312
17	0x3f793057	0.97339386
18	0x3f780615	0.9688428
19	0x3f778167	0.9668183
20	0x3f7a4342	0.9775888
21	0x3f789a1c	0.9711015
22	0x3f7c1656	0.9847158
23	0x3f76da9c	0.9642732
24	0x3f78adc1	0.9714013
25	0x3f7709fe	0.9649962
26	0x3f777731	0.96666247
27	0x3f793299	0.9734283
28	0x3f782bd4	0.96941876
29	0x3f789130	0.9709654
30	0x3f76fa3e	0.9647559
31	0x3f7c001b	0.9843766
32	0x3f795b1a	0.97404635
33	0x3f79ad44	0.9753001
34	0x3f77d1e3	0.96804637
35	0x3f774e94	0.96604276
36	0x3f7958b4	0.97400975
37	0x3f785d29	0.9701715
38	0x3f79d6ae	0.975932
39	0x3f797bde	0.9745463
40	0x3f788a69	0.970862
41	0x3f77470e	0.96592796
42	0x3f76a96e	0.9635228
43	0x3f784566	0.96980894
44	0x3f798dde	0.974821
45	0x3f78bb84	0.97161126
46	0x3f78535c	0.97002196
47	0x3f7a0e03	0.9767763
48	0x3f7b071f	0.9805774
49	0x3f7904f4	0.9727318
50	0x3f77fb65	0.9686797
51	0x3f76f4a3	0.96467036
52	0x3f7823d2	0.9692966
53	0x3f7797df	0.9671611
54	0x3f785b31	0.9701415
55	0x3f788f40	0.9709358
56	0x3f77e796	0.9683775
57	0x3f78dc0c	0.97210765
58	0x3f77cc06	0.9679569
59	0x3f790499	0.9727264
60	0x3f7c6479	0.9859081
61	0x3f7af90d	0.9803627
62	0x3f787695	0.9705594
63	0x3f775b73	0.96623915
64	0x3f7843ec	0.9697864
65	0x3f78c2b5	0.971721
66	0x3f79272e	0.9732541
67	0x3f78b39f	0.9714908
68	0x3f796595	0.97420627
69	0x3f785ec8	0.97019625
70	0x3f7acfc3	0.9797327
71	0x3f7992d0	0.97489643
72	0x3f7a65b7	0.97811455
73	0x3f7707cc	0.9649627
74	0x3f78d4e2	0.97199833
75	0x3f7a5b7d	0.9779585
76	0x3f79a547	0.9751782
77	0x3f791449	0.9729658
78	0x3f782fd6	0.9694799
79	0x3f78f1be	0.9724387
80	0x3f782ab8	0.96940184
81	0x3f776003	0.9663088
82	0x3f7a1273	0.976844
83	0x3f7cc09d	0.98731405
84	0x3f79929f	0.9748935
85	0x3f7f516b	0.9973361
86	0x3f78262d	0.9693325
87	0x3f78b5e6	0.97152555
88	0x3f794c39	0.9738193
89	0x3f79075d	0.9727686
90	0x3f76d32b	0.96415967
91	0x3f78d641	0.97201926
92	0x3f7a1f99	0.97704464
93	0x3f7a61ea	0.97805655
94	0x3f780378	0.9688029
95	0x3f793fbd	0.9736288

bias f4 [96]
0	0xbc668da6	-0.014071858
1	0xbb9cc684	-0.004784407
2	0x3aa6585c	0.0012691128
3	0xbcb05b21	-0.021527829
4	0xbcb9adae	-0.022665825
5	0x3c245753	0.010030585
6	0x3cbce018	0.023056075
7	0xbc74d6ea	-0.014943818
8	0x3b94819a	0.0045320513
9	0xbb9fddb8	-0.004878726
10	0xbc0895e2	-0.008336516
11	0xbcb4e51a	-0.0220819
12	0xbbe6a03e	-0.0070381453
13	0xb98956a7	-0.00026195237
14	0x3bcc625c	0.0062373113
15	0xbc324a6d	-0.010882002
16	0xbc3fb2bb	-0.0117003275
17	0xbb0cfb9a	-0.002151227
18	0xbc6ada5c	-0.0143342875
19	0xbca85e51	-0.020552786
20	0x3cd1eb50	0.025624901
21	0x3c1198cc	0.008886527
22	0xba785574	-0.0009473183
23	0xbbc98953	-0.0061504035
24	0x3c0d03c4	0.008606855
25	0x3baa4d52	0.0051972056
26	0x3c41bf03	0.011825326
27	0x3bcca5b5	0.0062453398
28	0xbbb07e60	-0.005386159
29	0x3b8285db	0.003983242
30	0x3b81b825	0.0039587193
31	0x39ac0a85	0.00032814234
32	0xbc57f2f1	-0.01318048
33	0xbcc2f2fe	-0.023797508
34	0xbb047cd6	-0.002021601
35	0x3b48e76b	0.0030655514
36	0x3c1a9eb5	0.009437253
37	0xbc54ecc4	-0.012995902
38	0xbc1d0ad1	-0.009585098
39	0xbbaaf1b4	-0.0052168015
40	0xbc85463a	-0.016268838
41	0xbcd94b60	-0.0265252
42	0xbc08a111	-0.0083391825
43	0xbbc61705	-0.0060452246
44	0x3cb5c402	0.02218819
45	0x3aa6205e	0.0012674441
46	0x3b5cf042	0.003371254
47	0xbb3fac74	-0.0029247077
48	0x383dbf7e	4.5239452e-05
49	0xbc548ca8	-0.012972988
50	0xbbda24ea	-0.0066572325
51	0xbc167d45	-0.00918514
52	0x3be576bb	0.007002679
53	0xbc15eaac	-0.009150188
54	0xba722bca	-0.00092380925
55	0xbc2411ce	-0.010014011
56	0x3b8165bd	0.0039488957
57	0xbc5e5143	-0.013569179
58	0x3c2facec	0.01072238
59	0xbb8f23f4	-0.0043682996
60	0xbb0c4d7c	-0.002140849
61	0x3c17dba0	0.009268671
62	0xb9695ff7	-0.00022256361
63	0xbbdb4441	-0.006691486
64	0xba9497d3	-0.0011336751
65	0xbaa4203e	-0.0012521816
66	0x3c9b5e8f	0.018965987
67	0x3c27f282	0.010250689
68	0x3a99cfd1	0.0011734908
69	0xbbae392d	-0.0053168745
70	0xbc6e106e	-0.014530284
71	0x399cb712	0.00029891037
72	0xbbf98148	-0.0076142885
73	0xb9e3c26f	-0.00043441678
74	0xbb760296	-0.0037538162
75	0xbcce4b5d	-0.02518242
76	0xbc884c3f	-0.01663792
77	0xbcb225f2	-0.02174661
78	0xbbd29fa2	-0.006427721
79	0xbc864117	-0.01638846
80	0x3bf8ed93	0.0075966804
81	0xbb0d67a1	-0.002157666
82	0x3c19e257	0.0093923425
83	0x3c361976	0.011114469
84	0x3a81febf	0.0009917839
85	0x3bf2e7d7	0.0074128914
86	0x3b1909af	0.002335172
87	0xbbbdd6f9	-0.005793449
88	0xbc83bf82	-0.016082529
89	0xbc86fa10	-0.016476661
90	0xba84d7ca	-0.0010135111
91	0xbc2b2d5e	-0.010447828
92	0xba8aefd1	-0.0010600035
93	0x3bc7a4a9	0.006092627
94	0xbc3d0682	-0.011537196
95	0xbc0bda1d	-0.008535889

running_mean f4 [96]
0	0xc5c05ebb	-6155.8413
1	0x4505d034	2141.0127
2	0xc54d981b	-3289.5066
3	0xc5b16a6c	-5677.3027
4	0xc53cfab1	-3023.6682
5	0xc56c77fb	-3783.4988
6	0x44ab3db8	1369.9287
7	0xc5186fc5	-2438.9856
8	0xc4567d18	-857.9546
9	0x45add9a1	5563.2036
10	0xc5bdaa71	-6069.305
11	0xc5b1eede	-5693.8584
12	0x45ad6998	5549.199
13	0xc499f227	-1231.5673
14	0x4500eb1f	2062.695
15	0x45519dd7	3353.865
16	0x430652a4	134.32281
17	0xc57f46f1	-4084.4338
18	0xc4bfd6b7	-1534.7098
19	0xc56a81ee	-3752.1206
20	0x44b1970c	1420.7202
21	0xc4a1ba69	-1293.8253
22	0xc52a1645	-2721.3918
23	0xc4bcc3df	-1510.121
24	0x451ed3f6	2541.2476
25	0x45bee2c8	6108.3477
26	0x44c863f3	1603.1234
27	0x45d03bd2	6663.4775
28	0xc526c2d3	-2668.1765
29	0x460ab35d	8876.841
30	0xc55f5e27	-3573.8845
31	0xc4f7a569	-1981.1691
32	0xc57dccd2	-4060.8013
33	0x4502ec1d	2094.757
34	0x43db65c5	438.79507
35	0x4508097a	2176.5923
36	0x4542b5ec	3115.37
37	0x4581ca04	4153.252
38	0xc3b99b72	-371.21442
39	0xc5667c36	-3687.7632
40	0xc53a3e3a	-2979.8892
41	0xc55fe5f7	-3582.3728
42	0xc59adf16	-4955.8857
43	0x443b4a61	749.1622
44	0xc5ae6bb0	-5581.461
45	0x42a17216	80.722824
46	0x45093f89	2195.971
47	0xc5034351	-2100.2073
48	0xc49cfa8a	-1255.8293
49	0xc4fc8a08	-2020.3135
50	0x4534ec7a	2894.7798
51	0xc5bdc079	-6072.059
52	0x4526fe8b	2671.909
53	0x445791ba	862.277
54	0xc4d0ed53	-1671.4164
55	0xc5b8d59a	-5914.7
56	0x4527e89e	2686.5386
57	0xc5143785	-2371.47
58	0x45186675	2438.4036
59	0x449b4e0c	1242.439
60	0xc5344e60	-2884.8984
61	0x44e22409	1809.1261
62	0x459d9606	5042.753
63	0x44d00167	1664.0438
64	0x44790578	996.08545
65	0xc51e2e5e	-2530.898
66	0xc5836b99	-4205.4497
67	0x45215eef	2581.9333
68	0xc5796b75	-3990.716
69	0xc4f6242f	-1969.1307
70	0xc4f7591d	-1978.7848
71	0xc627b3bb	-10732.933
72	0xc50195d1	-2073.3635
73	0xc5c2cc78	-6233.5586
74	0xc3a7121e	-334.14154
75	0xc4e0fb6b	-1799.8568
76	0xc5a06853	-5133.0405
77	0xc554e714	-3406.4424
78	0x45626480	3622.2812
79	0xc552cce4	-3372.8057
80	0x44d2c0e1	1686.0275
81	0x45062c8d	2146.7844
82	0xc56699f5	-3689.6223
83	0x454afcd4	3247.8018
84	0xc5787e10	-3975.879
85	0xc4f9df67	-1998.9813
86	0x44b3584d	1434.7594
87	0x45600375	3584.216
88	0xc56d1150	-3793.082
89	0xc46a83c8	-938.0591
90	0x457e31c1	4067.1096
91	0xc41a259f	-616.5878
92	0x454072fb	3079.1863
93	0xc57bfe9a	-4031.9126
94	0x4503374f	2099.4568
95	0x4588f33a	4382.4033

running_var f4 [96]
0	0x4b7e2742	1.6656194e+07
1	0x49c8fa1d	1.6464036e+06
2	0x49b7e4b2	1.5064542e+06
3	0x4b84c9f1	1.7404898e+07
4	0x4ab1ed01	5.8302725e+06
5	0x4a514ade	3.4290475e+06
6	0x4aa1a539	5.2967965e+06
7	0x4aaff00b	5.7651255e+06
8	0x4b094fa9	8.998825e+06
9	0x4b6ed398	1.5651736e+07
10	0x4b3fe503	1.2576003e+07
11	0x4b2a33ae	1.115435e+07
12	0x4b16b73b	9.877307e+06
13	0x4b8837e1	1.7854402e+07
14	0x4a1f0302	2.6052485e+06
15	0x4a779b03	4.0567688e+06
16	0x4b19c508	1.0077448e+07
17	0x4aaa54a8	5.581396e+06
18	0x4abcc42f	6.1854955e+06
19	0x4a64eeb8	3.75083e+06
20	0x49ca7680	1.658576e+06
21	0x4b0d70fb	9.269499e+06
22	0x4a0bc914	2.290245e+06
23	0x4a90de66	4.747059e+06
24	0x4b4455b7	1.2866999e+07
25	0x4b30dc15	1.1590677e+07
26	0x4a8b813f	4.5712955e+06
27	0x4b48db21	1.3163297e+07
28	0x4a491169	3.2942982e+06
29	0x4ba3bfb6	2.1462892e+07
30	0x4ae93a30	7.642392e+06
31	0x49f837a4	2.0333965e+06
32	0x4a9c70ff	5.1262715e+06
33	0x4a278560	2.744664e+06
34	0x49fc776e	2.0682058e+06
35	0x4af7ee97	8.1242355e+06
36	0x4a9d06b7	5.1454355e+06
37	0x4a9ef5d4	5.20881e+06
38	0x4b79c2a7	1.6368295e+07
39	0x4aea6880	7.681088e+06
40	0x4a73d4fd	3.9949432e+06
41	0x4ad36282	6.926657e+06
42	0x4b36d8f3	1.1983091e+07
43	0x4a428d0d	3.1875232e+06
44	0x4b4cbe69	1.3418089e+07
45	0x4b11cd0f	9.555215e+06
46	0x4b4c5318	1.3390616e+07
47	0x4982d92f	1.0719099e+06
48	0x49a18f71	1.3235021e+06
49	0x4bb6556c	2.389884e+07
50	0x4a99f510	5.044872e+06
51	0x4b1a4995	1.0111381e+07
52	0x4aa5e0d1	5.4354965e+06
53	0x4a995635	5.0245385e+06
54	0x4ac0a682	6.312769e+06
55	0x4b87e91d	1.7814074e+07
56	0x49da8674	1.7901585e+06
57	0x4b28b16a	1.1055466e+07
58	0x4a6af970	3.84982e+06
59	0x4aa78171	5.4888245e+06
60	0x498a33b9	1.1321511e+06
61	0x49df5a96	1.8297148e+06
62	0x4ad5e6ba	7.009117e+06
63	0x4a8053a4	4.20501e+06
64	0x48e6eae8	472919.25
65	0x4b5b7bbc	1.438406e+07
66	0x4a79621f	4.0858958e+06
67	0x4aee12ef	7.8012075e+06
68	0x4a942d3e	4.855455e+06
69	0x49dd6500	1.813664e+06
70	0x499fb494	1.3083065e+06
71	0x4c01e1ad	3.4047668e+07
72	0x494b46de	832621.9
73	0x4b3b81a3	1.2288419e+07
74	0x4a8a9cca	4.542053e+06
75	0x49530c93	864457.2
76	0x4b8d8730	1.8550368e+07
77	0x4b38d3ac	1.2112812e+07
78	0x4ac170ac	6.338646e+06
79	0x4a85d990	4.385992e+06
80	0x4a2111ed	2.6389712e+06
81	0x4aae45e0	5.710576e+06
82	0x4b779228	1.6224808e+07
83	0x4a05365e	2.1825515e+06
84	0x4a7ee395	4.1761012e+06
85	0x49a8e8da	1.3837072e+06
86	0x4998234e	1.2463138e+06
87	0x4ae2463d	7.4145585e+06
88	0x4ac562ab	6.4679255e+06
89	0x4b92e720	1.9254848e+07
90	0x4afdfb84	8.322498e+06
91	0x4a3b8a28	3.07265e+06
92	0x4a5566b5	3.4963652e+06
93	0x4a6e79c6	3.9071855e+06
94	0x4b26b8d8	1.0926296e+07
95	0x4ade66ff	7.2876795e+06

weight f4 [32, 96, 1, 1]
0	0xbcfed641	-0.031108024
1	0x3aeab55b	0.0017906831
2	0x3dc48a1c	0.09596655
3	0xbd74b713	-0.059744906
4	0x3d38b63c	0.045095667
5	0x3d4ae940	0.04953885
6	0x3d89699f	0.06709599
7	0x3d7c7046	0.06163051
8	0x3b530ebe	0.0032204832
9	0x3d864c99	0.065575786
10	0xbdbf6790	-0.09345925
11	0xbd4e7076	-0.05040022
12	0x3d0fe836	0.035133563
13	0x3cfd01d6	0.030884665
14	0xbdba0904	-0.09083751
15	0x3da6b74c	0.0814043
16	0xbca30236	-0.019898515
17	0x3beb0734	0.0071724895
18	0x3d672c06	0.05643847
19	0xbcee20ad	-0.029068315
20	0x3d8af528	0.06785041
21	0xbd8c50e7	-0.068513684
22	0xbd5ba655	-0.053625423
23	0x3db1c23b	0.08679625
24	0x3cdfef13	0.02733568
25	0xbb8a52f6	-0.0042213155
26	0x3d44cc99	0.048046682
27	0xb80bfe15	-3.3376815e-05
28	0xbd306ef3	-0.04307456
29	0x3ce04674	0.027377345
30	0x3c9abed8	0.01888983
31	0x36da75e5	6.510631e-06
32	0x3d80585f	0.062668554
33	0xba244900	-0.00062669814
34	0x3c32109d	0.010868219
35	0x3c8d018d	0.017212654
36	0x3d256ce9	0.040387068
37	0x3d9905e9	0.074718304
38	0xbb899d28	-0.0041996427
39	0xbd25970c	-0.040427253
40	0xbd69c2b2	-0.05707044
41	0x3c32ab21	0.010905058
42	0x3d55c7d1	0.052192513
43	0xbc9d70d6	-0.019218843
44	0x3c8cd266	0.01719017
45	0x3b2e905b	0.0026636336
46	0x3dc080da	0.093995765
47	0xbdcd73a4	-0.10031822
48	0xbdb77402	-0.089576736
49	0x3d492c8f	0.04911476
50	0xbcd3ae21	-0.025839867
51	0x3cbd72d9	0.023126053
52	0xbd4a8c13	-0.04944999
53	0xbd9faf12	-0.07797064
54	0x3bfa93da	0.00764702
55	0x3c1e0d6a	0.009646753
56	0xbd084fc6	-0.033279203
57	0xbc85d9ff	-0.0163393
58	0x3d29ac31	0.04142398
59	0xbd3fc95a	-0.046822883
60	0x3d70fabf	0.05883288
61	0x3cffc376	0.031221133
62	0xbd51c5a4	-0.051213875
63	0xbafe85ef	-0.0019418577
64	0x3d880b9e	0.06642841
65	0x3bc429fa	0.0059864493
66	0xbd186c39	-0.037212584
67	0xbcf6b834	-0.030117132
68	0xbd8b84d1	-0.06812442
69	0x3c7e07d3	0.015504795
70	0xbd69fe01	-0.057127003
71	0xbd80fd86	-0.06298356
72	0x3d9a23ff	0.07526397
73	0xbd1a0720	-0.03760445
74	0xbdc6230f	-0.09674656
75	0xbdb37741	-0.0876298
76	0x3dbe4e95	0.09292332
77	0xbdb65a53	-0.08903947
78	0xbdd820d6	-0.10553138
79	0xbc482a8b	-0.012217174
80	0xbbc86b56	-0.006116311
81	0x3d26fe52	0.040769883
82	0x3d2d4d66	0.04231014
83	0x3db01beb	0.08599075
84	0x3d3d7e39	0.046262953
85	0xbd8fb547	-0.07016998
86	0x3c9cb190	0.019127637
87	0xbcbdfa1a	-0.023190547
88	0x3d3209b8	0.0434663
89	0x3d99644e	0.07489835
90	0x3afd8dc5	0.0019344619
91	0x3ab00472	0.0013429059
92	0xbd52d0c7	-0.051468637
93	0x3db8633b	0.09003302
94	0xbcd460cf	-0.025925068
95	0xbca6a2be	-0.020341273
96	0x3ceeb50d	0.029139066
97	0xbcf63201	-0.03005314
98	0xbd78bf41	-0.06072927
99	0xbdad6512	-0.08466543
100	0x3d52bda9	0.051450405
101	0xbcc7a1dd	-0.024369175
102	0x3d965d09	0.07341964
103	0x3d9166c4	0.07099679
104	0x3bd5109f	0.0065022255
105	0x3d499435	0.049213607
106	0x3d825e3f	0.06365632
107	0xbd72808a	-0.059204616
108	0x3d92c097	0.0716564
109	0x3d1b607c	0.03793381
110	0x3c0ffd34	0.008788396
111	0xbd6fedf7	-0.05857655
112	0x3bf1f55b	0.007383985
113	0x3d7dd506	0.061970733
114	0x3d3e04d6	0.04639133
115	0xbb8de691	-0.004330464
116	0x3b4959e9	0.0030723757
117	0x3d9e5565	0.077311315
118	0xbdbf5b03	-0.09343531
119	0x3dcebe8c	0.10094938
120	0x3dc23cd3	0.094842575
121	0x3da245b2	0.079234496
122	0xbd03d954	-0.032189682
123	0xbd70a6d8	-0.058752865
124	0x3d7b6ceb	0.06138317
125	0xbd9afb11	-0.07567418
126	0x3d9b8068	0.07592851
127	0x3ccb0fb6	0.024787765
128	0xbd08892b	-0.03333394
129	0xbc3b2df7	-0.011424533
130	0x3dc7f6f1	0.09763897
131	0x3dc2fad2	0.095204964
132	0xbc95ca9b	-0.018285086
133	0x3d5c76db	0.053824287
134	0x3c15633c	0.009117898
135	0xbdadc621	-0.08485056
136	0x3d52c8e5	0.05146112
137	0xbd281fc4	-0.04104592
138	0x3db90475	0.09034053
139	0xbd7487ee	-0.059699945
140	0xbdccc369	-0.09998209
141	0xbc7385fc	-0.014863487
142	0xbc3f68a2	-0.011682661
143	0xbc1dda1f	-0.009634524
144	0x3d305e98	0.04305896
145	0xbd9e55df	-0.07731222
146	0x3c367d1b	0.011138226
147	0x3d5f3bd4	0.054500416
148	0xbd1c5089	-0.03816274
149	0x3d8a97c9	0.06767232
150	0x3da7c2ec	0.08191475
151	0xbd3b5c0a	-0.045742072
152	0x3cba5cb8	0.02274929
153	0x3bb3acc2	0.005483241
154	0x3d407f16	0.0469962
155	0xbd21cf40	-0.03950429
156	0xbd840d89	-0.06447894
157	0xbced4085	-0.02896143
158	0xbd14ee35	-0.036359984
159	0x3d784748	0.060614854
160	0xbca206aa	-0.019778568
161	0x3cc5470b	0.024081727
162	0xbc2a635c	-0.010399666
163	0xbd990b37	-0.07472842
164	0x3dc61a4d	0.09672985
165	0xbd7ed65e	-0.062216155
166	0x3d130ae5	0.03589906
167	0xbb8de0c4	-0.0043297727
168	0x3da5857c	0.08082101
169	0xbd001dfc	-0.031278595
170	0x3dad7cc2	0.08471061
171	0x3d8f908a	0.070099905
172	0xbd2166e5	-0.03940477
173	0xbdae23ff	-0.085029595
174	0xbdc9f171	-0.098605044
175	0x3d95bdf5	0.07311622
176	0x3d9b7296	0.07590215
177	0x3c86fa4d	0.016476775
178	0x3be6d829	0.0070448113
179	0x3db621cf	0.08893167
180	0x3d6b30b0	0.05741948
181	0x3d9512f1	0.072790034
182	0xbbe5c316	-0.0070117814
183	0x3d78f155	0.060777027
184	0xbc5dc423	-0.013535532
185	0x3d916f87	0.0710135
186	0x3d6448b6	0.055733405
187	0xbd720db7	-0.05909511
188	0x3d27ea90	0.04099518
189	0xbda72b0a	-0.08162506
190	0xbc30b0f3	-0.0107843755
191	0xbd1bc40a	-0.038028754
192	0xbd4ae1e9	-0.04953185
193	0x3d0e17c9	0.034690652
194	0x3da70e4b	0.08157023
195	0xbceda17d	-0.029007668
196	0xbda88635	-0.08228723
197	0xbd162f82	-0.0366664
198	0x3d8e1bdc	0.069389075
199	0xbd26961b	-0.040670495
200	0x3db34000	0.087524414
201	0xbdbe1323	-0.09280994
202	0xbd1da64c	-0.03848867
203	0xbd980b05	-0.07423977
204	0x3d08a236	0.03335782
205	0x3d87377b	0.06602379
206	0x3c57afef	0.013164504
207	0x3cfb9296	0.030709546
208	0xbd6d4782	-0.057929523
209	0xbdc72481	-0.097237594
210	0xbcdad026	-0.026710581
211	0xbccbf091	-0.024894984
212	0x3d3c42db	0.045962196
213	0x3c39b90e	0.011335624
214	0x3d696878	0.056984395
215	0x3cb8c5b3	0.022555208
216	0xbd1c21ab	-0.038118046
217	0x3b4a9c47	0.0030915902
218	0x3db457ba	0.08805795
219	0xbcbdb913	-0.02315954
220	0x3d304633	0.043035697
221	0xbcdfc3e3	-0.027315086
222	0x3dc8cff1	0.09805287
223	0xbd29df58	-0.041472763
224	0x3d2cb96e	0.042169027
225	0x3cf27d11	0.029600652
226	0xbdcbe1ce	-0.09955178
227	0xbb4737c2	-0.0030398224
228	0xbd49e79c	-0.049293146
229	0x3dbfc2af	0.09363305
230	0xbd415b6d	-0.04720633
231	0xbca293bb	-0.019845834
232	0x3d3a6754	0.045508698
233	0x3dc14835	0.094376005
234	0x3c9d6418	0.019212767
235	0x3ce23759	0.027614282
236	0xbdbd283e	-0.09236191
237	0x3d8ce80c	0.06880197
238	0x3d764e16	0.060133062
239	0x3b010a3c	0.0019689938
240	0xbcfdf548	-0.031000748
241	0x3c99dc78	0.018781886
242	0x3d5b26b2	0.0535037
243	0xbd3b668a	-0.045752086
244	0xbd8991dd	-0.06717274
245	0x3d0a2b29	0.033732567
246	0x3db14afc	0.0865688
247	0x3d39ed0e	0.04539209
248	0xbc974549	-0.018465655
249	0x3dc5c9bf	0.09657621
250	0xbd2ecd7a	-0.042676426
251	0x3dbf0161	0.09326435
252	0x3d9a6570	0.07538879
253	0xbd56ff17	-0.052489366
254	0xbd3a0a0b	-0.045419734
255	0xbd89223f	-0.06695985

weight f4 [32]
0	0x3f7a2476	0.97711885
1	0x3f7ac28d	0.9795311
2	0x3f79f866	0.9764465
3	0x3f7b12a1	0.980753
4	0x3f79bb05	0.97550994
5	0x3f77f2fe	0.9685515
6	0x3f790be9	0.972838
7	0x3f7914fb	0.9729764
8	0x3f7a512c	0.9778011
9	0x3f78e61f	0.97226137
10	0x3f7b4e4b	0.9816634
11	0x3f798e50	0.97482777
12	0x3f7d9cac	0.9906719
13	0x3f7a9ec5	0.97898513
14	0x3f7d61af	0.9897718
15	0x3f7c08cc	0.9845092
16	0x3f7c9856	0.98669946
17	0x3f786e07	0.9704289
18	0x3f7a0474	0.97663045
19	0x3f77733e	0.9666022
20	0x3f7a3667	0.9773926
21	0x3f78c074	0.9716866
22	0x3f7a21f7	0.97708076
23	0x3f7dbd6f	0.9911718
24	0x3f7966e8	0.9742265
25	0x3f7a23c6	0.97710836
26	0x3f779d6f	0.967246
27	0x3f79e0b6	0.97608507
28	0x3f7bf8d7	0.98426574
29	0x3f7a3ccc	0.9774902
30	0x3f7b8613	0.98251456
31	0x3f79d962	0.97597325

bias f4 [32]
0	0x3b904c99	0.0044036624
1	0x3bb9eb5f	0.0056738104
2	0x3bfc4bf2	0.007699483
3	0xba209192	-0.00061252073
4	0x3afe729c	0.0019412818
5	0xbb8c2cf1	-0.0042778184
6	0xbabbb0bd	-0.001431964
7	0xbbea77d0	-0.007155396
8	0xbbf2318d	-0.007391161
9	0xbada93e2	-0.0016676153
10	0xbafcc8b1	-0.0019285885
11	0xba0310dd	-0.0004999766
12	0x3bb384ba	0.0054784687
13	0xba8725b4	-0.0010310919
14	0x3c072822	0.0082493145
15	0x3b2d0fe2	0.0026407172
16	0xbb8cd429	-0.0042977524
17	0x3c02295d	0.007944432
18	0x3b186901	0.0023255947
19	0x3a77e62e	0.00094566017
20	0xbb668dd8	-0.003517976
21	0xbb4f1dce	-0.0031603458
22	0x3b76374f	0.0037569588
23	0xbc498878	-0.012300603
24	0xbbaba143	-0.0052377298
25	0x3ba409af	0.005006037
26	0x3a3fc6e7	0.00073157105
27	0x39b9e3f3	0.00035455785
28	0xbb5d9fcf	-0.0033817177
29	0xbbd041f8	-0.0063555203
30	0xbaddf5b4	-0.0016934187
31	0x3741cdbe	1.15515995e-05

running_mean f4 [32]
0	0x3d90ee37	0.07076686
1	0x3eafd625	0.34343067
2	0x3d16dd18	0.036831945
3	0x3e47d3d3	0.19514398
4	0xbdfbc7f6	-0.12293999
5	0x3e803eed	0.2504801
6	0x3e00565b	0.12532942
7	0x3cf8bbff	0.030363081
8	0xbe512620	-0.204247
9	0xbd328f51	-0.04359371
10	0xbc5249de	-0.012834994
11	0xbc92bc60	-0.01791209
12	0xbdae986e	-0.085251674
13	0xbf146e53	-0.5798084
14	0x3e657192	0.22406605
15	0x3e261adb	0.16221182
16	0x3e0d1764	0.13778454
17	0x3eaa0ba4	0.33212006
18	0x3b6c76f2	0.003608164
19	0x3eb0dc7b	0.34543213
20	0xbe9a949c	-0.30191505
21	0x3eb3999a	0.35078126
22	0xbdd276cf	-0.10276567
23	0x3def25ab	0.116771065
24	0xbc909bd3	-0.017652428
25	0xbe5c6e0a	-0.21526352
26	0x3d922c51	0.07137359
27	0xbded91f9	-0.11600108
28	0x3dbaf671	0.09129036
29	0xbdaa754b	-0.08323153
30	0xbe42dba1	-0.19029094
31	0x3dd010c6	0.10159449

running_var f4 [32]
0	0x3df0243c	0.11725661
1	0x3d13e02e	0.036102466
2	0x3cf8f919	0.030392217
3	0x3d992687	0.07478052
4	0x3d616c56	0.055034958
5	0x3d8dfd9e	0.06933139
6	0x3de6c2ce	0.11267625
7	0x3d726f63	0.059188258
8	0x3d0301ab	0.031984013
9	0x3dc92ddb	0.09823199
10	0x3c9e85f3	0.019350981
11	0x3e123c1f	0.14280747
12	0x3d6355d8	0.05550179
13	0x3dfa6e54	0.12228075
14	0x3d0a2356	0.033725105
15	0x3d01e9b5	0.03171702
16	0x3c9971bc	0.01873099
17	0x3d9f748e	0.07785903
18	0x3d72abde	0.059245937
19	0x3d77b022	0.060470708
20	0x3d25896e	0.040414266
21	0x3dbb59d1	0.091479905
22	0x3dcfb6da	0.10142298
23	0x3ceff48c	0.029291414
24	0x3de7dff9	0.11322016
25	0x3d289d10	0.04116541
26	0x3dc2c4ea	0.095102146
27	0x3daa9338	0.08328861
28	0x3d39a7fb	0.045326214
29	0x3dfd696c	0.12373623
30	0x3dc93ba7	0.09825831
31	0x3d22a6b7	0.039709773

weight f4 [32, 96, 1, 1]
0	0xbdbdf439	-0.092750974
1	0xbd30b0c0	-0.043137312
2	0xbc9cabf3	-0.01912496
3	0x3d507cd0	0.05090028
4	0xbca53620	-0.02016741
5	0x3d66b66c	0.056326315
6	0x3b694049	0.0035591295
7	0x3d4c6205	0.049898166
8	0xbd53deff	-0.051726338
9	0x3d93974a	0.072065905
10	0xbdc0e7f1	-0.09419239
11	0xbdac6d36	-0.08419268
12	0xbcf1042f	-0.02942094
13	0xbd678fc1	-0.05653358
14	0x3da0faa7	0.07860308
15	0x3ccbcb0b	0.024877092
16	0x3d30af7d	0.04313611
17	0xbdc31458	-0.09525365
18	0x3d0e956b	0.034810465
19	0xbd58ceba	-0.052931525
20	0x3d92e684	0.071728736
21	0xbc856352	-0.016282711
22	0xbca0b296	-0.019616406
23	0xbd74f711	-0.059805933
24	0x3d519608	0.05116847
25	0x3da78cad	0.08181129
26	0xbd69274a	-0.056922235
27	0x3da3f9b5	0.08006612
28	0xbd0baac3	-0.034098398
29	0xbd81c4b3	-0.063363455
30	0xbb721c7d	-0.003694325
31	0x3bd9592e	0.0066329455
32	0x3c85da4d	0.016339445
33	0xbd58bb74	-0.052913144
34	0xbd6a3091	-0.057175223
35	0xbc52a141	-0.012855829
36	0x3c2756e6	0.010213589
37	0x3d0398e7	0.03212824
38	0x3d958d74	0.07302371
39	0xbdbf365e	-0.093365416
40	0xbd9f6b8e	-0.07784186
41	0xbcc1e425	-0.023668358
42	0x3d4b5d9a	0.049649812
43	0xbd5775ed	-0.052602697
44	0xbd00edc4	-0.03147675
45	0xbda27034	-0.07931557
46	0x3da92c75	0.08260433
47	0x3d912669	0.07087404
48	0x3bea993d	0.0071593807
49	0xbc910cbe	-0.017706271
50	0x3d9ff329	0.07810051
51	0xbdb1a16d	-0.08673368
52	0xbdd148a1	-0.10218931
53	0x3d83775a	0.06419249
54	0xbd7ac614	-0.06122406
55	0x3d6ee8ce	0.05832749
56	0x3c977cfe	0.018492218
57	0x3d9d6cbd	0.07686756
58	0xbd0df4ae	-0.034657173
59	0xbd53446c	-0.051578924
60	0xbd9e6864	-0.07734755
61	0xbd8f50f0	-0.069978595
62	0xbcdba352	-0.026811276
63	0x3d9604f5	0.07325164
64	0x3c8d0565	0.017214486
65	0xbcbf1ea2	-0.023330037
66	0x3d7cf542	0.061757334
67	0xbc0fa728	-0.0087678805
68	0x3d96e9ac	0.07368788
69	0x3c46fe26	0.012145555
70	0x3bb069d9	0.005383712
71	0xbd03a5eb	-0.032140654
72	0x3dcd2845	0.100174464
73	0x3d3efc2d	0.046627212
74	0xbdba7fcf	-0.09106409
75	0x3da682e9	0.08130438
76	0xbccd0e1c	-0.025031142
77	0xbd5c7ad2	-0.053828068
78	0xbb1a5551	-0.0023549388
79	0xbd4f09dd	-0.050546516
80	0xbdb5bf55	-0.08874384
81	0x3d4ae91c	0.049538717
82	0x3db06203	0.08612444
83	0xbd0be0bc	-0.03414987
84	0x3d8e6c6b	0.06954273
85	0xbc63470b	-0.013871918
86	0x3d4884a7	0.048954632
87	0xbd711d1f	-0.058865663
88	0xbd53cac3	-0.05170704
89	0x3d7e5977	0.06209704
90	0x3ccf5ef1	0.025313826
91	0xbd2c026d	-0.0419945
92	0xbd24f07c	-0.040268406
93	0x3d5f3850	0.054497063
94	0xbd9e15da	-0.077190116
95	0xbdb29160	-0.08719134
96	0x3d3a14f6	0.045430146
97	0xbd376a02	-0.04477883
98	0x3bef6d0b	0.0073067
99	0xbdaed53a	-0.085367635
100	0xb99ffd9f	-0.00030515806
101	0xbd6825b3	-0.056676578
102	0x3dba64cd	0.091012575
103	0x3ce62499	0.028093623
104	0xbd22ab51	-0.03971416
105	0x3d024a5b	0.031809192
106	0x3db6af71	0.089201815
107	0xbd760efd	-0.060072888
108	0xbc76b7a8	-0.0150584355
109	0xbdc66451	-0.096871026
110	0xbbd38362	-0.006454871
111	0x3db2a1b0	0.08722246
112	0x3cddf75c	0.02709549
113	0xbce377d0	-0.027767092
114	0x3c9df71e	0.019282874
115	0x3d6984a4	0.05701126
116	0xbd05ec0f	-0.032695826
117	0x3ba92893	0.0051623075
118	0xbd961fe5	-0.07330302
119	0x3d4a0479	0.04932067
120	0xbd904bca	-0.070457056
121	0x3c27908d	0.010227335
122	0x3d967498	0.07346457
123	0xbd01553f	-0.031575438
124	0xbd01df18	-0.0317069
125	0x3d96c1e7	0.07361203
126	0x3cac1831	0.02100763
127	0xbdd7504b	-0.105133615
128	0x3db0a568	0.08625299
129	0x3c337f8b	0.010955702
130	0x3dcc0a75	0.09962932
131	0xbd4337a5	-0.04766049
132	0x3d7a2128	0.061066777
133	0xbd5c965b	-0.053854328
134	0x3d5e10b3	0.054215144
135	0xbd9ad19a	-0.075595096
136	0xbd82d53f	-0.0638833
137	0x3dafe5ff	0.0858879
138	0xbcace942	-0.02110732
139	0xbddf71a8	-0.1091035
140	0xbddbe8f2	-0.1073779
141	0x3c895e14	0.016768493
142	0xba893683	-0.0010468516
143	0x3d2d5f04	0.042326942
144	0x3d7a9927	0.061181214
145	0x3d8c1b9d	0.06841204
146	0x3d2d4ef7	0.042311635
147	0x3d91fe55	0.07128588
148	0xbd2bf91d	-0.04198562
149	0x3a9caf7e	0.0011954156
150	0x3ca17bea	0.019712407
151	0x3dc8aba1	0.097983606
152	0x3d73763f	0.05943894
153	0x3da6c5b8	0.081431806
154	0x3daeccbd	0.085351445
155	0xbc1d4458	-0.009598814
156	0x3cfe085e	0.03100985
157	0x3dc7c7b4	0.09754887
158	0xbd94c874	-0.07264796
159	0xbd149ddb	-0.036283355
160	0x3d36a83c	0.044594035
161	0xbd1b2cf7	-0.03788468
162	0xbd3172ae	-0.043322258
163	0x3d8b4226	0.06799726
164	0xbd85772c	-0.06516871
165	0x3d815e98	0.063168705
166	0x3db4139a	0.08792801
167	0x3b418c54	0.0029533105
168	0x3db60124	0.08886936
169	0xbc4573b4	-0.012051512
170	0x3ce4d5fd	0.027934069
171	0x3dc29ae2	0.09502198
172	0x3c39d441	0.011342109
173	0xbbe1dcdb	-0.006892783
174	0xbd9e4c54	-0.07729402
175	0xbd30e85b	-0.04319034
176	0xbd429798	-0.047507852
177	0xbc108dde	-0.008822886
178	0xbcd3630b	-0.025804063
179	0x3d45990f	0.04824167
180	0xbd91339f	-0.07089924
181	0xbcc16a95	-0.023610393
182	0x3c823187	0.015892757
183	0xbd4a5f25	-0.049407143
184	0x3da17729	0.07884056
185	0x3d32ceef	0.04365438
186	0x3d188f23	0.03724588
187	0x3dc9ee45	0.098598994
188	0x3d5e6590	0.054296076
189	0x3d3009e5	0.042978186
190	0x3d5e9e11	0.054349963
191	0xbd6502ec	-0.05591099
192	0xbd026255	-0.031832058
193	0x3c84d995	0.016217032
194	0xbda79bca	-0.08184011
195	0xbd1d724a	-0.038439073
196	0x3c064ff5	0.008197774
197	0x3d9cebfa	0.076621965
198	0xbce09428	-0.027414396
199	0xbd4a302d	-0.04936235
200	0x3d9a0ad4	0.075215966
201	0xbcc396ad	-0.023875559
202	0x3aa947dd	0.0012915094
203	0x3da51763	0.08061101
204	0xbda8fd0c	-0.0825139
205	0x3cb7c8c9	0.022434609
206	0x3dd3d73a	0.103437856
207	0x3d6d7585	0.057973403
208	0x3cc370c1	0.023857476
209	0xbce8c7ee	-0.028415646
210	0x3d5f1174	0.054460004
211	0x3d2788cb	0.04090194
212	0xbdb9eb7a	-0.09078117
213	0xbdc8d4e8	-0.09806234
214	0x3cbc4bd8	0.022985384
215	0x3c446bed	0.011988622
216	0xbbaf0575	-0.0053412267
217	0xbdadf579	-0.08494086
218	0x3db652d8	0.0890252
219	0x3d503250	0.05082923
220	0xbd39f9c2	-0.045404203
221	0xbd4fbada	-0.050715305
222	0xbdb2f2c2	-0.08737709
223	0x3cad830d	0.021180654
224	0x3dacf8a2	0.084458604
225	0xbd0403b3	-0.03223009
226	0x3ce55a7c	0.027997248
227	0x3d487716	0.048941694
228	0x3d87b5e1	0.066264875
229	0x3cca0816	0.024662059
230	0xbdb91947	-0.090380244
231	0xbd7f2e54	-0.06230004
232	0xbd0d9e9d	-0.034575094
233	0x3d138919	0.03601942
234	0xbd346a13	-0.044046473
235	0xbdbb1782	-0.09135343
236	0xbd97992a	-0.074022606
237	0xbd53658e	-0.051610522
238	0x3da0a31c	0.07843611
239	0xbcda662a	-0.026660044
240	0xbce9bddc	-0.028532915
241	0x3db80026	0.08984403
242	0x3c9c741a	0.01909833
243	0x3c3fb320	0.011700422
244	0x3d3beeae	0.04588192
245	0x3d132d82	0.03593207
246	0x3db1310c	0.08651933
247	0xbd39189c	-0.045189485
248	0xbd599505	-0.05312063
249	0xbdbc11b1	-0.09183062
250	0xbc9fcb39	-0.019506084
251	0x3d2d0ab4	0.042246535
252	0xbd541c51	-0.051784817
253	0x3c4348a3	0.011919173
254	0xbc490e2f	-0.012271448
255	0xbdb8a35e	-0.09015535

weight f4 [32]
0	0x3f7d01d1	0.98830897
1	0x3f806759	1.0031539
2	0x3f7e9444	0.99444985
3	0x3f7c8755	0.98644
4	0x3f79e133	0.9760925
5	0x3f8075dc	1.0035968
6	0x3f80aca3	1.0052685
7	0x3f7a72e7	0.9783158
8	0x3f852118	1.0400724
9	0x3f7c2a6c	0.9850223
10	0x3f82674c	1.0187774
11	0x3f7dbab9	0.9911304
12	0x3f7ded58	0.9919028
13	0x3f8257a7	1.0182999
14	0x3f83af75	1.028792
15	0x3f7eb339	0.9949222
16	0x3f78f1b5	0.97243816
17	0x3f829601	1.0202028
18	0x3f824047	1.0175866
19	0x3f7c74ad	0.98615533
20	0x3f82a258	1.0205793
21	0x3f72b5ff	0.94808954
22	0x3f7e1f0b	0.9926612
23	0x3f82f9ce	1.0232484
24	0x3f7c5a8a	0.9857565
25	0x3f81c202	1.0137331
26	0x3f81dcef	1.0145549
27	0x3f858a77	1.0432881
28	0x3f80d3e3	1.0064663
29	0x3f804e7a	1.0023949
30	0x3f862bbc	1.0482097
31	0x3f788f1c	0.9709337

bias f4 [32]
0	0x3cf55148	0.029945984
1	0x3c54e358	0.012993656
2	0x3c82e886	0.015980016
3	0xbbceff95	-0.006317089
4	0x3b0ee8e1	0.0021806287
5	0x3bdce339	0.0067409542
6	0x3cc42840	0.023944974
7	0x3b9cc6fa	0.004784462
8	0xbcaefe0c	-0.021361373
9	0x3c41d7ac	0.011831205
10	0xbc29a3f2	-0.010354029
11	0xbc25e7fb	-0.010126109
12	0x3bea4225	0.0071489983
13	0x3b50c067	0.0031852962
14	0xbb02e5e4	-0.0019973451
15	0x3abb5022	0.0014290849
16	0xbbb17fb9	-0.005416837
17	0x3cafc626	0.02145679
18	0xbac766b5	-0.0015213104
19	0x3bb32248	0.005466733
20	0xbb2454d8	-0.0025074985
21	0x3c02b807	0.007978446
22	0x3bfb60fb	0.007671473
23	0xbba2f837	-0.004973437
24	0xbbd3b1e4	-0.006460415
25	0x3c98f4d9	0.01867144
26	0xbb8d6362	-0.004314826
27	0xbb71d721	-0.0036901908
28	0xbb44f157	-0.0030051076
29	0xbcd56821	-0.02605063
30	0x3978971e	0.00023707419
31	0xbc3080c3	-0.010772887

running_mean f4 [32]
0	0xbe3070a2	-0.17230466
1	0x3e9baa49	0.30403355
2	0xbb9f886c	-0.0048685577
3	0xbd2a4bf9	-0.04157636
4	0x3e851d5e	0.25998968
5	0x3d184015	0.03717049
6	0xbe47f918	-0.19528615
7	0xbe1592a9	-0.14606728
8	0x3deecd0b	0.116602026
9	0xbdd2c87d	-0.10292146
10	0x3ba23aea	0.0049508708
11	0x3e747e4b	0.23876302
12	0x3e493706	0.19649896
13	0x3d5a2e55	0.053266842
14	0x3e49beb2	0.1970165
15	0x3c43a9d7	0.011942348
16	0x3d0aad5c	0.033856735
17	0xbdc60477	-0.0966882
18	0xbdb57682	-0.08860494
19	0xbe920c35	-0.28524938
20	0xbe22a51f	-0.15883301
21	0xbe4bcb5a	-0.19901791
22	0xbc905ca3	-0.017622298
23	0xbe477a6b	-0.19480292
24	0x3f02eac3	0.5113947
25	0xbdc18b70	-0.09450424
26	0xbd3afbc4	-0.04565026
27	0xbdc06506	-0.09394269
28	0x3e9145ac	0.28373468
29	0xbd92332b	-0.07138666
30	0xbc54204c	-0.012947153
31	0xbddbbace	-0.107289895

running_var f4 [32]
0	0x3c4fbc31	0.012679146
1	0x3d0dbe7c	0.03460549
2	0x3c902908	0.01759769
3	0x3d547380	0.051867962
4	0x3d14e11e	0.0363475
5	0x3cc2153d	0.023691768
6	0x3c92ffa3	0.017944163
7	0x3d4b1677	0.04958197
8	0x3c873287	0.016503586
9	0x3e9df2e1	0.30849364
10	0x3c675587	0.014119512
11	0x3d10aa0e	0.035318427
12	0x3cc7fbcf	0.024412064
13	0x3c324e37	0.010882906
14	0x3c6cc487	0.014451153
15	0x3cec8f0d	0.028876806
16	0x3cd78f11	0.026313337
17	0x3c3c7f2b	0.011504929
18	0x3d042c52	0.03226883
19	0x3cb17289	0.02166106
20	0x3cbcf1cf	0.023064522
21	0x3dfa9b39	0.122366376
22	0x3c7fc6e9	0.015611389
23	0x3c8b7040	0.017021298
24	0x3da85d51	0.08220924
25	0x3c8d3a65	0.017239759
26	0x3d0d2ca5	0.034466404
27	0x3c313773	0.010816443
28	0x3d3cc5cb	0.046087068
29	0x3d911ddc	0.07085773
30	0x3c52ade6	0.012858843
31	0x3e022ba3	0.12711959

weight f4 [96, 32, 1, 1]
0	0xbd1fe530	-0.03903693
1	0xbdb96fec	-0.090545505
2	0x3ca17f57	0.01971404
3	0xbbf71c60	-0.0075412244
4	0x3e1f0494	0.1552909
5	0x3e2cfb0d	0.16892643
6	0x3e2939d4	0.16525966
7	0x3d08a316	0.033358656
8	0xbe19ee67	-0.1503235
9	0xbe064042	-0.1311045
10	0x3dc1923b	0.094517194
11	0xbd4068c5	-0.046974916
12	0x3dcd4f2e	0.10024868
13	0x3d2628ca	0.040566243
14	0x3e04a46f	0.12953351
15	0xbdc272e9	-0.094945736
16	0xbb07dd0a	-0.0020731115
17	0xbe04f3b2	-0.12983587
18	0xbd2c0e73	-0.042005967
19	0xbdcc2640	-0.09968233
20	0xbd168c42	-0.036754854
21	0x3c9307a0	0.017947972
22	0x3de5b6f6	0.11216538
23	0xbdc208d1	-0.09474338
24	0x3db670f0	0.0890826
25	0xbc361501	-0.011113406
26	0x3cb7f926	0.02245767
27	0x3d16a513	0.03677852
28	0x3e1c4c2b	0.15263431
29	0x3dde9197	0.10867613
30	0xbd933d65	-0.071894445
31	0x3c8cbe94	0.017180718
32	0x3e241c2f	0.16026376
33	0x3e171d3c	0.14757246
34	0xbd22b876	-0.039726697
35	0x3cbb9d73	0.022902226
36	0x3e2c1625	0.16805322
37	0x3e151af3	0.14561062
38	0x3e1abf18	0.15111959
39	0x3c82fb40	0.015988946
40	0xbdaa9762	-0.08329655
41	0x3ddecb4f	0.10878622
42	0x3e302eed	0.17205401
43	0x3ddcff9a	0.1079094
44	0x3dc6ce4e	0.09707318
45	0xbe0862f4	-0.13318998
46	0xbdf6be89	-0.120480604
47	0x3df390f1	0.1189288
48	0xbc8e8b54	-0.017400421
49	0xbd7ccb2e	-0.061717205
50	0x3e113a1f	0.14182328
51	0x3db0b6ce	0.08628617
52	0xbe20ed0f	-0.1571543
53	0x3e18ed84	0.14934355
54	0x3df505ce	0.11963998
55	0x3e29a6ab	0.16567485
56	0xbd706ad6	-0.058695637
57	0xbe0b59aa	-0.13608423
58	0x3e1fe72b	0.15615527
59	0x3e129590	0.14314866
60	0xbc592960	-0.0132544935
61	0x3e2b5886	0.16732988
62	0x3ba649f9	0.005074736
63	0x3d1d5829	0.038414154
64	0xbc9f12f0	-0.01941821
65	0x3badbb97	0.0053019035
66	0xbe143cea	-0.14476362
67	0x3e08e6b7	0.1336926
68	0xbdacd780	-0.08439541
69	0x3e20bdf9	0.15697469
70	0xbe062066	-0.13098297
71	0xbdb73f01	-0.08947564
72	0xbd86bacd	-0.06578598
73	0xbd9d8c02	-0.0769272
74	0xbcd96e3a	-0.026541818
75	0x3de05964	0.1095455
76	0xbe235058	-0.15948617
77	0xbe1b799f	-0.15183114
78	0x3ad7d00b	0.00164652
79	0x3c38161b	0.011235739
80	0xbcee4aa9	-0.029088335
81	0xbe0c32df	-0.13691281
82	0xbdb443e4	-0.088020116
83	0xbbe9dcc7	-0.0071369144
84	0x3c05e067	0.0081711775
85	0xbdf6df2a	-0.12054284
86	0x3c83dbe4	0.016096063
87	0x3e270bd6	0.16313109
88	0xbc20ff19	-0.009826445
89	0x3e2b3b45	0.16721828
90	0x3e125d83	0.14293484
91	0xbe0449da	-0.12918797
92	0xbc893fc4	-0.016754039
93	0x3df74412	0.1207353
94	0x3dd7535a	0.10513945
95	0xbdf34f2a	-0.11880334
96	0x3daaee43	0.08346226
97	0x3cfb8346	0.030702244
98	0xbb8a3aa3	-0.004218416
99	0xbd8c4205	-0.0684853
100	0xbe267716	-0.16256365
101	0x3cf0e037	0.029403789
102	0xbe02c320	-0.12769747
103	0x3daee437	0.08539622
104	0x3d571c40	0.052517176
105	0xbd1adb55	-0.037806828
106	0xbddbffcc	-0.10742149
107	0x3e1f0384	0.15528685
108	0x3e267526	0.16255626
109	0xbdf26b34	-0.118368536
110	0xbbd8e912	-0.006619581
111	0x3d2e89bb	0.04261182
112	0xbdf4d7df	-0.11955237
113	0xbdf40ff0	-0.11917102
114	0xbcfdce83	-0.030982262
115	0xbdd077cd	-0.101791
116	0x3e3515e4	0.17684132
117	0xbe0dd2f0	-0.13849998
118	0x3d7f8d98	0.062390894
119	0x3ddd52a3	0.10806777
120	0xbe0e4a75	-0.1389559
121	0x3c4c2cd6	0.012461862
122	0x3d3be2b3	0.045870494
123	0xbd2b6d63	-0.041852366
124	0xbe14a1d4	-0.14514858
125	0x3e11af96	0.14227137
126	0x3dfea5d7	0.12433975
127	0xbdf68639	-0.1203732
128	0x3e0c3901	0.1369362
129	0x3e0d3075	0.13788016
130	0xbe0ce280	-0.13758278
131	0x3d3c8a83	0.046030533
132	0xbe2a4ec1	-0.16631605
133	0xbdb01821	-0.08598352
134	0xbdd73c4d	-0.10509548
135	0xbb0e1c22	-0.002168425
136	0xbbf809b6	-0.007569517
137	0xbd7e7873	-0.062126588
138	0xbe32c01e	-0.174561
139	0xbda1208a	-0.078675345
140	0x3cd221f1	0.02565095
141	0x3d95489d	0.072892405
142	0xbd012086	-0.031525157
143	0xbe1f5228	-0.15558684
144	0xbdedd898	-0.116135776
145	0x3d810c86	0.06301217
146	0x3bf3b41e	0.007437243
147	0xbc1d4dbc	-0.009601053
148	0xbd40b6fa	-0.0470495
149	0x3e132ef7	0.14373384
150	0xbe051011	-0.1299441
151	0xbd04024d	-0.032228757
152	0xbe102aab	-0.14078777
153	0xbe139086	-0.144106
154	0x3d0d19b5	0.034448344
155	0x3d049bd3	0.032375168
156	0x3e1573b1	0.14594914
157	0xbd024eab	-0.031813305
158	0x3d7afe48	0.061277658
159	0x3e291d0d	0.16514988
160	0xbd316022	-0.04330457
161	0x3ca7456d	0.020418847
162	0x3e07a4b2	0.1324642
163	0xbdefd21f	-0.11709999
164	0xbda1ceef	-0.079007976
165	0x3d05586a	0.03255502
166	0x3da9ea39	0.082966276
167	0x3ab8279d	0.0014049892
168	0xbce7e17e	-0.028305765
169	0x3dde14db	0.108438216
170	0xbcad8972	-0.021183703
171	0xbca19ca9	-0.019728022
172	0x3d429faf	0.047515567
173	0xbe3021ac	-0.17200345
174	0x3e13c965	0.14432295
175	0x3bf62401	0.007511616
176	0x3c937704	0.018001087
177	0xbc2249ff	-0.009905337
178	0xbdb28af0	-0.087179065
179	0xbdeaa6b7	-0.114575796
180	0xbe18c149	-0.14917482
181	0x3e1c93bb	0.1529073
182	0x3be6547c	0.0070291143
183	0xbd31f4e9	-0.043446455
184	0xbd86ba6d	-0.06578527
185	0xbe07771b	-0.13229029
186	0x3e0fbc0e	0.14036581
187	0x3d8e44d5	0.069467224
188	0x3d8fb2fc	0.070165604
189	0xbc87ec95	-0.016592303
190	0xbd8e6fef	-0.069549434
191	0xbd54606f	-0.05184978
192	0xbe0f779b	-0.1401047
193	0x3e085afb	0.13315956
194	0x3e069404	0.13142401
195	0x3cd5c86f	0.02609655
196	0x3e2c8e1c	0.16851085
197	0xbd849516	-0.064737484
198	0x3dccf439	0.10007519
199	0x3dd399c9	0.103320666
200	0x3c50ea64	0.012751196
201	0xbd2ce974	-0.042214826
202	0x3d36f822	0.04467023
203	0x3e1ba5e0	0.15199995
204	0xbd04b838	-0.032402247
205	0x3e2fdfae	0.17175171
206	0xbd066678	-0.032812566
207	0xbcc45422	-0.023965899
208	0x3deb5c0b	0.11492165
209	0xbe098dd0	-0.13433003
210	0xbd359414	-0.04433067
211	0xbe1d15de	-0.15340373
212	0xbdb5452a	-0.088510826
213	0x3d080a16	0.033212744
214	0xbc132cf3	-0.008982885
215	0x3de75680	0.112957954
216	0xbd847097	-0.06466787
217	0xbbbee00a	-0.0058250474
218	0x3e2c8a2b	0.16849582
219	0x3c03f3f5	0.008053769
220	0x3e25ee9c	0.16204304
221	0x3e1eaaa9	0.15494789
222	0x3d68fb67	0.05688038
223	0xbd7f5265	-0.062334437
224	0x3d015af5	0.031580884
225	0x3e146c88	0.14494526
226	0xbe19c59e	-0.15016791
227	0x3c0116f2	0.007879006
228	0xbdc9e61b	-0.09858342
229	0xbc9f3afe	-0.01943731
230	0x3d9c7a79	0.07640547
231	0x3c59e5f1	0.013299451
232	0xbdcf604d	-0.1012579
233	0xbcf60fd9	-0.030036854
234	0xbe09cf5f	-0.13458012
235	0x3d05bc79	0.032650445
236	0xbdcab9f4	-0.09898749
237	0x3e240b68	0.16019976
238	0x3c9be7ab	0.019031366
239	0xbca8227d	-0.020524258
240	0x3e169080	0.1470356
241	0x3c635a3d	0.013876495
242	0xbe2524a4	-0.16127259
243	0x3ddb1c48	0.106987536
244	0x3e1b3b55	0.15159352
245	0xbcbc39bd	-0.02297675
246	0xbd49588e	-0.049156718
247	0x3e00b897	0.12570415
248	0x3e2e2124	0.1700483
249	0x3e0209f2	0.12699106
250	0x3aafbd72	0.00134079
251	0x3d8192c2	0.0632682
252	0xbc768165	-0.0150454985
253	0xbd9bcdd0	-0.07607615
254	0x3d24397d	0.040093888
255	0xbd42f924	-0.04760088

weight f4 [96]
0	0x3f78de8c	0.9721458
1	0x3f78de8f	0.972146
2	0x3f78de95	0.97214633
3	0x3f78de97	0.97214645
4	0x3f78de8b	0.97214574
5	0x3f78de84	0.9721453
6	0x3f78de8f	0.972146
7	0x3f78de8e	0.9721459
8	0x3f78de52	0.97214234
9	0x3f78de98	0.9721465
10	0x3f78de8a	0.9721457
11	0x3f78de8c	0.9721458
12	0x3f78dea1	0.97214705
13	0x3f78de81	0.97214514
14	0x3f78de8f	0.972146
15	0x3f78de8c	0.9721458
16	0x3f78de8f	0.972146
17	0x3f78de92	0.97214615
18	0x3f78de7f	0.972145
19	0x3f78de84	0.9721453
20	0x3f78de83	0.97214526
21	0x3f78de96	0.9721464
22	0x3f78de98	0.9721465
23	0x3f78de8f	0.972146
24	0x3f78de93	0.9721462
25	0x3f78de90	0.97214603
26	0x3f78de9f	0.9721469
27	0x3f78de8c	0.9721458
28	0x3f78de94	0.9721463
29	0x3f78de99	0.9721466
30	0x3f78de83	0.97214526
31	0x3f78de84	0.9721453
32	0x3f78de92	0.97214615
33	0x3f78de97	0.97214645
34	0x3f78de88	0.97214556
35	0x3f78de86	0.97214544
36	0x3f78de89	0.9721456
37	0x3f78de8d	0.97214586
38	0x3f78de90	0.97214603
39	0x3f78de8c	0.9721458
40	0x3f78de86	0.97214544
41	0x3f78de89	0.9721456
42	0x3f78de90	0.97214603
43	0x3f78de95	0.97214633
44	0x3f78de92	0.97214615
45	0x3f78de8e	0.9721459
46	0x3f78de72	0.97214425
47	0x3f78de98	0.9721465
48	0x3f78de87	0.9721455
49	0x3f78de8d	0.97214586
50	0x3f78de59	0.97214276
51	0x3f78de17	0.9721388
52	0x3f78de89	0.9721456
53	0x3f78de94	0.9721463
54	0x3f78dea3	0.97214717
55	0x3f78de98	0.9721465
56	0x3f78de97	0.97214645
57	0x3f78de96	0.9721464
58	0x3f78de79	0.97214466
59	0x3f78de88	0.97214556
60	0x3f78de89	0.9721456
61	0x3f78de86	0.97214544
62	0x3f78de92	0.97214615
63	0x3f78de96	0.9721464
64	0x3f78de83	0.97214526
65	0x3f78de83	0.97214526
66	0x3f78de8d	0.97214586
67	0x3f78de8b	0.97214574
68	0x3f78de9a	0.97214663
69	0x3f78de8f	0.972146
70	0x3f78de94	0.9721463
71	0x3f78de94	0.9721463
72	0x3f78de97	0.97214645
73	0x3f78de94	0.9721463
74	0x3f78de97	0.97214645
75	0x3f78de91	0.9721461
76	0x3f78de6a	0.97214377
77	0x3f78de86	0.97214544
78	0x3f78de8b	0.97214574
79	0x3f78de78	0.9721446
80	0x3f78dea8	0.97214746
81	0x3f78de81	0.97214514
82	0x3f78de45	0.97214156
83	0x3f78de47	0.9721417
84	0x3f78de8a	0.9721457
85	0x3f78de8d	0.97214586
86	0x3f78de92	0.97214615
87	0x3f78de83	0.97214526
88	0x3f78de97	0.97214645
89	0x3f78de98	0.9721465
90	0x3f78de91	0.9721461
91	0x3f78de93	0.9721462
92	0x3f78de86	0.97214544
93	0x3f78de73	0.9721443
94	0x3f78de85	0.9721454
95	0x3f78de97	0.97214645

bias f4 [96]
0	0xba1925cd	-0.00058421196
1	0xba1969cb	-0.0005852251
2	0x37e8a466	2.773311e-05
3	0x3a2e4ca9	0.00066489965
4	0x3a8510f0	0.0010152142
5	0x39d8fb38	0.00041385903
6	0x3a3aa90d	0.00071205274
7	0xb661c9ac	-3.3645001e-06
8	0xbb558547	-0.003258066
9	0xba0c83ed	-0.00053602346
10	0x3aa0fb5f	0.0012281946
11	0xbaa8a53e	-0.0012866629
12	0xbb09d60e	-0.0021032128
13	0x3a1c5b8c	0.0005964569
14	0x39953280	0.0002845712
15	0x3ad9b5cf	0.0016609969
16	0x39dc6600	0.00042037666
17	0x39e1012a	0.00042916212
18	0x3b0178bf	0.0019755808
19	0x3a370d06	0.00069828366
20	0xbac5ce12	-0.0015091321
21	0x39fbdfbc	0.00048041146
22	0x38f5372e	0.000116927884
23	0xb9c55dac	-0.0003764456
24	0x3a2f3040	0.000668291
25	0xb8b4f5f0	-8.628878e-05
26	0xb9dc0924	-0.0004196848
27	0x3a47bca0	0.0007619355
28	0xb88e3b12	-6.78209e-05
29	0x38af471e	8.357897e-05
30	0xbaea1ba4	-0.0017861021
31	0xbae31cf3	-0.0017327353
32	0x393a874e	0.00017788747
33	0x399a9269	0.00029482253
34	0x3a678edc	0.00088332384
35	0x3afa5a45	0.0019100389
36	0xba8efcc4	-0.001090907
37	0x3ad6996b	0.0016372626
38	0xb7c56dd9	-2.3535382e-05
39	0xbad7aa29	-0.001645391
40	0xbaaefa53	-0.0013349749
41	0xba8854d2	-0.0010401255
42	0x399ff428	0.00030508754
43	0xba1233bc	-0.0005577167
44	0x3a826261	0.0009947532
45	0xb9e86f23	-0.00044333292
46	0xbb23b4e2	-0.002497964
47	0xb900379b	-0.00012227746
48	0xbaac7161	-0.0013156348
49	0xbaa295ca	-0.001240426
50	0x3b4e6fbc	0.0031499704
51	0xbba7a7c5	-0.0051164352
52	0xbb06f0f6	-0.0020590401
53	0x39117798	0.0001387283
54	0x3a1dbafd	0.0006016938
55	0x39dd075b	0.00042157885
56	0x39fba7b9	0.00047999414
57	0x3a9dc07d	0.0012035515
58	0xbb0d1d78	-0.0021532457
59	0x3a175241	0.00057724497
60	0xb9247b51	-0.00015686198
61	0x39a9a703	0.00032358625
62	0xba4a96db	-0.00077281677
63	0xb9278f12	-0.00015979659
64	0xbaf02e69	-0.0018324378
65	0x3a7c2b0e	0.0009619453
66	0x39cea85a	0.00039416814
67	0xba2305b6	-0.00062188075
68	0xb9af3bbd	-0.0003342311
69	0xba290325	-0.0006447307
70	0x37a1e0b5	1.9297333e-05
71	0xb9e58e20	-0.00043784175
72	0xba31f04c	-0.0006787821
73	0xb98c39b2	-0.00026745867
74	0xb917d1a0	-0.00014478574
75	0x39244e3f	0.00015669408
76	0x3b348746	0.002754645
77	0x3a01a5d0	0.00049456675
78	0xbac9b390	-0.0015388597
79	0xbb1b5a9c	-0.002370513
80	0x392f8972	0.00016740503
81	0x3afd5c0a	0.0019329798
82	0x3b6b9c0c	0.0035951165
83	0xbb545163	-0.0032397143
84	0xbaeb51b0	-0.0017953422
85	0x3a2f450b	0.00066860084
86	0x3982e9a2	0.00024969602
87	0xbaada153	-0.0013246931
88	0xb9f94004	-0.00047540676
89	0x39e5db78	0.000438418
90	0xbad1b0bd	-0.0015998107
91	0x39ef129f	0.00045599506
92	0x3a858487	0.0010186591
93	0xbb18b57a	-0.0023301528
94	0xbad3ded3	-0.0016164429
95	0x3a4890ec	0.00076509896
