cnn/models/houston/houston3pmodel06-16-13-26-06_0-9446180555555556.pkl (torch, 979001 bytes, 131 tensors)

weight f4 [96, 144, 3, 3]
00000000: 96d9 f1bb 8145 af3b bda8 f5bc 575c dfbc
00000010: d46e 9ebc 3428 83ba ba59 f0bb 7764 553c
00000020: 881f 0cbc 533a 1ebb 0510 9ebc b4d5 75bc
00000030: 6bb1 0ebd f3cc ebbc e167 abbc 3b07 e3bb
00000040: 9d90 9c3a 46f7 063c 0666 e0bc c43a bdbc
00000050: b8de cd39 751a 553c a406 8abc 860b 2e3c
00000060: 6d6e 39bc 2cab bfbb 74ef 8c3c c49b 12bd
00000070: 9f15 f7bc f96f 91bc bd69 b1bc d1e5 1f3c
00000080: e15e e6bc d985 a6bc 518b eabc 8302 0abd
00000090: e70f dcbc 76dc 113c 7873 1b3a 5713 993a
000000a0: 29e2 57bc dab6 c7bc 669a 4dbb c2d5 0ebd
000000b0: 10f7 e6bc 568b bcbc aff4 943b cb2c d33b
000000c0: b06b b7bc 5fb6 5fbc ced2 013c c59e a83c
000000d0: 0230 0b3b 4e3b 5abb db32 013c bd9e f4bc
000000e0: 7233 bcbb b372 04bd 8203 07bd e328 c1bc
000000f0: 89d8 c53b 99d3 003b e3d2 bfbc 4188 b2ba
00000100: 6f31 c83a c6b0 58bc 7f0f 33bc 2e1a 12bc
00000110: d1cf d73b 0bc7 a53c 493e eebc fb2e 8dbc
00000120: 851b eb3b 516e 6e3c 2622 9f3c 55ed 853c
00000130: bc75 8ebb 11a1 d8bc c07b a73b aa48 8ebc
00000140: e15e d2bc d2f4 b13c 0ccd 673c 2aee edbc
00000150: dc6f feba bf3f 58bc 864c c8bb f3e6 eebb
00000160: 8b7e 493c 9cb7 78bc fe1e 223c 59f6 203c
00000170: 339f a33c 887b 943b f237 0bbd 5322 91bc
00000180: 14b5 ac3c 67cf 1d3c c36d 9bbc 7608 45bc
00000190: e688 d23c aa27 b93c c063 7cbc f415 37bc
000001a0: 358b b9bc d2b2 2a3c f7d5 51bc 1e4c 86bc
000001b0: adca 5b3b 0265 ba3b 2382 a7bb 4003 563c
000001c0: 8ec7 a4bc 27e3 e73c a37d fe3c cc0f 5dbc
000001d0: cd90 97ba 5ea6 983b 2dd6 a13b 2798 3a3c
000001e0: 885d d43b 0348 28bb 0324 27bc 21c6 c93c
000001f0: 8310 8fbc f596 38bc acb7 debb 10ed 82bc
00000200: e3c1 f3bb 09dd ecbc d32e 6abc 9a4b 973b
00000210: a205 16bc 22ba 163b 71c0 a13c f4b8 93ba
00000220: 5330 82b9 3d98 cd3a 6c9b 88ba 2ed1 1b3c
00000230: 3c7b d23c 18eb e13c a3cc 003d 7ac8 9fb9
00000240: 7c6a b7bc 2eb3 5fbc 53eb b73c 97bd 03bc
00000250: c224 b4bc 62d6 a5bc 90b2 69bc 1912 84bc
00000260: 2985 72bb 3da5 8b3c 2731 653c 2d59 acbc
00000270: 4603 0d3c 80e3 edbc 0e70 91bb 9843 073b
00000280: 7fc6 603b 3f6b 27bb 1a00 c3bc f2b0 d0bc
00000290: af98 0cba 6496 2abc 5f30 bdbc b21d 193c
000002a0: c212 4fbc 89b6 a83b e1bf ca3c 29be 43bc
000002b0: 0f4c ab3c 42c3 4b3c 8f4f 16bd 284f 7f3b
000002c0: 7931 b6bb d982 c6ba 131f df3c 174f b6bc
000002d0: ebca 1e3b a12e 07bc fa96 b83c 0019 8fbb
000002e0: e5a9 183a 95ae 023c bb76 963b ff50 1d3a
000002f0: 5197 b7bc eb05 6b3c 07ab 9d3c 4557 b63c
00000300: 81e6 00bd 94d6 3ebc 6565 a6bc f51e 5ebb
00000310: 60ce 16bc 6b7b 133c 72ad 94bc be1d a7bb
00000320: 9300 3b3b ca61 573b 9e88 0fbd e8c4 b4bc
00000330: 329b cebb c2ca ba3c 20ea 45bc ff8e 943c
00000340: 57ee 643b dc22 703b 611e 83bc 5ebf b2bc
00000350: d511 f9ba 4ac5 b13a b20f 0a3b e7ac 24ba
00000360: 2f52 d5bc 7304 a9bc e470 b13c 16e4 1dbd
00000370: b9e9 9ebc 7557 a73c fce6 813c 8b0a d13a
00000380: 1d80 e9bc ab68 183c 7b59 c6bc 7a1b d4bb
00000390: 9a03 c9bc bfc3 a1bc ff70 95bb d69d f63c
000003a0: 7fca c13b 168c a53c b396 263c ea43 c5bc
000003b0: 45c9 2d3c 6788 12bd d32b ecbc f85a 813a
000003c0: 05db 5c3c 43cf a43c 046c 75bc 6df4 dabb
000003d0: 1d6c c33b b7b1 e0bc 6785 063b b652 24bd
000003e0: c512 ddbb 03bf 03b9 0038 6abc 17ce 34bb
000003f0: 1e95 773c e236 85bc 314a 91bc f732 e5bc
-0.0073806746 0.0053488617 -0.029987687 -0.02726571 -0.019339956 -0.0010006488 -0.007334915 0.013024441
-0.0085524395 -0.002414365 -0.019294748 -0.015004564 -0.034837168 -0.02878425 -0.020923557 -0.006928352
0.0011944954 0.0082376655 -0.027392399 -0.02309931 0.00039266585 0.013006796 -0.01684887 0.010622865
-0.011317831 -0.0058492627 0.017204024 -0.03579308 -0.030161677 -0.017753588 -0.021656865 0.009759382
-0.028121414 -0.020327495 -0.028630884 -0.0336938 -0.026863052 0.00890266 0.0005929987 0.0011678737
-0.013176479 -0.024379183 -0.0031372546 -0.034871824 -0.02819398 -0.02301566 0.00454577 0.0064445487
-0.022390217 -0.0136543205 0.007923795 0.02058352 0.0021238332 -0.0033299509 0.00788566 -0.029860849
-0.0057434374 -0.03233595 -0.03296233 -0.023579067 0.006037776 0.0019657372 -0.023415988 -0.0013620929
0.0015273521 -0.01322574 -0.0109289875 -0.008917375 0.006586053 0.020236513 -0.029082434 -0.017234316
0.0071749114 0.014552669 0.019425463 0.01634852 -0.004347531 -0.02644399 0.0051111877 -0.017368633
-0.025680007 0.021723185 0.014148008 -0.02904423 -0.0019411999 -0.013198792 -0.006112638 -0.007290715
0.012298237 -0.015180495 0.009895084 0.009824359 0.019973373 0.0045313276 -0.0339889 -0.017716562
0.021082439 0.009631968 -0.018973237 -0.012025943 0.025700044 0.022601921 -0.015404642 -0.011174668
-0.022649387 0.010418611 -0.012807361 -0.016393717 0.0033537552 0.0056883106 -0.005111949 0.013062298
-0.020114686 0.028306557 0.031065768 -0.013492536 -0.001156354 0.0046585044 0.004938862 0.011388815
0.0064808764 -0.0025677688 -0.010201457 0.024630608 -0.017463928 -0.01126646 -0.0067967977 -0.01598218
-0.0074388846 -0.028913992 -0.01429339 0.0046171667 -0.009156616 0.0022999127 0.019745084 -0.001127033
-0.00024831537 0.0015685629 -0.0010422296 0.009510322 0.025693528 0.027577922 0.031445157 -0.0003047621
-0.022389643 -0.01365356 0.022451079 -0.008040807 -0.021990184 -0.020243827 -0.014263764 -0.01612191
-0.003700564 0.017046565 0.01398877 -0.021038616 0.0086067375 -0.029039145 -0.004438407 0.0020639654
0.0034298 -0.0025546101 -0.02380376 -0.025475 -0.0005363328 -0.0104118325 -0.023094354 0.009345459
-0.01263875 0.005148713 0.024749698 -0.011947193 0.020910291 0.01243669 -0.036696967 0.0038957093
-0.005560097 -0.0015145197 0.027236497 -0.02225451 0.0024229835 -0.008250863 0.022532929 -0.004366994
0.0005823656 0.007976194 0.0045917905 0.0006001144 -0.02241102 0.014344673 0.019246591 0.02225841
-0.031469826 -0.011647839 -0.02031202 -0.0033892964 -0.009204477 0.009001593 -0.018149111 -0.005099981
0.0028534278 0.0032864683 -0.035042398 -0.022066548 -0.006305122 0.02280176 -0.0120797455 0.018134592
0.00349321 0.0036641872 -0.016005697 -0.021819767 -0.0019002507 0.0013562825 0.0021066484 -0.0006281868
-0.026040165 -0.020632004 0.021660276 -0.038547598 -0.019398557 0.020427445 0.015857212 0.0015948577
-0.028503472 0.009302299 -0.02421259 -0.006473002 -0.02453785 -0.01974666 -0.0045605893 0.030104559
0.005914032 0.0202084 0.010167765 -0.024080236 0.010607068 -0.035774615 -0.02882949 0.000986903
0.013479953 0.020118361 -0.014979366 -0.00668197 0.005963816 -0.027428491 0.0020526291 -0.04011794
-0.0067466223 -0.00012564291 -0.014295578 -0.002758866 0.015111236 -0.016261522 -0.017735573 -0.027978403

weight f4 [96]
00000000: 45b7 793f 76f3 753f 276f 773f d509 783f
00000010: 0583 763f c875 763f 048d 783f 82e2 753f
00000020: 5256 773f 2f44 783f 0e4e 773f fe43 763f
00000030: b22c 753f c3f3 753f f84e 773f c643 783f
00000040: 7d2f 783f b901 763f a8c6 753f 9e0e 793f
00000050: a42f 793f 7d61 783f 96b3 783f 26f1 7a3f
00000060: 7ed9 773f 0d80 783f 3499 773f 7e30 793f
00000070: 03b3 783f c124 763f f87e 793f 0bfa 793f
00000080: 8683 773f 2edd 7a3f 096d 773f 63f8 743f
00000090: 97d9 773f 8154 783f b65b 773f 7c48 773f
000000a0: 1472 783f 298f 7a3f ee29 783f ad62 773f
000000b0: e890 773f 5f4f 773f d470 753f fa2c 783f
000000c0: 076e 763f 918c 793f 6634 783f 3e7a 7a3f
000000d0: b77f 763f e854 773f 8a2f 763f 2aa4 793f
000000e0: f30a 743f 492f 793f c3fd 763f ad5e 793f
000000f0: 741c 7b3f 075c 763f 2b11 773f 90a0 773f
00000100: 2c70 7a3f 4f2a 783f c9b7 743f 72eb 773f
00000110: 1164 773f 43d5 773f bd6b 793f 65a6 763f
00000120: 06fc 783f fe56 783f d2f7 783f 6f5c 783f
00000130: ebe2 753f 9b02 783f dcb4 753f 1388 793f
00000140: e325 783f 2d57 773f 0ab8 763f f385 783f
00000150: b08c 7a3f 4d6c 753f cf8e 763f 4739 763f
00000160: 51ce 743f 3a09 783f 42ea 773f 43cd 763f
00000170: add9 773f e0d7 773f 8751 773f 2143 763f
0.9754527 0.96074617 0.9665398 0.9689 0.9629367 0.9627347 0.9709017 0.9604875
0.9661609 0.9697904 0.96603477 0.961975 0.95771325 0.96075076 0.9660487 0.96978414
0.9694746 0.9609638 0.9600625 0.9728793 0.9733832 0.97023755 0.97149026 0.98024213
0.9681624 0.9707039 0.96718144 0.9733962 0.9714815 0.9614983 0.97459364 0.9764716
0.96685064 0.97993743 0.9665075 0.9569151 0.9681639 0.9700394 0.96624315 0.9659498
0.9704907 0.97874695 0.9693898 0.9663494 0.96705484 0.96605486 0.9587529 0.9694363
0.9626164 0.9748011 0.96954954 0.97842777 0.9628863 0.9661393 0.9616629 0.9751612
0.9532921 0.97337776 0.9648096 0.9741009 0.9809029 0.9623417 0.9651057 0.96729374
0.9782741 0.9693956 0.95592934 0.96843636 0.96637064 0.96809787 0.9743002 0.9634765
0.9725956 0.9700774 0.97253144 0.9701604 0.96049374 0.96878976 0.95979095 0.9747326
0.9693281 0.96617395 0.9637457 0.9707939 0.9787092 0.9586838 0.9631166 0.9618115
0.95627314 0.9688908 0.96841824 0.96406955 0.9681652 0.96813774 0.96608776 0.9619618

bias f4 [96]
00000000: 440f 47ba 4b15 493c 2337 0fbc f0bb a6bb
00000010: 5a1d fdb9 f206 dfba 9744 ac3b 4af3 07bc
00000020: 4129 973b be5d 2db8 c628 ff3b 8db9 75bb
00000030: 9e35 323c 406a 1abc f446 28bb 2758 42bc
00000040: 9179 433b c07e 363c 9a6e 22bc 3601 0e3a
00000050: 7ea8 e9bc b19b 123b ac07 ceba ec06 f4bb
00000060: 988a 08bc c75f b33b 0bea d4bb c1c0 dcbb
00000070: 41c5 d53b 3655 acbb a193 193c b201 91ba
00000080: 3355 c8bb b63b ff3a 6123 19bc f451 32bb
00000090: 901c 66bc 2b36 a3ba 8bd9 b7bb d5dc e53a
000000a0: 1a8b 573a 03fe bbbb b491 abbc bb17 d83b
000000b0: 9609 0abd 68bc 88bc 6f7b 0fbc c65c f1ba
000000c0: 0b06 c3bb 4c5b a4bc ea38 1ebb 17aa e2bb
000000d0: 8bc2 3ebc 74ad 3dbb 0410 4ebc 34fc d53b
000000e0: eed4 1d3c d7c4 55bb 8d3c 033b 1c01 20bc
000000f0: 7c68 10bc 447c 29bc 5139 47bc eac9 e2bb
00000100: 4dad 06bc f2a2 8ebb 5c22 7d3b 2ca3 923c
00000110: c8e9 02bc 85e8 d2bc 3c1f 3bbc 4836 dc3b
00000120: 98b2 b23a b2fa 4bbb aa83 05bc 695c 80bb
00000130: 0ef2 80bc 5a85 54bb 52de 8b3b 4d7c c03b
00000140: 7872 3c3c a384 f7bb acd4 c2bc f08e 1fbc
00000150: 3eba 033c c096 41bc 062c e0bc 7abb 8abc
00000160: 2063 143c a213 2cbc 9f3c 863a c644 4c3a
00000170: d01a 16bc eb51 da3b b3ac 87bc 6b2c 363c
-0.00075935223 0.012273143 -0.008741173 -0.005088322 -0.0004827779 -0.001701562 0.0052572 -0.008297751
0.004613072 -4.133372e-05 0.007786843 -0.003749463 0.010877041 -0.009424746 -0.0025677057 -0.0118618375
0.0029827098 0.011138618 -0.009914065 0.00054170506 -0.028522726 0.0022370631 -0.0015718839 -0.007447114
-0.008333825 0.005474064 -0.0064976267 -0.0067368452 0.0065237586 -0.0052591814 0.009373576 -0.0011063127
-0.006113672 0.0019472751 -0.009346814 -0.0027209492 -0.014044896 -0.0012452056 -0.00561065 0.0017537127
0.0008222327 -0.0057370677 -0.0209435 0.006594626 -0.033700548 -0.016691402 -0.008757456 -0.001841449
-0.005951648 -0.020063065 -0.002414281 -0.006917249 -0.011643062 -0.0028942497 -0.012577061 0.006530309
0.009633286 -0.0032618546 0.0020025105 -0.0097658895 -0.0088139735 -0.010344569 -0.012159661 -0.0069210427
-0.008220029 -0.0043529207 0.0038625216 0.017900072 -0.007990308 -0.02574564 -0.011421021 0.006720338
0.0013633547 -0.0031124768 -0.008149067 -0.003917266 -0.01574042 -0.0032428117 0.004268446 0.005874193
0.011501901 -0.0075536533 -0.02378305 -0.009738669 0.008040009 -0.011815727 -0.027364742 -0.016935099
0.009056836 -0.010502728 0.0010241455 0.00077922305 -0.009161666 0.0066625974 -0.016561842 0.0111189885

running_mean f4 [96]
00000000: 17f1 2dc5 fb4f bc45 5b89 1bc5 87fd e3c5
00000010: fd82 21c5 3523 a943 e751 ad45 1913 83c5
00000020: 738a ce44 3270 dd44 cbea b044 9cfd 5bc5
00000030: d459 db44 e89e 3fc5 2a3b 8845 f204 59c5
00000040: 335e 46c5 e24d a045 f8e1 9945 7e5c 6644
00000050: e234 3ac5 31b8 ac43 b028 1844 809f a7c4
00000060: a127 82c5 122e f9c4 9431 0cc5 f164 57c4
00000070: 9750 abc5 5693 a1c5 7bfb 1b45 3e28 03c5
00000080: 28f9 86c4 634d 3ec5 8b8d 07c4 50ef bdc5
00000090: 1d00 2ac5 461b 4545 2b43 57c5 0670 aa44
000000a0: c5df 1d45 2389 a1c4 66e6 fbc5 eb8f b2c4
000000b0: cb99 0cc5 de6e fdc4 7d96 eec4 4eb0 bf44
000000c0: d807 a945 1c41 b6c4 f05a 05c5 53d4 fa44
000000d0: 0038 12c5 4b91 58c3 7076 8845 60b6 0046
000000e0: 2693 d945 bc97 5bc5 30bc 46c4 e427 00c5
000000f0: 6981 f3c4 eda9 0d44 b571 1645 0116 3443
00000100: da6c fc43 d953 b0c5 eb09 0445 6b40 0d45
00000110: df74 b8c5 9b07 60c5 115c ec44 2a6a e844
00000120: 0fae dac4 867a edc4 b5b4 31c5 4332 0dc4
00000130: 0a55 86c5 50e3 ff44 28c8 d745 06ad f744
00000140: 285d ac45 c39c a4c4 24cc 86c5 fae5 0c46
00000150: a616 27c4 2b6b 92c5 ad00 01c5 3b17 1ec5
00000160: a726 2e45 b249 52c5 5c73 2245 ab5a e944
00000170: a10a bac5 7740 27c5 fd9a 81c5 82ae b744
-2783.068 6025.9976 -2488.5847 -7295.691 -2584.1868 338.27505 5546.238 -4194.387
1652.3265 1771.5061 1415.3373 -3519.8506 1754.8071 -3065.9316 4359.3955 -3472.309
-3173.8875 5129.7354 4924.246 921.4452 -2979.3052 345.439 608.63574 -1340.9844
-4164.9536 -1993.4397 -2243.0986 -861.5772 -5482.0737 -5170.417 2495.7175 -2098.5151
-1079.7861 -3044.8367 -542.2116 -6077.914 -2720.007 3153.7046 -3444.198 1363.5007
2525.9856 -1292.2855 -8060.8 -1428.4974 -2249.612 -2027.4646 -1908.7028 1533.5095
5408.9805 -1458.0347 -2133.6836 2006.6351 -2339.5 -216.56755 4366.8047 8237.594
6962.3936 -3513.4834 -794.9404 -2050.4932 -1948.0441 566.6551 2407.1067 180.08595
504.8504 -5642.481 2112.6199 2260.0261 -5902.609 -3584.4753 1890.8771 1859.3176
-1749.4393 -1899.8289 -2843.2942 -564.78534 -4298.63 2047.1035 6905.0195 1981.407
5515.6445 -1316.8988 -4313.5176 9017.494 -668.3539 -4685.396 -2064.0422 -2529.452
2786.4158 -3364.606 2599.21 1866.8334 -5953.3286 -2676.029 -4147.3735 1469.4534

running_var f4 [96]
00000000: fc6b d949 eacd 424b 4d85 124b a4e9 894b
00000010: 1606 ff4a a829 a74b 14a0 184b 8c4c 5a4b
00000020: 92a1 4e4a b152 244a 95eb 574a 5e4e 1c4b
00000030: a517 2b4a 64c1 f34a 0d30 d14a 6c37 284b
00000040: 713a 444a 945d 2a4b d4e0 0c4b 2922 254a
00000050: 76d9 8b4a 7f74 e449 7a85 c54a 7a08 e148
00000060: f931 c14a 9f51 564b bdd0 634b 5b67 3149
00000070: 5b3d 0a4b 29e6 344b 7cb8 774a ec00 af49
00000080: 3473 2b4b 3dbb 484a 0859 324b 3a6e 3f4b
00000090: cec2 ea4a 2a51 9f4a 057c 034b 6b4c a049
000000a0: e479 3c4a 06aa 2449 e2f6 b74b d951 f948
000000b0: 938c 0e4a 76c1 a14a c107 004b 1524 af49
000000c0: c98e 1c4b 8890 4e49 7d37 9c4b 479a e749
000000d0: 4085 b64a c94b cc4a 6497 fe4a 2086 ab4b
000000e0: fa42 874b 0b79 8c4a 709f 074b 0506 ca4a
000000f0: 1279 aa49 ca50 8a4a 145f f749 3c18 d34a
00000100: d8ca 8d49 43c1 154b b7de 344a a622 234b
00000110: 29d0 304b 20ec 8c4a 6ccd fb49 346b 5c4a
00000120: e89e f948 cc45 284a e978 444a fd17 484b
00000130: 7b50 cc4a d1cc 074b 9852 5a4b 4edc 364a
00000140: 17e1 484b 4411 774b 8386 ec4a ee85 cb4b
00000150: bc10 5e49 3b8b 174b dec1 4d4a f83a a74b
00000160: 1451 7c4a 618b 284b 671f 424a 0edf 5c49
00000170: 10ee 6d4b fcb3 e34a dc5a f54a 86e4 424a
1.7811195e+06 1.2766698e+07 9.602381e+06 1.8076488e+07 8.356619e+06 2.1910352e+07 1.0002452e+07 1.4306444e+07
3.3854445e+06 2.6922682e+06 3.5376372e+06 1.0243678e+07 2.8031772e+06 7.987378e+06 6.8546625e+06 1.1024236e+07
3.2150042e+06 1.1165076e+07 9.232596e+06 2.7055462e+06 4.582587e+06 1.8715039e+06 6.472381e+06 460867.8
6.3306205e+06 1.4045599e+07 1.4930109e+07 726645.7 9.059675e+06 1.1855401e+07 4.058655e+06 1.4336295e+06
1.1236148e+07 3.2887832e+06 1.16882e+07 1.2545594e+07 7.692647e+06 5.220501e+06 8.616965e+06 1.3131654e+06
3.087993e+06 674464.4 2.411258e+07 510606.78 2.3355248e+06 5.300411e+06 8.390593e+06 1.4347546e+06
1.0260169e+07 846088.5 2.0475642e+07 1.8972889e+06 5.980832e+06 6.6943725e+06 8.34245e+06 2.2481984e+07
1.7729012e+07 4.6030135e+06 8.888176e+06 6.6199065e+06 1.3965142e+06 4.532325e+06 2.0264665e+06 6.91715e+06
1.161563e+06 9.814339e+06 2.9633738e+06 1.0691238e+07 1.1587625e+07 4.617744e+06 2.0627655e+06 3.611341e+06
511223.25 2.756979e+06 3.2190022e+06 1.3113341e+07 6.6949735e+06 8.899793e+06 1.4307992e+07 2.9959875e+06
1.3164823e+07 1.6191812e+07 7.7504655e+06 2.6676188e+07 909579.75 9.931579e+06 3.3711275e+06 2.1919216e+07
4.133957e+06 1.1045729e+07 3.1805058e+06 904688.9 1.5592976e+07 7.461374e+06 8.03979e+06 3.1931215e+06

weight f4 [32, 96, 1, 1]
00000000: d5ed 8cbc 51eb 5a3d ad62 3dbd 5217 15bd
00000010: 539c f13c c4fe bf3d 4de9 ebba bb67 323d
00000020: c02a a5bd 0d70 40bc 03c9 d13d 54da 6f3c
00000030: b8d7 ecbc 6e74 69bd 728f 04bd 9cba 37bb
00000040: 1cc4 333d ef86 0fbd ff3e 4e3d 56b3 78bd
00000050: 005b 7b3b 5173 013c 8af5 92bd f241 69bd
00000060: 4460 b6bd e387 eebc 14e6 763d bdfd f3bd
00000070: 6cc5 efbb cde7 973d ae27 ad3d bd97 a0bd
00000080: 16cc 19bd 34d9 c13c d3ce 0dbd dcc3 c83c
00000090: 0cb7 233d 202a 323d 109b cdbc bf8d 20bd
000000a0: 49f7 803d 83d4 4e3d 25dc 3e3d 1835 6e3d
000000b0: d8d4 c9bc 3fcf 533d 7ce7 56bd 245e 41bd
000000c0: 40d4 c1bd 3fb1 a4bd 26aa 47bd 7991 8dbd
000000d0: 382b a83d 4d24 acba a5f4 cc3d 89a3 3c3d
000000e0: 8587 8dbd ccef 70bd 6c82 cdbd 4f3b 723d
000000f0: edce 403a 4302 59bd 1c43 2c3b e046 00bc
00000100: 1d3a a33d df45 cfbd 18b1 893d 4994 99bb
00000110: a647 6f3d f791 22bd 9ef6 babd fd2e 28bd
00000120: 55ba 9bbd ebbe 5f3d e200 d83c 82c0 ccbd
00000130: 9a94 c5bc cca6 d0bc acce e13c d82b 913d
00000140: 6ecd a53d bb60 143d 4bac 43bc f3f7 8cbd
00000150: 534b b13d 44eb 83bd bc62 c53c 4227 78bd
00000160: 7a6d 58bd 3add df3c 4080 b5bd 32b9 61bc
00000170: 5d48 993d 6f20 04bd a88a 02bd f68a 49bd
00000180: fb7c 1fbd c356 303d 1948 06bd 4c6b 603c
00000190: c63d 53bc 8b93 0cbd dd28 dbbc 411a c8bc
000001a0: 8e93 003d 708a 3e3d 5cc4 493d 0594 8a3d
000001b0: 71c6 dbbc cdd5 a5bd 256a 0c3d 3ed8 a8bd
000001c0: 7e08 3b3d 80a8 443d 0f1f a63d c3d7 1d3d
000001d0: 4599 ae3d e823 093d 5bac 963c f91f 0cbd
000001e0: 72e8 ac3d 62d3 1a3d 3fae 8dbd a019 8c3d
000001f0: 9579 e5bc 3924 87bd 7022 cebc 3d00 843d
00000200: 75c1 813d a77e 8d3d 4571 babd 3ec1 af3d
00000210: 090b c1bd 59d0 e83c 18a0 afbd 9dde febc
00000220: 0793 883b 3567 36bd 6db4 84bd 391c a23d
00000230: 383d 76bd 76c5 953d fe52 e6bc 8c28 2a3d
00000240: 50ee 59bc d203 2a3c 4f4c 94bd 83c4 a7bc
00000250: 1ecd 9f3d 7887 593d 58f1 f33c 53de 393c
00000260: 5616 5dbd 1250 adbd 92b8 a8bc 9aa3 c4bd
00000270: ef0f 67bc ddec 9b3d 5351 513b 1111 91bc
00000280: eb2f 82bd c2dc 4abd 7768 62bc 71be 863d
00000290: 1314 36bd 029d 7fbd c4d1 a93d c580 04bd
000002a0: 796c 083d 8667 ce3d 1ff5 9bbd 9083 d83c
000002b0: dbbf b43b 728a 8b3d d8e4 aebd 704e bcbc
000002c0: 6599 b9bd b659 87bd 7dde 21bd 8c1d 51bc
000002d0: 70eb 543d 375c b9bc 3416 7c3d c199 b7bb
000002e0: 9af8 883c ec73 943b 7a2c 983d fd3a 96bd
000002f0: ab9a c1bd 20b5 743d 10a5 13bd 18a5 c93d
00000300: f3ef df3d 6212 09bd ae10 44bd 0870 97bd
00000310: daeb 0ebd 7e9d adbd 9021 17bd 9ce5 6cbd
00000320: 1958 9c3d 2e28 a8bd f318 98bd 8a46 bdbd
00000330: 1903 34bd 7666 15bc 5413 b4bd 6fee 3abd
00000340: 8669 82ba cd46 b3bd f90e c43d 6479 e33c
00000350: 51c8 a63d 1c05 ef3c 7ac8 6c3d 923c 523d
00000360: b538 843d 0029 b63d 92e4 a33d 389d 9dbd
00000370: 33c2 93bd a8c6 073d aaab d53d 18f5 98bd
00000380: 0c8b c5bd 1961 31bd 0053 bc3d b667 62bd
00000390: aff6 5cbd 3cc3 c73d 3c93 b5bd 099b b3bc
000003a0: 9af2 933d 785d ee3b 0105 0e3d 308c 81bc
000003b0: 3dba b03d f97e 44bd d390 17bd 293d 9ebd
000003c0: 36f1 cb3c bda7 debc 1ad2 853d b5c7 4a3c
000003d0: a16a 7fbd cdc7 3bbd 2aa0 b1bd 581b 4bbd
000003e0: 88c4 123d 7416 883c 4460 793b ab57 ad3d
000003f0: 420a 053d 16b4 0e3d df16 2e3c e9ab babd
-0.01720325 0.05344707 -0.046236683 -0.036399193 0.029493487 0.093747646 -0.0017998606 0.043555956
-0.080647945 -0.011745465 0.10243418 0.014639456 -0.028911456 -0.0569958 -0.032363363 -0.0028034812
0.043888196 -0.035040792 0.050353047 -0.060717903 0.00383538 0.007901029 -0.07175739 -0.056947656
-0.0890508 -0.02911753 0.060278013 -0.11913631 -0.0073172357 0.07417259 0.08454834 -0.07841442
-0.037548147 0.02366314 -0.03462107 0.024507456 0.03996949 0.043497205 -0.025098354 -0.03919768
0.06297166 0.050495636 0.046596665 0.058156103 -0.024637625 0.051711317 -0.052466854 -0.04720892
-0.094643116 -0.080416195 -0.04874625 -0.06912512 0.08211368 -0.0013133377 0.100076 0.046054397
-0.06910614 -0.058822438 -0.100346416 0.059138592 0.0007355053 -0.052980673 0.0026285117 -0.007829398
0.079700686 -0.10120749 0.06723231 -0.0046868664 0.05841794 -0.039689984 -0.0912907 -0.041060437
-0.076038994 0.054625433 0.026367608 -0.099976555 -0.02411871 -0.02547016 0.02756437 0.07088441
0.08095823 0.036225062 -0.011942933 -0.0688323 0.08656945 -0.06441358 0.024094932 -0.060584314
-0.05283878 0.027327169 -0.08862352 -0.013777064 0.07484505 -0.032257494 -0.031870514 -0.04920479
-0.03893755 0.043051492 -0.0327836 0.013697457 -0.012893146 -0.034320395 -0.026752884 -0.024426581
0.03139072 0.046518743 0.04925953 0.06766514 -0.026828023 -0.0809742 0.034280915 -0.0824437
0.045662396 0.048012257 0.08111393 0.038535845 0.085253276 0.03348151 0.018392732 -0.03421018
0.08442773 0.037799247 -0.069180004 0.06840825 -0.028012076 -0.06598706 -0.025162905 0.06445358
0.06335727 0.06908923 -0.09103636 0.0858178 -0.09425933 0.02841966 -0.08575457 -0.03111201
0.0041679177 -0.04453202 -0.06479726 0.07915539 -0.060116976 0.07313053 -0.028115746 0.041542575
-0.013301447 0.010376887 -0.07241117 -0.020479446 0.07802795 0.05310771 0.029778168 0.01134451
-0.05397638 -0.08462538 -0.020595822 -0.09601517 -0.01410292 0.076135375 0.0031939342 -0.017708333
-0.06356796 -0.049526937 -0.013818852 0.065792926 -0.044452738 -0.062405594 0.08291963 -0.032349367
0.033306573 0.10078339 -0.076151125 0.026429921 0.005516035 0.06813516 -0.08539742 -0.02298662
-0.09062461 -0.06608908 -0.039518822 -0.012763392 0.051982343 -0.02262698 0.061544612 -0.0056030457
0.016720105 0.0045304205 0.07430358 -0.0733547 -0.09453329 0.059743047 -0.036046088 0.09845942
0.109344386 -0.033464797 -0.04786747 -0.07394415 -0.034892894 -0.08477305 -0.036897242 -0.05783616
0.07633991 -0.08210789 -0.07426634 -0.0924197 -0.043948267 -0.009118667 -0.08792749 -0.045637544
-0.0009949661 -0.087537386 0.09573168 0.027767844 0.08143676 0.029177241 0.057808377 0.051327296
0.064561285 0.08894539 0.08002581 -0.07696003 -0.07214775 0.033148438 0.10433133 -0.07468623
-0.09645662 -0.04330549 0.091955185 -0.055274688 -0.053946193 0.09754035 -0.08865973 -0.021924512
0.07224007 0.007274326 0.03467274 -0.015813917 0.08629272 -0.047972653 -0.03700335 -0.07726509
0.024895292 -0.027179593 0.06534214 0.012376715 -0.06235755 -0.04584484 -0.08673127 -0.049586624
0.035831958 0.016612269 0.0038051764 0.08463987 0.032480486 0.034839712 0.01062557 -0.091148205

weight f4 [32]
00000000: 4e8a 793f 6001 7c3f 57e3 793f 2429 773f
00000010: 1d7d 763f 3c91 7b3f 9814 793f c9f6 783f
00000020: d2e2 743f 3fd6 793f 60b3 7a3f 577e 773f
00000030: 9152 783f 5eae 7a3f 7ca5 783f 47c8 7c3f
00000040: 20b1 783f 898b 773f b57f 7a3f c19d 7d3f
00000050: 50a9 783f 0b0e 793f 6c96 7c3f 0800 783f
00000060: ac07 7a3f 6d31 793f ae47 7b3f 1c7a 7a3f
00000070: 6b0d 7b3f b87d 793f 7e3f 783f 97a3 783f
0.9747666 0.984396 0.9761252 0.9654715 0.9628466 0.98268485 0.9729705 0.97251564
0.956586 0.9759254 0.97929955 0.96677154 0.97000986 0.97922313 0.9712751 0.987431
0.9714527 0.9669729 0.97851115 0.9906884 0.9713335 0.9728705 0.98667026 0.9687505
0.97667956 0.9734104 0.9815625 0.97842574 0.9806735 0.97457457 0.9697188 0.9712462

bias f4 [32]
00000000: 01fe 20bc e9b6 433a 517b eebb d89c c439
00000010: 81fd e93b c953 4a3b 4e3e 21bc df1f a43b
00000020: fc4e c7bb 5baf 493a 1ee3 423b c20b 113b
00000030: d174 5b3a 17dd 1fbb 9ebf ccba 73c0 1abc
00000040: 2ab8 1bb9 e5de 4d39 4127 643b 6c3e babb
00000050: 1cb1 96bb ba04 6dba 9245 86bb f7fe 6a3b
00000060: 94bb 14bc b514 5fb8 70d2 d5bb 9a5a 023b
00000070: 3709 20bc 5162 823b 3c3c 673b afcf 483b
-0.009826184 0.00074659154 -0.007277884 0.0003750089 0.0071408157 0.0030872694 -0.009841515 0.005008682
-0.0060824137 0.00076936715 0.0029737423 0.0022132252 0.0008371594 -0.0024393254 -0.0015621071 -0.0094452975
-0.00014850558 0.00019633358 0.0034813436 -0.005683711 -0.00459875 -0.0009041537 -0.004097649 0.0035857537
-0.009077925 -5.3186628e-05 -0.0065253302 0.0019890429 -0.009767822 0.0039790054 0.0035283705 0.0030641367

running_mean f4 [32]
00000000: fe4c 6abe a81e 903b 0478 3ebd e6a5 1bbe
00000010: 3597 583e 260e f8bd ed16 31bc fe94 82be
00000020: d839 cd3d f1a7 0e3e 5e14 84be 7cbf 0b3d
00000030: 5ecd b5bd 585e e9bd cc96 d63d 375d 3e3e
00000040: 3db0 213d 8bde a13e de57 df3e 704c 423e
00000050: 963a b73e 93e1 95bd 0b3f 43bd 76ce 763e
00000060: 8834 61bc 365c 093e 6a9d f0bd 53c8 703e
00000070: aa2d a0bc bf00 133e 5870 d6bd b062 663e
-0.22880933 0.0043981858 -0.046501175 -0.15200004 0.21151431 -0.121120736 -0.010808689 -0.25504297
0.100207984 0.13931252 -0.2579679 0.03411816 -0.08877061 -0.11394948 0.10477981 0.18590246
0.039474715 0.316151 0.43621725 0.18974471 0.35786885 -0.073184155 -0.047667544 0.24102196
-0.013745435 0.13414082 -0.11748774 0.23513918 -0.019553024 0.14355753 -0.104706466 0.22498584

running_var f4 [32]
00000000: 8fbb 973c 989d 723d 4c0e 3a3c 0b33 ac3d
00000010: b2e8 253d e772 003d 499a 4f3c 50da 9b3d
00000020: 876d b63d fa0d fb3c 921e ac3c c870 803d
00000030: 1115 163d 1fba e53d 3612 523d bb54 043d
00000040: 5b7c 1a3e 6d64 2c3d 8115 973d 7afc 263d
00000050: d37d 763d d54c d33c 0092 a53c f62a 943d
00000060: a1b7 c63c bc41 a83d 8d68 333d c0f1 0f3d
00000070: 2c95 7b3d ced1 723d 5abd ce3d 5d6b 353d
0.018522052 0.059232324 0.011355948 0.08408173 0.04050512 0.03135958 0.012671062 0.07609999
0.089076094 0.030646313 0.02101067 0.06271511 0.036641184 0.112171404 0.0512869 0.032307368
0.150865 0.04208796 0.073771484 0.040768124 0.06017859 0.025793472 0.02021122 0.07234757
0.024257483 0.08215663 0.04380088 0.03514266 0.06142156 0.059282117 0.1009471 0.044291843

weight f4 [32, 96, 1, 1]
00000000: ed35 583d 89da 79bd c0ec 90bd af5f b5bd
00000010: 44a0 263d a042 9abd f0f6 41bd d565 0c3d
00000020: 3b74 d53d 9624 c13d 4870 8bbd 8812 423d
00000030: 70e4 2fbd 6079 983c 0116 843d e5c5 503d
00000040: 03a2 88bc 6a5e 633d e74f 223d a79c ff3c
00000050: c563 dcbd 7f4b dd3d b96b dabc e5b9 a1bc
00000060: 5dfb 12bc 68bc d1bd 6f6e 63bd f157 a3bd
00000070: c673 143d cbcd 16bd 36c1 5fbd 02c5 d33c
00000080: d6d2 49bd e113 95bc 8173 b0bc 3dc7 b13c
00000090: 5b71 7c3d fb38 edbc ece9 743d 12ca 8fbd
000000a0: cb30 8bbd 6cd7 bb3d 3e43 59bd 8045 a63d
000000b0: f6f5 043c 0ada 7c3d 5bf3 c9bb 4f6e 10bd
000000c0: a3cb ad3c 5fbf 68bd 2efb 90bc 1e52 f93c
000000d0: 180a 10ba 6daa 3c3d 9676 d2bc 833c d7bc
000000e0: a659 793d d838 85bd fd99 1bbd 1ce1 8e3d
000000f0: cb5d 8cbd a132 d03c 601b 8f3d 7a01 063d
00000100: a9a2 39bd 6333 8d3d 8f3d ac3c 38e4 fa3c
00000110: 14f0 0bbd 4cd0 b43d 9bfc 153d 494a a5bd
00000120: d0b9 6abd 2ac3 8bbd adb4 9ebd 9b6d babd
00000130: c000 853d ede1 7f3d aaaa 64bd 55c4 9f3d
00000140: bed1 a2bd 8a16 81bd 9e19 923d f8cd 843d
00000150: 6351 043d c2e3 313d eae6 233d a28b 82bc
00000160: 9e3f 0ebd 8b8e a2bd 2284 e23b 43fb d13d
00000170: 9ff6 12bd 187b a5bd b540 753d b8a9 57bd
00000180: 9a5f a1bd 1cdd 8fbd 7ead d3b9 d385 e53b
00000190: 9967 673d 86b5 6f3d 6a2a dbbd 86f3 b53d
000001a0: cdc4 83bc 4b59 883d 2208 9ebc fb99 fdbc
000001b0: 16c9 88bd 4595 0a3d 3a98 bcbc 211d 3bbd
000001c0: 2da1 60bd 509f ac3d 17a0 38bd 2675 793d
000001d0: c51d 67bd 1bc5 243d 553d 45bc ea85 993c
000001e0: 4270 aebd 0403 8e3d ad70 bcbd a072 fa3a
000001f0: 7ed0 353d ee82 76bd ebd3 f0bc 3952 663d
00000200: 6726 8bbd 5c93 cfbc dec8 d1ba e2fd b93c
00000210: 0a19 ebbb 0946 93bd 1fa1 c83c fef0 863d
00000220: eb2a 293d 9f41 98bc eb3a 5bbd aebe 3b3c
00000230: 3c72 f33d 89ae 0a3d 5a11 6e3d 4cb8 7dbc
00000240: 32f8 a13d 3801 ef3c 9e4d a1bd 5a4f 93ba
00000250: 3113 feba 290f acbd f12b 653d 4bee 953d
00000260: f956 8dbd 84d1 82bd 9e56 583c f9fb 3dbc
00000270: 61b7 863d baae a53d 588a a3bd 4e35 603d
00000280: 25b8 ac3c b202 003d bf8c 503d 9c90 87bd
00000290: 3fe1 a33d 3fa9 f13c 97a9 9dbd ed29 2cbc
000002a0: 3c8c 98bd 68d4 50bd 468d b53d e6b7 13bc
000002b0: 0a64 083b 47db e7ba 9341 8e3d 4883 bd3d
000002c0: e014 d83d c6e5 a3bd e59a b5bc bb7b 8fbd
000002d0: a75e 5e3d 146a b3bd 83f8 813d 6823 9bbd
000002e0: 810b 453c 30c7 f13c b7b7 1f3d 25db 113d
000002f0: 4a48 b3bd 920d 08bd e5eb 81bd fdf0 d439
00000300: 2e09 a8bd f664 9e3d ba03 263d 9313 9f3d
00000310: 7925 8b3c e7d3 3abd 66ce 67bd c23e 6f3d
00000320: 8a06 93bd 7311 38bd 1f5e babd 52c9 8cbd
00000330: db29 313c ed00 98bd 6b3e 7e3d 5847 c8bd
00000340: c8d7 01bb 5556 853d ae5b 803d 815a 943d
00000350: 7e55 20bd 6345 c23d d436 d2bb 3324 04be
00000360: 697a cdbc d2ff 70bd c706 b9bb 67a9 a93d
00000370: b567 b83c 29fb 98bc b2ee 46bd 0c81 c3bd
00000380: 1396 003d d692 bb3c 3dba ec3b 5ffc b2bd
00000390: ce8e 97bd ba6e adbd c67e 94bc 20bb c9bd
000003a0: ee24 c0bd 8faf 1a3c 20cd a73d 28f8 6cbd
000003b0: fea5 0e3d 0782 803d dcbc a53b 2597 f9bc
000003c0: 4bb0 683d 3f27 993d a6c2 36bc b1af 5bbd
000003d0: 3dd0 d53d efe6 363c 2d15 953d f7c0 41bc
000003e0: 7e9e 2cbd efe6 123b 0ac4 b3bd 5135 6ebd
000003f0: 35e9 34bd 5da4 5f3d b327 5b3c 8163 4abb
0.052785803 -0.060999427 -0.070764065 -0.08856141 0.040680185 -0.07532239 -0.04735464 0.034276802
0.1042256 0.09430806 -0.06808525 0.047380954 -0.042942464 0.018612564 0.064495094 0.050969977
-0.016678816 0.055509962 0.039626982 0.031202627 -0.10761217 0.10805415 -0.026662694 -0.019741962
-0.0089710625 -0.10241014 -0.05552524 -0.07975758 0.036243223 -0.036817353 -0.05462762 0.025850777
-0.049273334 -0.018197956 -0.021539452 0.02170145 0.06163154 -0.028957834 0.059793398 -0.07020964
-0.06796416 0.09171948 -0.053042643 0.08118725 0.008115282 0.061731376 -0.0061630434 -0.03526145
0.021215266 -0.05682313 -0.017697897 0.030434664 -0.0005494668 0.04606097 -0.025691312 -0.026273971
0.06087651 -0.06504983 -0.03798865 0.0697653 -0.06853827 0.025414767 0.06987643 0.032716252
-0.04532114 0.06894567 0.021025447 0.030626401 -0.034164503 0.08828792 0.036617856 -0.080708094
-0.05730611 -0.06824334 -0.07749305 -0.09102937 0.06494284 0.06247132 -0.05582682 0.07801119
-0.079501614 -0.06303127 0.07133792 0.06484598 0.03230418 0.043430097 0.04001514 -0.015935723
-0.03472864 -0.07937344 0.006912724 0.102530025 -0.035879727 -0.08080119 0.059876163 -0.05265209
-0.07879563 -0.07024595 -0.00040374318 0.0070044785 0.056495283 0.058522724 -0.10701449 0.08884339
-0.016085053 0.06657656 -0.019290987 -0.030957213 -0.06678979 0.03383376 -0.023021806 -0.045682076
-0.05484121 0.08428824 -0.04507455 0.060902737 -0.056424875 0.040227037 -0.0120385485 0.018740613
-0.08517505 0.06934169 -0.09201179 0.0019107647 0.044388287 -0.060183458 -0.029397925 0.056230757
-0.06794434 -0.025338821 -0.0016005298 0.022704069 -0.0071746157 -0.071910925 0.024490891 0.06588934
0.041300695 -0.018585978 -0.053522985 0.011459036 0.11887023 0.033857856 0.058122016 -0.015485834
0.079086676 0.029175386 -0.078761324 -0.0011238859 -0.0019384382 -0.08401329 0.05595011 0.073208414
-0.06901354 -0.06387618 0.013204245 -0.0115957195 0.065779455 0.08089967 -0.07985371 0.054738335
0.0210839 0.03125257 0.050915476 -0.06619379 0.08001947 0.029499648 -0.07698362 -0.010508043
-0.074486226 -0.050983816 0.088648364 -0.009016013 0.002081158 -0.0017689251 0.06946101 0.092535555
0.105508566 -0.0800281 -0.022168586 -0.070060216 0.054289486 -0.08760467 0.06346228 -0.075751126
0.0120266685 0.029513925 0.038993564 0.035609383 -0.087540224 -0.033216067 -0.063438214 0.0004061534
-0.08204876 0.077341005 0.040530898 0.07767405 0.016985642 -0.045612242 -0.05659332 0.05840946
-0.071789816 -0.044938516 -0.090999834 -0.06874336 0.010813202 -0.074220516 0.062071245 -0.09779233
-0.0019812454 0.06510607 0.062674865 0.07243825 -0.03914403 0.09485891 -0.0064152274 -0.12904434
-0.025082784 -0.05883772 -0.00564656 0.08284264 0.022510389 -0.01867445 -0.04856748 -0.09546098
0.031393122 0.022897165 0.00722435 -0.08739542 -0.07400285 -0.08468385 -0.018126857 -0.098501444
-0.09382044 0.0094412705 0.08193421 -0.057853848 0.03482627 0.06274801 0.005057914 -0.03046758
0.05680875 0.07478189 -0.011154806 -0.05363435 0.10440109 0.011163457 0.072794296 -0.011825792
-0.042143337 0.002241548 -0.08777626 -0.058156315 -0.044167716 0.05460011 0.013376164 -0.0030882063

weight f4 [32]
00000000: 1c18 803f 2a89 7f3f e91b 773f 8ee8 813f
00000010: ce0c 863f ab31 843f d234 803f eda4 793f
00000020: d431 7a3f 5b5f 813f f952 783f 5d91 7e3f
00000030: bcb3 7f3f e088 753f 602c 7e3f 01a5 7f3f
00000040: 646e 7f3f 4c13 7d3f aee5 783f 7ecf 833f
00000050: 4b34 833f 37cf 7a3f a0c1 813f 053a 7f3f
00000060: 859f 7a3f 5391 843f 234e 7a3f 5c93 7e3f
00000070: 10d9 7b3f 7780 773f 3258 783f 4b7e 7d3f
1.0007358 0.9981867 0.9652696 1.0149095 1.0472658 1.0327657 1.001612 0.9751728
0.9773228 1.0107225 0.97001606 0.99440557 0.9988363 0.9591198 0.9928646 0.9986115
0.9977782 0.9885757 0.97225463 1.0297697 1.0250334 0.97972435 1.0137215 0.99697906
0.9789966 1.035685 0.9777548 0.994436 0.98378086 0.96680397 0.97009575 0.9902083

bias f4 [32]
00000000: 3f70 86bc ee61 1dbc 93d0 0d3b 82f8 a33b
00000010: ae8a 2f3c f07c 763c 725c a4bc 27ef 353c
00000020: a9fb e5ba b0b5 413c 488f efba 0899 b63a
00000030: 59bd 36bb 1478 3c3b 430d ef3a 14bc d0bc
00000040: b070 eeba 338f e13a a8e9 a93c 24e6 30bb
00000050: f244 70ba 2536 023a 3108 99ba 4f23 36bb
00000060: 946a 3ebc 1543 cb3c d023 41bc 0822 e3bb
00000070: fea6 2dbc 5155 acbb c5bd fa3b 9d8d 073c
-0.016410945 -0.009605868 0.0021639213 0.0050039897 0.010714216 0.015044436 -0.020063613 0.011104382
-0.0017546314 0.011823103 -0.0018276954 0.0013931105 -0.0027883856 0.0028758096 0.0018238205 -0.025480308
-0.0018191542 0.0017208814 0.020741299 -0.0026992643 -0.0009165547 0.00049671746 -0.0011675415 -0.0027792042
-0.01162209 0.02481226 -0.0117883235 -0.006931547 -0.010598896 -0.005259194 0.007652017 0.008273509

running_mean f4 [32]
00000000: 5406 8cbd 5121 b1bb d00f c1be bcf6 c3bd
00000010: e5c4 c23b 89b6 eb3d 48a4 b43e 7930 8cbe
00000020: e1a7 c33c 504c ab3d 5b7a 33bd 4c79 073e
00000030: 99fa a7be bca5 6fbe 99dc 663d 17cb f63d
00000040: c4c6 bdbc ce3c 283d edb5 293f 9671 60bc
00000050: 9aea ee3d fc5a f63d 9bac dcbd c108 3fbe
00000060: 6081 983e 6fbe 9cbd 221f b83e f4ae 43bb
00000070: 55ee 693d 0146 083e 38c0 743e c169 a33d
-0.068371445 -0.005405583 -0.37707376 -0.09568545 0.005943882 0.11509425 0.35281587 -0.27380732
0.023883762 0.08364165 -0.04381786 0.13229865 -0.32808378 -0.23403066 0.056362722 0.12050455
-0.023166068 0.041073613 0.6629322 -0.013698956 0.116658404 0.12029073 -0.107751094 -0.18655683
0.29786205 -0.0765351 0.35961252 -0.002985892 0.057112057 0.13307954 0.2390145 0.07979155

running_var f4 [32]
00000000: e7fd 7e3d 53e4 273c 5b50 7b3d 02c4 143c
00000010: 6ef7 4b3c 2c73 6b3c 2115 813d 72bf a33d
00000020: 50d5 fc3c a61a fb3c 406d 723d d9be 003d
00000030: d717 0f3d 5b43 ce3c 7b2d de3c 8140 923d
00000040: e367 063c ee2c ba3c f68c 283e e8c5 6e3c
00000050: 77f9 923c faa1 f13c eb09 3d3c b652 8c3d
00000060: 586b cb3c caa3 563c e145 953c ea49 273d
00000070: 0ca1 d23c c6bd 443d f853 973d cece ab3c
0.06225386 0.010247308 0.06135593 0.009079935 0.012449129 0.014370721 0.06302858 0.079955
0.030863434 0.030652355 0.05918622 0.031432007 0.034934845 0.025178602 0.027121296 0.071412094
0.008203479 0.022726502 0.16460022 0.014573552 0.01794122 0.029496182 0.011538009 0.06851713
0.024831459 0.013100574 0.018221797 0.040841974 0.025711559 0.048032545 0.07389063 0.020972636

weight f4 [96, 32, 1, 1]
00000000: fcd0 1fbe 46b5 483d 22cd d43d cb65 b0bc
00000010: 9799 c13c a8a5 983d e299 d93d f9eb 5bbd
00000020: 9622 77bd 08d3 76bd 37e1 04be eff6 e53c
00000030: 08d5 8f3d 430f 063d 7693 7b3d 5c14 213e
00000040: 1dcb 303e ed9f 093e 3ad4 0fbe 7abb 463d
00000050: 9c49 163e 444c 17be 8e83 853d 4704 25be
00000060: 7019 06be d6d5 98bd df42 8fbd d118 203e
00000070: 3b51 84bd 092f 55bd d361 b13c 9832 11be
00000080: 499d 033e 60a5 8cbd c1e1 dfbc 6848 c23c
00000090: 69e8 563b 7879 b93d ce2f 0d3e ff74 c3bd
000000a0: 8d73 26be 4ec7 27be 28e5 0cbe b4bf 2bbe
000000b0: 5239 09be 227d f6bc e2cb cd3c d985 9c3d
000000c0: 7672 6a3d 0c0c 943d b56e 0ebe 8813 ecbd
000000d0: dc3b afbd e2d8 c73d 6895 18be f6a5 1cbe
000000e0: 8260 553d 746f 283e 634b ebbc 5b46 453d
000000f0: 10e0 22be 8448 113e 4f8d ec3d 84d5 47bd
00000100: 8c62 633d 7160 1cbe 0384 f43d 3b81 13be
00000110: 21ed 25be 31d1 1f3e bf43 87bd 217d bbbd
00000120: 9abd 7cbd b3ae 873d 83fc e63d eae8 df3d
00000130: 3b20 cb3d f6b7 58bd f85f 88bb 99a0 2c3c
00000140: 8cea 253e 2c88 403d f993 043e cb3b 5abd
00000150: 9def f5bd 3faa 203e 3e91 093e 7c7d bfbb
00000160: b4e1 29be ccbb 103e 48ad 823d d7f5 6dbc
00000170: adb1 ca3c 09d4 0a3e c40c 423c 79fe c7bc
00000180: d0f6 2fbe 0b3c 87bd dc37 5b3c 5397 3fbd
00000190: 939e d1bc dd6c 253e 5bf4 51bc 14e5 60bc
000001a0: 7b5a 9dbd 8ebe 033d a5f2 de3d 2e32 963d
000001b0: 872d 8b3d 5a0d 74bd aa2f 103e e858 0ebd
000001c0: cb3d 093c a13a 0cbd 51bd a4bd ecd7 d73d
000001d0: ec47 bcbd ebb9 323d e895 84bd 8ca8 e9bd
000001e0: 888b a8bd 7d28 14bd 10f1 113e 0a7c 04be
000001f0: 3951 2ebe 6cff 193d a763 3d3d e48b ee3d
00000200: fbb9 dcbc 8e87 f33c 35ca d43b 517a d9bd
00000210: 60e8 8138 0677 9dbb dc7e 013d f459 183e
00000220: 0bc7 d6bd 4cc4 e73d 7d96 b83d 94f2 e03d
00000230: ef19 7fbb 05df ffbd 1829 023e 806e 2ebe
00000240: 0d6b f639 8836 b53d 1a50 2cbd 0e03 083e
00000250: 5ddd de3c 288a 193e 363f 303e 61c0 d13d
00000260: 3bbe 8d3d 5165 c13d 93e1 ec3c 7cbe 76bd
00000270: 7bfb 80bd 3601 053e 769c 88bd e0f6 ffbd
00000280: 4a51 81bd cc1f 2c3e f440 283e 78f0 d43d
00000290: e559 19be c2fb 80bc 488c 7c3d d03e 873d
000002a0: 5f45 243e bc9c 583d 311d 033e 7c04 cd3c
000002b0: cf7a ab3d 1bfc 12be c069 1e3e 913a cb3d
000002c0: d3f0 b63b 73b1 043e 4d3d 113c 7733 503d
000002d0: ba73 09bd 54cb fa3d b191 44bc 00d7 423d
000002e0: 3cde 1ebe a49d 013c 1d46 d83c c63a 84bd
000002f0: 2434 9f3c 4345 923d 31c0 e6bd 962e 7cbc
00000300: 6b18 2f3e ae84 2a3e 22e3 203e 174c 163e
00000310: 4470 d1bc c5b8 7a3d 69cf cf3d f765 b0bd
00000320: 486e 6fbd 63dd b83d 50cd a2bd f885 183e
00000330: 8ffe 2bbe e5b4 28be 45bf 2e3d fc69 d3bc
00000340: 1830 20be 812a 2ebc cc84 24bc 14ff b2bd
00000350: 2e59 80bb 9f9b 293c 6fd9 3a3c b64e 153e
00000360: 0724 12bd 193d ec3c b2a6 153e abc5 253e
00000370: 5789 a33d bb83 b8bc 6648 00be 5397 353d
00000380: b07f f1bd cb2a b83d 9276 d4bc d4a0 153e
00000390: 038a 4f3d 10c5 9f3d 2ce9 55bd c5ca a0bb
000003a0: 26a9 c8bd 3d46 243e 5943 c6bd ff0b d2bc
000003b0: d0b7 5ebd a734 8f3d 5e59 2ebe 6d35 7fbd
000003c0: 6b90 c93b d4e5 49bc f1f2 a7bd ee5f 50bd
000003d0: 01a8 0cbe 9f1d 0fbe a0dc 1fbe abd4 82bd
000003e0: b7e3 ed3d fd87 d1bd 133d 863c 1d59 533d
000003f0: 6e24 05be a5ad 91bd 9931 343d 8388 9b3d
-0.15607065 0.049001 0.103906885 -0.021532914 0.023632808 0.074534714 0.10625054 -0.053691838
-0.060335718 -0.06025985 -0.12976538 0.028071849 0.07023054 0.0327294 0.061419927 0.15730423
0.17264982 0.13439913 -0.14045802 0.048518635 0.14676517 -0.14775187 0.06519233 -0.16114913
-0.13095641 -0.07462661 -0.069951765 0.15634467 -0.06460806 -0.05204681 0.021653092 -0.14179456
0.12852968 -0.0686748 -0.027329328 0.023716167 0.0032792336 0.090563715 0.13787767 -0.095437996
-0.16255017 -0.16384622 -0.13759291 -0.16772348 -0.13400772 -0.030088965 0.025121633 0.07642717
0.057238065 0.0722886 -0.13909419 -0.11527163 -0.08556339 0.09758164 -0.14900744 -0.15297684
0.05209399 0.16448766 -0.02872247 0.0481628 -0.15905786 0.14187819 0.1155039 -0.04878761
0.055513903 -0.15271164 0.11939242 -0.14404766 -0.16203739 0.15607144 -0.066047184 -0.09154726
-0.061704256 0.06625118 0.112786315 0.10933097 0.09918257 -0.052909814 -0.004161831 0.010536336
0.16202754 0.047004864 0.12947072 -0.05327968 -0.12008593 0.15689944 0.13434312 -0.0058438163
-0.16590005 0.14134139 0.06380707 -0.014523945 0.024742926 0.13557447 0.011843864 -0.024413334
-0.17183995 -0.06603249 0.013380017 -0.046775173 -0.02558831 0.1615481 -0.012814607 -0.0137264915
-0.076832734 0.03216415 0.108861245 0.0733379 0.06795793 -0.059583046 0.14080682 -0.034752756
0.008376549 -0.0342356 -0.08043922 0.10539231 -0.091934055 0.043634336 -0.06473905 -0.11409101
-0.082297385 -0.036171425 0.14252114 -0.12937942 -0.17023171 0.037597105 0.046237614 0.11647776
-0.026944151 0.029727723 0.0064938315 -0.10619033 6.1944826e-05 -0.0048054485 0.031615123 0.14878064
-0.10487183 0.113167375 0.09013078 0.10983768 -0.003892537 -0.124937095 0.12710989 -0.1703434
0.00047000535 0.08848292 -0.04206858 0.13282415 0.027205164 0.14994109 0.17211613 0.102417715
0.06921049 0.09443153 0.028916156 -0.060240254 -0.06297966 0.12988743 -0.066704676 -0.124982595
-0.06314333 0.16809005 0.16431028 0.10397428 -0.14975698 -0.015745047 0.06165722 0.066037774
0.16042088 0.05288385 0.12804104 0.025026552 0.08373033 -0.14353983 0.15470028 0.0992328
0.0055829077 0.12958317 0.008864713 0.05083033 -0.03355763 0.12245813 -0.011997626 0.04756832
-0.15514463 0.00791112 0.02640062 -0.06456523 0.019434042 0.07142117 -0.11267126 -0.015391966
0.17099158 0.16652176 0.15711644 0.14677463 -0.025566228 0.061211366 0.10146982 -0.08613198
-0.05845478 0.09026601 -0.079493165 0.14894855 -0.16796325 -0.16475256 0.042662878 -0.025807373
-0.15643346 -0.010630251 -0.010041427 -0.087400585 -0.003916881 0.010352044 0.011404379 0.14580807
-0.03567889 0.028837727 0.1461437 0.16188686 0.0798518 -0.022523751 -0.12527618 0.044333767
-0.117919326 0.08992537 -0.025935445 0.14612132 0.050668728 0.078012586 -0.052224323 -0.0049069845
-0.097978875 0.16042419 -0.09680814 -0.025640486 -0.054374516 0.069924645 -0.17026278 -0.06230681
0.006151249 -0.012322862 -0.08200634 -0.050872736 -0.13735963 -0.13976143 -0.15611506 -0.063882194
0.11615699 -0.10231016 0.016386544 0.051598657 -0.13002178 -0.07113198 0.043992613 0.07594397

weight f4 [96]
00000000: 5cbd 773f 61bd 773f 65bd 773f 64bd 773f
00000010: 59bd 773f 66bd 773f 60bd 773f 65bd 773f
00000020: 5abd 773f 63bd 773f bfbc 773f 5abd 773f
00000030: 6dbd 773f 41bd 773f 67bd 773f 60bd 773f
00000040: 58bd 773f c0bc 773f 64bd 773f 73bd 773f
00000050: 5fbd 773f 68bd 773f 57bd 773f 5ebd 773f
00000060: 67bd 773f 68bd 773f 66bd 773f 66bd 773f
00000070: 6abd 773f 68bd 773f 5fbd 773f 62bd 773f
00000080: 66bd 773f 65bd 773f 5fbd 773f 64bd 773f
00000090: 64bd 773f 62bd 773f 68bd 773f 64bd 773f
000000a0: 67bd 773f 66bd 773f 70bd 773f 65bd 773f
000000b0: 6ebd 773f 67bd 773f 73bd 773f 50bd 773f
000000c0: 62bd 773f 61bd 773f 56bd 773f 65bd 773f
000000d0: 69bd 773f 37bd 773f 55bd 773f 45bd 773f
000000e0: 53bd 773f 71bd 773f 65bd 773f 60bd 773f
000000f0: 5ebd 773f 5cbd 773f 6bbd 773f 5fbd 773f
00000100: 6ebd 773f 65bd 773f 61bd 773f 5fbd 773f
00000110: 64bd 773f 58bd 773f 68bd 773f 6fbd 773f
00000120: 43bd 773f 66bd 773f 68bd 773f 50bd 773f
00000130: 57bd 773f 56bd 773f 56bd 773f 60bd 773f
00000140: 5ebd 773f 5dbd 773f 53bd 773f 61bd 773f
00000150: 5dbd 773f 64bd 773f 65bd 773f 67bd 773f
00000160: 4abd 773f 55bd 773f 57bd 773f 60bd 773f
00000170: 6ebd 773f 62bd 773f 68bd 773f 70bd 773f
0.96773314 0.96773344 0.9677337 0.9677336 0.96773297 0.96773374 0.9677334 0.9677337
0.967733 0.96773356 0.9677238 0.967733 0.96773416 0.96773154 0.9677338 0.9677334
0.9677329 0.96772385 0.9677336 0.9677345 0.9677333 0.96773386 0.96773285 0.96773326
0.9677338 0.96773386 0.96773374 0.96773374 0.967734 0.96773386 0.9677333 0.9677335
0.96773374 0.9677337 0.9677333 0.9677336 0.9677336 0.9677335 0.96773386 0.9677336
0.9677338 0.96773374 0.96773434 0.9677337 0.9677342 0.9677338 0.9677345 0.9677324
0.9677335 0.96773344 0.9677328 0.9677337 0.9677339 0.96773094 0.9677327 0.9677318
0.9677326 0.9677344 0.9677337 0.9677334 0.96773326 0.96773314 0.96773404 0.9677333
0.9677342 0.9677337 0.96773344 0.9677333 0.9677336 0.9677329 0.96773386 0.9677343
0.96773165 0.96773374 0.96773386 0.9677324 0.96773285 0.9677328 0.9677328 0.9677334
0.96773326 0.9677332 0.9677326 0.96773344 0.9677332 0.9677336 0.9677337 0.9677338
0.9677321 0.9677327 0.96773285 0.9677334 0.9677342 0.9677335 0.96773386 0.96773434

bias f4 [96]
00000000: 4e29 153a 91bc f5b9 e936 4bb9 103b 9fba
00000010: fa47 b83a 6c6c 953a f7d8 783a 6a34 33ba
00000020: 1817 98ba ea25 beb9 d06b 92bb 078c a3ba
00000030: 15e7 3a38 95fd 36ba f71b 6c3a 5e8c d63a
00000040: 1c0b 1f3a 3325 b0bb fb06 fc39 ba95 3ab9
00000050: 6cc6 7bba 29cb 4aba 85e6 ac3a 724d 65ba
00000060: 49e1 3c39 9338 903a 5b94 cb38 b7aa bcb9
00000070: 2713 4236 06ae 203a 2a55 2e3a 924b 56ba
00000080: 4679 ceb9 4a24 88ba 7e49 c537 a3bf 8b39
00000090: 9f4f d1ba d5e2 763a d8d8 cb39 cde5 e0b9
000000a0: b81c e23a 4c77 0b3a 4096 9539 856b 0c3a
000000b0: 66ff 8eba 78b9 343a 4ffd 8d38 323e 64ba
000000c0: 8308 883a ecc9 ad3a 5ff0 0e3a 4942 8439
000000d0: 0259 5a39 b535 423b 37fb 80ba 96f5 2fbb
000000e0: 9680 f3ba c194 85b8 0c98 6fb8 6da7 27ba
000000f0: 8a00 8aba fdbb c9ba 1f2c 83ba 1eea 71ba
00000100: b8d9 1837 0c25 d1ba c206 1739 a724 7d37
00000110: 323a af39 19f7 e4ba a976 8638 83f9 093a
00000120: 4df8 3cbb 1066 e5b9 de9c 933a 2bd6 02bb
00000130: 5c9b f33a d6a1 13bb 3564 a0ba ddd0 983a
00000140: 91a6 4537 7200 de39 b89f fc3a 05cd c1b8
00000150: 5785 b0ba 5a72 263a 0bb9 a5b9 1232 f0b8
00000160: c96b 3fbb b5c7 14bb b8f7 ddba e3f3 28b9
00000170: 299e 373a 0ea2 2a3a 42d9 72ba d3d7 19b9
0.0005690054 -0.00046870534 -0.00019380044 -0.0012148339 0.0014059537 0.001140011 0.00094927795 -0.00068361184
-0.0011603562 -0.00036267872 -0.0044684187 -0.0012477644 4.4561068e-05 -0.00069805357 0.00090068526 0.0016368737
0.0006067024 -0.0053755282 0.00048070386 -0.0001779412 -0.00096044573 -0.00077359617 0.0013191259 -0.0008747197
0.00018013002 0.0011003189 9.707428e-05 -0.00035985347 2.89194e-06 0.0006129447 0.00066502637 -0.0008174713
-0.00039381738 -0.0010386792 2.3518453e-05 0.00026654926 -0.0015969164 0.0009417956 0.00038880738 -0.00042895824
0.001725099 0.0005320206 0.0002853144 0.0005356598 -0.0010909855 0.0006894092 6.770586e-05 -0.00087067776
0.0010378513 0.001325903 0.0005452688 0.00025226388 0.00020823258 0.0029634063 -0.0009840493 -0.0026849261
-0.001857775 -6.369642e-05 -5.7123645e-05 -0.0006395493 -0.0010528725 -0.0015391108 -0.0010007656 -0.00092283066
9.110598e-06 -0.0015956475 0.00014403 1.5088509e-05 0.0003342196 -0.001746866 6.41172e-05 0.00052633154
-0.0028834522 -0.00043754326 0.001126196 -0.001996408 0.0018585729 -0.0022526882 -0.0012236895 0.0011658926
1.1780897e-05 0.0004234347 0.0019273674 -9.241145e-05 -0.0013467473 0.0006349437 -0.0003160912 -0.00011453418
-0.0029208532 -0.0022702042 -0.0016934788 -0.00016112583 0.00070044637 0.00065091334 -0.00092639413 -0.00014671618

running_mean f4 [96]
00000000: ad2c f1ba 5d3d 26ba 089f 793a 6042 913b
00000010: 681c d93a 2c23 15bb a6ce 6dbb 2ef9 a53b
00000020: 0e51 753b 6811 f63b a148 4a3b b883 913a
00000030: 27bf a2ba d076 563b 904b c7b9 91d6 e8ba
00000040: af49 96bb 1963 353b 9df1 2fbb 8979 18ba
00000050: 2669 f43a 752b f83a 1975 043b 4a1d 11ba
00000060: 6a87 093b 4623 a4ba 647b a83b 1188 303a
00000070: 2d30 8a3a d6b0 d637 aa42 c43b f1e9 893b
00000080: aff9 8c3b 9303 b5bb 8324 3ebb 9d52 7a3a
00000090: 04a2 2a3b a798 8a3b c70a cd3b b67b cbba
000000a0: 8a6f 8e3b 811a 363a 14ce 8eba 0768 dbbb
000000b0: 3449 36ba 8e74 24bb 2332 303b 8900 0fba
000000c0: 4120 50bb ff65 4cbb bc70 ab3a 62f5 c7ba
000000d0: 8fff 573a 5235 8fbb b1a4 0f3a 8414 1b3b
000000e0: ad85 aab9 b267 2abb cc77 983b 5743 043b
000000f0: f9f7 a9bb 094c 17bb 68cd e7ba 4074 103b
00000100: 6f0e f2b9 801e ab3a dc02 a1ba d322 043b
00000110: 3d29 593b 2c1b 033b b78a 5fbb 9a7b 363b
00000120: ecf3 ec3a 1a6f dd3a 2030 793b bd0d 6d3b
00000130: 0e49 59ba 9432 323b 8c71 543b bbad 83bb
00000140: 7b4b 0b3b e346 6c3a 1fbd 4b3a df5b 5abb
00000150: 757e d939 9a28 15ba 6710 1bbb 8384 1fba
00000160: 5772 96ba ba3d dab8 ab3e 8ab9 02a7 3cbb
00000170: 4475 b739 e809 0d3b b793 44ba fbcd 27ba
-0.0018400155 -0.00063415413 0.00095222937 0.0044329613 0.0016564252 -0.002275656 -0.0036286502 0.005065105
0.0037432346 0.007509399 0.0030866044 0.0011101877 -0.0012416587 0.0032724626 -0.00038012536 -0.0017764141
-0.0045864205 0.0027677475 -0.0026846894 -0.000581645 0.0018647059 0.001893385 0.0020211397 -0.00055356754
0.0020985254 -0.0012522719 0.0051416624 0.00067341427 0.0010542922 2.5593134e-05 0.0059893923 0.004208796
0.0043022255 -0.0055241077 -0.0029013462 0.00095490535 0.002603651 0.0042296234 0.0062573883 -0.001552454
0.0043467926 0.00069466984 -0.0010895156 -0.0066957506 -0.0006953657 -0.0025093886 0.0026885353 -0.0005455097
-0.0031757506 -0.0031188724 0.0013079862 -0.0015255625 0.00082396803 -0.00437037 0.0005479558 0.0023663351
-0.00032524523 -0.0026001749 0.004652953 0.002018174 -0.0051870313 -0.0023086092 -0.0017685117 0.0022041947
-0.0004616859 0.0013055354 -0.0012284177 0.0020162358 0.0033136152 0.002000521 -0.003410978 0.0027844668
0.0018078065 0.0016894073 0.003802307 0.0036171519 -0.0008288779 0.0027190791 0.0032416312 -0.004018513
0.0021254707 0.00090132485 0.00077720167 -0.003331892 0.00041483683 -0.0005689949 -0.00236609 -0.00060851144
-0.0011478168 -0.000104065475 -0.00026368102 -0.0028786068 0.0003499185 0.0021520797 -0.0007498818 -0.0006401238
