cnn/models/houston/houston3pmodel06-16-13-25-12_0-9026661706349207.pkl (torch, 979001 bytes, 131 tensors)

weight f4 [96, 144, 3, 3]
000000 44 79 ba bb 0e a4 00 3c 62 91 e6 bc e8 aa d1 bc
       -0.0056907255 0.007851614 -0.028145496 -0.02559419
000010 ef 7e 8c bc 15 a5 b6 3a 51 88 a7 bb b2 95 81 3c
       -0.01715037 0.0013934696 -0.0051126857 0.01581845
000020 f7 d3 d8 bb f2 c6 4c b9 48 a4 89 bc 04 ee 4d bc
       -0.006617065 -0.00019529069 -0.016801968 -0.012568954
000030 0a 82 07 bd fa 4d d9 bc bc f3 97 bc 10 61 96 bb
       -0.033083 -0.02652644 -0.018548839 -0.0045892075
000040 60 ea 80 3b 36 41 31 3c 3b 91 d2 bc b1 f5 a8 bc
       0.0039341897 0.01081877 -0.025704017 -0.020624967
000050 42 44 3b 3b 87 58 78 3c 4c 23 6d bc b9 45 57 3c
       0.002857462 0.015157825 -0.014473747 0.013139182
000060 7a 86 1a bc e9 b3 61 bb 63 90 a0 3c 07 66 0a bd
       -0.009431476 -0.003443951 0.019600099 -0.033788707
000070 47 21 e0 bc 07 8e 76 bc 0b 08 9f bc 6e bb 54 3c
       -0.027359618 -0.01504851 -0.019413015 0.01298414
000080 b0 7f d2 bc 00 b9 94 bc 6c be d5 bc e0 64 00 bd
       -0.025695652 -0.018154621 -0.026091777 -0.031346202
000090 7e 40 cb bc 3f 1b 49 3c 4d e8 65 3b 74 51 71 3b
       -0.024811026 0.012274562 0.003508109 0.0036822231
0000a0 f3 1c 25 bc 17 ea b6 bc ac de 7c ba 05 69 05 bd
       -0.010077703 -0.02232842 -0.0009646218 -0.032570858
0000b0 ee 2a d4 bc ba c7 b0 bc 66 69 ee 3b cc 9e 0e 3c
       -0.025899377 -0.021579612 0.007275748 0.008704852
0000c0 db 78 a8 bc 42 9e 3a bc e6 29 24 3c 4e 18 b9 3c
       -0.02056544 -0.011390271 0.010019755 0.022594597
0000d0 9c 0b 97 3b 85 99 b2 ba 91 6d 1d 3c c2 58 df bc
       0.0046095382 -0.0013626075 0.009608642 -0.027264003
0000e0 73 28 57 bb 75 6d fc bc 2d c7 fc bc 40 53 b4 bc
       -0.0032830506 -0.030813912 -0.030856693 -0.022012353
0000f0 9a 9d fc 3b f2 63 8e 3b 5f 55 b1 bc 9e 0c 48 b7
       0.0077092173 0.0043454105 -0.021647153 -1.1923867e-05
000100 f0 30 89 3b 3f 7f 34 bc ef 2e 13 bc da c8 cb bb
       0.004186742 -0.011016666 -0.008983358 -0.0062190117
000110 53 37 0f 3c 04 52 b4 3c 6b 23 de bc c1 d3 7b bc
       0.008741218 0.022011764 -0.027116498 -0.01537031
000120 dc 5b c5 3b 15 6a 76 3c 82 4c a2 3c e8 67 86 3c
       0.0060229134 0.01503994 0.019811872 0.016406968
000130 66 c8 8a bb f9 95 e1 bc 4f a2 74 3b 65 d9 93 bc
       -0.004235315 -0.027537333 0.0037328189 -0.018047998
000140 47 8b d9 bc ac e8 a5 3c de 04 67 3c 25 a2 f2 bc
       -0.02655567 0.020252548 0.0141002815 -0.029618332
000150 fb 15 20 bb 4d df 5f bc 24 15 ed bb 8d 11 1a bc
       -0.0024427164 -0.013664079 -0.007235186 -0.0094035985
000160 5e a5 38 3c 83 96 85 bc c2 cf 00 3c 59 34 17 3c
       0.011269895 -0.016307121 0.007862033 0.009228789
000170 35 5b 9e 3c b6 ad 75 3b 41 05 0f bd 66 2a 9c bc
       0.0193306 0.0037487573 -0.03491712 -0.019063186
000180 ab b4 98 3c a7 97 07 3c 07 5f a6 bc e8 22 7e bc
       0.018640837 0.008275903 -0.020308984 -0.015511252
000190 05 87 c3 3c 4c 03 ab 3c 08 02 8b bc 64 10 50 bc
       0.023868093 0.020875596 -0.016968742 -0.01269922
0001a0 11 8c cc bc 56 d5 e4 3b f2 15 7c bc 30 6b 96 bc
       -0.024969133 0.0069834394 -0.015386092 -0.018361658
0001b0 f9 bd df b9 d9 5d 56 3b 7f b0 f6 bb 5e b4 3c 3c
       -0.00042675415 0.0032709746 -0.007528364 0.011517612
0001c0 65 7a b3 bc a4 ab d7 3c 58 18 df 3c 9c 5a 88 bc
       -0.021908948 0.026326962 0.027233288 -0.016644768
0001d0 26 42 58 bb 42 b9 b9 3a 86 57 38 3b 2b e1 1c 3c
       -0.0032998412 0.0014169591 0.002812834 0.009575169
0001e0 12 3a a8 3b 39 80 86 bb c4 cf 47 bc 50 4a ac 3c
       0.0051338756 -0.004104641 -0.012195531 0.021031529
0001f0 7d e2 a6 bc a7 b9 5a bc bd 7e 0f bc 63 d3 89 bc
       -0.02037167 -0.013349927 -0.008758244 -0.01682443
000200 bb cc 0a bc fc 82 f1 bc a7 ca 68 bc b0 23 89 3b
       -0.008471663 -0.029481404 -0.014208472 0.0041851625
000210 6a 20 43 bc a8 c1 b5 3a 73 42 a0 3c a0 6a 75 bb
       -0.011909584 0.0013866918 0.019562935 -0.0037447587
000220 52 b1 cf ba 14 6a 4a 38 67 43 e3 ba ce 74 1a 3c
       -0.0015845692 4.8259346e-05 -0.0017338813 0.0094272625
000230 19 99 cd 3c 07 07 c8 3c 00 2f f6 3c aa 83 97 ba
       0.025097417 0.024417413 0.030051708 -0.0011559625
000240 9b bc d2 bc 79 3b 7e bc 8d e2 aa 3c 42 4a 0f bc
       -0.0257247 -0.015517109 0.020859981 -0.008745732
000250 0e cc b8 bc cc 67 b2 bc e2 39 95 bc 57 a9 97 bc
       -0.022558238 -0.02177801 -0.018216077 -0.018513365
000260 e2 22 a3 bb 20 ff 61 3c 8f fc 47 3c 93 7a bf bc
       -0.0049785236 0.013793737 0.012206211 -0.023373878
000270 6d 74 ff 3b d8 c0 f7 bc fe ee cb bb e8 72 25 bb
       0.0077958615 -0.030243322 -0.0062235584 -0.0025245491
000280 ec d7 16 3a 5e b9 8d bb 40 75 dd bc fe 02 df bc
       0.0005754221 -0.004325076 -0.027033448 -0.027223106
000290 0e 6e 19 bb d6 71 30 bc 2a 21 c0 bc ef e5 07 3c
       -0.0023411545 -0.010769328 -0.023453314 0.008294567
0002a0 b4 52 8a bc 0b b7 3e 3b d7 dd c1 3c db c5 70 bc
       -0.016885139 0.0029100801 0.023665352 -0.01469561
0002b0 80 bf a3 3c b1 bb 36 3c 8b b4 17 bd d2 df 93 3b
       0.019988775 0.011153148 -0.037037414 0.0045127654
0002c0 62 d7 d0 bb d3 b2 ae bb 18 20 d2 3c 2c fe bf bc
       -0.006373332 -0.005331376 0.02565007 -0.023436628
0002d0 d9 22 10 ba 8b 29 21 bc 00 62 ac 3c 9e f7 9c bb
       -0.0005498357 -0.009836565 0.021042824 -0.0047902605
0002e0 c4 cd 52 3a 46 5e e3 3b 08 85 0e 3a 87 48 c6 ba
       0.0008041526 0.0069387285 0.00054366933 -0.0015127816
0002f0 8e 72 c3 bc 93 e0 39 3c 8b a8 90 3c 84 6d a8 3c
       -0.023858335 0.011345047 0.017658493 0.020560034
000300 04 d7 03 bd aa 83 3f bc 86 4a b3 bc 40 a9 fc bb
       -0.032187477 -0.011689106 -0.021886121 -0.007710606
000310 81 84 3d bc 87 34 fd 3b db 23 ab bc 6a 26 c6 bb
       -0.011567236 0.007727209 -0.02089112 -0.00604706
000320 b5 bc da 3a 4e ad 67 3b e8 d0 0d bd 22 54 bb bc
       0.0016688319 0.00353511 -0.034623057 -0.022867266
000330 86 1d 23 bc 56 35 b1 3c 27 13 52 bc 81 11 89 3c
       -0.009955769 0.021631878 -0.012821949 0.01673198
000340 49 c1 52 3b e5 10 47 3b 78 fe 7a bc e6 01 a9 bc
       0.0032158664 0.003037506 -0.015319459 -0.020630788
000350 04 b9 f8 ba 76 37 bb ba 8f 2a b8 3a 62 88 3c ba
       -0.0018976037 -0.0014283496 0.0014050769 -0.00071919535
000360 d9 8d e4 bc a8 3a ad bc 72 c9 ad 3c 8c 43 1b bd
       -0.02789967 -0.021146134 0.02121422 -0.037906215
000370 ab fb 92 bc ae 65 ab 3c 77 33 5f 3c f5 c8 af 3a
       -0.01794227 0.020922508 0.01362311 0.001341133
000380 b7 14 eb bc 88 18 f1 3b b2 3d d0 bc aa d8 ff bb
       -0.028696401 0.0073576607 -0.025420044 -0.007807811
000390 d5 0c c8 bc b3 b1 9b bc 42 1c a6 bb 49 45 df 3c
       -0.024420181 -0.019005632 -0.0050692866 0.027254717
0003a0 14 d4 a3 3b 83 d4 a3 3c 79 c8 16 3c 0e f3 c7 bc
       0.004999647 0.019998794 0.00920307 -0.02440789
0003b0 71 15 2c 3c 42 f1 0f bd 80 64 e0 bc 23 55 bc 3a
       0.010503159 -0.03514219 -0.027391672 0.0014368634
0003c0 f6 92 3e 3c 97 09 a7 3c f3 55 70 bc d2 29 00 bc
       0.011631718 0.020390315 -0.014668929 -0.007822471
0003d0 38 d8 ca 3b 9a 3f e6 bc 2f 00 4d 3b 93 a9 1e bd
       0.006190326 -0.0281065 0.0031280627 -0.038735937
0003e0 53 ee ce bb 13 12 05 bb 3c 28 6b bc ab c4 20 bb
       -0.0063150316 -0.0020304963 -0.014352854 -0.0024531286
0003f0 66 f3 69 3c b3 f6 82 bc cd 73 94 bc d0 bd dc bc
       0.014279222 -0.015986776 -0.018121624 -0.026945978

weight f4 [96]
000000 b8 03 7d 3f 79 37 79 3f d9 4a 7a 3f dd 26 7b 3f
       0.988338 0.9735027 0.9777046 0.98106176
000010 59 70 79 3f e7 78 79 3f 07 57 7b 3f ad cc 78 3f
       0.97437054 0.9745011 0.9817967 0.9718731
000020 01 a4 7a 3f 56 10 7b 3f 6c 9e 7a 3f e2 1c 79 3f
       0.979065 0.980718 0.9789798 0.97309697
000030 93 62 78 3f 79 c4 79 3f 5a 4f 7a 3f a1 36 7b 3f
       0.9702541 0.9756542 0.9777733 0.9813023
000040 d0 e1 7a 3f 83 24 79 3f 50 fd 78 3f 69 a2 7b 3f
       0.9800081 0.9732134 0.97261524 0.98294693
000050 18 9f 7c 3f a1 01 7b 3f de 44 7b 3f ce b6 7c 3f
       0.9868026 0.9804936 0.9815196 0.9871644
000060 c9 9b 7a 3f f2 1e 7b 3f 2f 85 7a 3f 5d 76 7b 3f
       0.9789396 0.98094094 0.9785947 0.98227483
000070 ec fb 7a 3f d8 29 79 3f 16 41 7c 3f a6 94 7c 3f
       0.9804065 0.97329473 0.98536813 0.9866432
000080 e0 55 7a 3f 53 7b 7d 3f cc 4d 7a 3f 45 43 78 3f
       0.97787285 0.990163 0.9777496 0.96977645
000090 8a cd 7a 3f 84 84 7b 3f fd 20 7a 3f 08 08 7a 3f
       0.9796988 0.9824908 0.97706586 0.97668505
0000a0 c7 38 7b 3f 54 32 7c 3f 4a 3f 7b 3f 90 42 79 3f
       0.9813351 0.98514295 0.98143446 0.9736719
0000b0 15 9d 7a 3f 07 3a 7a 3f 09 f9 78 3f bd ed 7a 3f
       0.9789594 0.9774479 0.97255 0.9801901
0000c0 d7 c3 79 3f b2 a1 7b 3f 4a 2a 7b 3f 97 61 7d 3f
       0.9756445 0.982936 0.98111403 0.98977035
0000d0 1d 2a 79 3f 85 56 7a 3f d1 1f 79 3f 03 44 7c 3f
       0.97329885 0.9778827 0.97314173 0.9854128
0000e0 ca 2b 77 3f 2a 37 7c 3f b1 ba 79 3f a4 2c 7c 3f
       0.9655119 0.98521674 0.97550493 0.98505616
0000f0 b6 94 7d 3f eb 9f 79 3f 7b f3 79 3f 76 38 7a 3f
       0.9905504 0.9750964 0.97637147 0.977424
000100 4d 2b 7d 3f 2d fd 7a 3f ae 57 77 3f 36 90 7a 3f
       0.98894197 0.98042566 0.96618164 0.978763
000110 c0 ae 79 3f 87 60 7a 3f f7 0d 7c 3f 45 ab 79 3f
       0.9753227 0.9780354 0.9845881 0.9752696
000120 7a 08 7b 3f 9a d4 7a 3f 26 7d 7b 3f 1f fc 7a 3f
       0.9805981 0.97980654 0.98237836 0.98040956
000130 ce d7 78 3f c4 ad 7a 3f a0 e3 78 3f fe 54 7c 3f
       0.9720429 0.97921395 0.9722233 0.9856719
000140 58 c6 7a 3f 93 62 7a 3f 41 99 79 3f 09 43 7b 3f
       0.979589 0.9780666 0.9749947 0.9814916
000150 8c 4d 7d 3f fd a2 78 3f 55 d3 79 3f 99 14 79 3f
       0.9894645 0.971237 0.9758809 0.97297055
000160 83 2a 78 3f 25 c7 7a 3f 06 a6 7a 3f 5c c7 79 3f
       0.9693987 0.9796012 0.9790958 0.97569823
000170 58 09 7b 3f 76 c9 7a 3f 48 34 7a 3f f2 41 79 3f
       0.9806113 0.97963655 0.97736025 0.9736625

bias f4 [96]
000000 f4 31 0e 3c 9c da 31 3c 70 53 9b bb f3 38 5a bb
       0.008678902 0.010855343 -0.004740171 -0.0033298105
000010 2e fd 88 3a a8 38 9c ba 9b 64 51 3b 38 c5 bc bb
       0.001045143 -0.001191874 0.0031950835 -0.005760815
000020 49 a1 af 3b ea 69 c8 ba 59 aa fd 3b 7f d2 08 bb
       0.005359803 -0.0015290354 0.0077412543 -0.0020877419
000030 56 e6 19 3c 28 f9 c9 bb 2c c7 0a bb 7f c5 d1 bb
       0.009393295 -0.006163735 -0.0021175845 -0.006401717
000040 f2 80 c5 3a d0 3e 16 3c 9f 81 16 bc c6 dc dc 3a
       0.0015068336 0.009170249 -0.0091861775 0.0016850464
000050 42 23 b2 bc e6 90 3a 3b 95 27 05 bb 2b 2b 81 bb
       -0.021745328 0.0028467714 -0.0020317782 -0.0039419136
000060 80 9e c6 bb db e8 ce 3b 08 12 44 bb 21 5b 2e bb
       -0.006061375 0.0063143796 -0.0029917974 -0.002660461
000070 db ee af 3b 28 fc 69 bb 8a f7 e0 3b 83 a3 0e 3b
       0.00536905 -0.0035703275 0.0068654465 0.002176494
000080 10 a0 8e bb c2 c9 da 3b 67 a2 d3 bb 60 79 d2 ba
       -0.004352577 0.0066768834 -0.006458569 -0.0016057901
000090 4b 98 3d bc a8 57 57 bb fb 4c 47 bb a2 58 c0 b9
       -0.011571954 -0.0032858644 -0.0030410874 -0.0003668713
0000a0 a4 78 34 ba ac 35 6c 39 6b cb 90 bc 24 54 9c 3b
       -0.0006884432 0.00022526708 -0.017675122 0.0047707725
0000b0 16 e0 cf bc 2d 0f 69 bc fd 4d ba bb 47 8f ad ba
       -0.025375407 -0.01422481 -0.0056855665 -0.0013241553
0000c0 be da 8a bb 3e ba 45 bc a1 62 85 ba 7e d1 d5 bb
       -0.004237502 -0.012068329 -0.0010176488 -0.0065252176
0000d0 16 4c 12 bc 6c 7e 54 ba 26 85 54 bc 20 dc 87 3b
       -0.008929273 -0.00081059965 -0.012971198 0.004146114
0000e0 5e 75 1d 3c e4 b3 1e 3a e0 83 29 3b f5 83 dd bb
       0.009610502 0.00060540275 0.0025865957 -0.0067601153
0000f0 75 e0 bb bb c9 4f 10 bc b9 e2 12 bc b4 f6 f3 bb
       -0.0057335445 -0.008808085 -0.008965188 -0.007445181
000100 2e d7 e2 bb 29 ec 40 bb da 8e 2d 3b 7d 2d 7e 3c
       -0.006922624 -0.0029437637 0.0026482851 0.015513775
000110 5f 9c df bb c1 48 c0 bc c4 8c 1b bc 8b 80 ca 3b
       -0.006824061 -0.023472192 -0.00949401 0.0061798743
000120 5a 78 c3 3a 55 15 ae 39 8f 60 07 bc 7f ce 96 39
       0.0014913187 0.0003320376 -0.008262767 0.0002876408
000130 55 25 71 bc 69 de 9b bb bc ed 81 3b cb 6a ce 3b
       -0.014718373 -0.004756738 0.0039651077 0.006299352
000140 79 b3 43 3c 1a 69 d4 bb a2 81 a3 bc 68 b3 22 bc
       0.011944645 -0.0064822556 -0.019959275 -0.009930469
000150 89 32 bb 3b eb 7e 07 bc f8 ac b4 bc b0 68 4e bc
       0.0057128114 -0.008270006 -0.022055134 -0.012598202
000160 7f c1 14 3c 23 6e 01 bc 0a c3 bc 39 96 c1 d1 3a
       0.009079336 -0.007899794 0.0003600347 0.0016003128
000170 f0 ef df bb ed 5c f0 3b ae 1d 45 bc 46 bb f0 3b
       -0.0068340227 0.0073352964 -0.012031002 0.0073465435

running_mean f4 [96]
000000 4b 03 3d c5 1b 27 c9 45 e0 ef 32 c5 f5 16 e3 c5
       -3024.2058 6436.888 -2862.9922 -7266.8696
000010 de 22 1c c5 eb a0 28 44 b3 8d ba 45 d0 cd 7b c5
       -2498.1792 674.51434 5969.7124 -4028.8633
000020 d2 b0 dc 44 0e df 1a 45 fa ca cd 44 f2 f1 4a c5
       1765.5256 2477.941 1646.343 -3247.1216
000030 13 9c 0a 45 d7 b6 7d c5 07 3c a6 45 f5 d2 46 c5
       2217.7546 -4059.4275 5319.5034 -3181.1848
000040 dc 45 73 c5 b7 b6 8c 45 50 0c 9f 45 34 99 b4 44
       -3892.3662 4502.8394 5089.539 1444.7876
000050 27 74 3e c5 6d 43 74 44 76 1a 43 44 27 85 5b c5
       -3047.2595 977.0535 780.41345 -3512.322
000060 e9 b5 81 c5 2d 87 e9 c4 62 4f 2e c5 0d 27 be c4
       -4150.739 -1868.2242 -2788.9614 -1521.2203
000070 7c 2f de c5 1f 52 a8 c5 d7 84 24 45 30 4e 22 c5
       -7109.9355 -5386.265 2632.3025 -2596.8867
000080 ff 4f 35 c4 46 a0 46 c5 ee dd 9c c3 ee 6c c0 c5
       -725.24994 -3178.017 -313.73383 -6157.616
000090 20 1a 37 c5 c9 19 33 45 7a a1 65 c5 d3 ad 2f 45
       -2929.6328 2865.6116 -3674.0923 2810.864
0000a0 a2 be 28 45 31 1b 2a c5 5c d5 e9 c5 6a ba 1e c5
       2699.9146 -2721.6995 -7482.67 -2539.651
0000b0 da b0 69 c5 95 4b 08 c5 f8 a0 fc c4 e2 e0 02 45
       -3739.0532 -2180.7239 -2021.0303 2094.0552
0000c0 4d 4f af 45 2c 38 06 c5 97 5d c6 c4 6e 63 fe 44
       5609.9126 -2147.5107 -1586.9247 2035.1072
0000d0 18 55 12 c5 a7 40 6d c3 bd 3c c0 45 0c c3 05 46
       -2341.3184 -237.25255 6151.5923 8560.762
0000e0 63 13 f9 45 21 54 71 c5 78 6c 0e c4 3a c4 15 c5
       7970.4233 -3861.258 -569.6948 -2396.2642
0000f0 1a f4 e7 c4 fb 53 87 43 46 a1 51 45 88 67 7e 43
       -1855.6282 270.6561 3354.0796 254.40442
000100 6e 18 78 44 6c d9 84 c5 8a 0e 1d 45 4a 1c 1e 45
       992.3817 -4251.1777 2512.9087 2529.768
000110 dd c4 a9 c5 9a 6c 51 c5 f2 d0 35 45 e4 af 12 45
       -5432.608 -3350.7876 2909.059 2346.9932
000120 b2 b4 29 c5 25 bd ec c4 2f 2e 53 c5 35 60 a0 c3
       -2715.2935 -1893.9108 -3378.8865 -320.75162
000130 97 0c 92 c5 fc 94 f1 44 04 3f eb 45 3f 37 19 45
       -4673.5737 1932.6558 7527.877 2451.453
000140 4c e3 b6 45 a1 f9 49 c4 91 45 83 c5 36 2a 1b 46
       5852.412 -807.90045 -4200.696 9930.553
000150 8f c0 61 c4 4b 5a 8f c5 40 56 44 c5 3f 51 18 c5
       -903.0087 -4587.2866 -3141.3906 -2437.078
000160 cd 66 40 45 e4 b8 43 c5 55 c6 3f 45 c6 b7 10 45
       3078.425 -3131.5557 3068.3958 2315.4858
000170 13 50 cf c5 90 4f 0e c5 77 5e 91 c5 b1 80 0e 45
       -6634.0093 -2276.9727 -4651.808 2280.0432

running_var f4 [96]
000000 b0 cb 05 4a d5 1d 57 4b bc ee 1b 4b b6 da 70 4b
       2.192108e+06 1.4097877e+07 1.0219196e+07 1.578463e+07
000010 09 5c 0a 4b 9d 4b 9b 4b 4e 06 56 4b 78 d9 62 4b
       9.067529e+06 2.0354874e+07 1.4026318e+07 1.4866808e+07
000020 67 66 6c 4a 94 ff 44 4a b3 d7 84 4a 27 b2 18 4b
       3.8731778e+06 3.227621e+06 4.3529855e+06 1.0007079e+07
000030 1a 4f 82 4a 55 02 1a 4b 08 12 0e 4b 9b 62 03 4b
       4.269965e+06 1.0093141e+07 9.310728e+06 8.610459e+06
000040 10 4a 94 4a 16 06 07 4b d6 16 00 4b 59 87 8d 4a
       4.859144e+06 8.848918e+06 8.394454e+06 4.6376125e+06
000050 f0 3d 7c 4a a7 c7 1a 4a f2 95 b7 4a 5e 2d 48 4a
       4.132732e+06 2.5359138e+06 6.015737e+06 3.2797035e+06
000060 1a 2e d1 4a 8f ec 53 4b fc bf 66 4b 76 43 af 49
       6.854413e+06 1.3888655e+07 1.5122428e+07 1.4357588e+06
000070 93 4f 52 4b 03 99 49 4b 42 3d 6b 4a 7b f6 04 4a
       1.3782931e+07 1.3211907e+07 3.8541605e+06 2.1784628e+06
000080 1f f1 2e 4b 19 e8 35 4a f0 d8 24 4b 9c e3 3b 4b
       1.1464991e+07 2.9803582e+06 1.080344e+07 1.23135e+07
000090 aa 68 da 4a 47 48 8e 4a 68 49 fd 4a 2d 70 25 4a
       7.156821e+06 4.6623075e+06 8.2997e+06 2.7105392e+06
0000a0 4f 8a 41 4a b6 a5 0f 4a bc c6 a2 4b 25 dd ed 49
       3.1709638e+06 2.3535175e+06 2.1335416e+07 1.9485806e+06
0000b0 97 fb 97 4a e7 8b ab 4a 5c 21 e1 4a 5a 2b 05 4a
       4.9801715e+06 5.6212355e+06 7.37707e+06 2.1818465e+06
0000c0 af 56 26 4b 8d 2a d7 49 ba 1d 83 4b 9e bc 01 4a
       1.0901167e+07 1.7626416e+06 1.7185652e+07 2.1256075e+06
0000d0 98 98 ac 4a 68 ee df 4a 8e a3 4b 4b f1 7f aa 4b
       5.655628e+06 7.33778e+06 1.3345678e+07 2.2347746e+07
0000e0 42 e2 9c 4b 3c e6 85 4a ea 92 09 4b 5e 9f d8 4a
       2.0563076e+07 4.387614e+06 9.016042e+06 7.098287e+06
0000f0 58 12 9d 49 d5 dd 78 4a fd 14 3d 4a c6 02 de 4a
       1.286731e+06 4.0774292e+06 3.0979192e+06 7.274851e+06
000100 88 41 cb 49 b4 9b ad 4a 6d fd 7a 4a fc b7 31 4b
       1.665073e+06 5.688794e+06 4.1122192e+06 1.1646972e+07
000110 83 7e 0e 4b 93 70 74 4a 6c c3 58 4a a4 7d 92 4a
       9.338499e+06 4.0049008e+06 3.551451e+06 4.80021e+06
000120 ce 53 95 49 ac 8a 40 4a df d5 86 4a 3d b9 54 4b
       1.2232898e+06 3.154603e+06 4.4182875e+06 1.3941053e+07
000130 fc 17 df 4a 63 5a 04 4b 93 96 78 4b 63 5c 2e 4a
       7.310334e+06 8.673891e+06 1.6291475e+07 2.8567288e+06
000140 9c 12 4f 4b 7c 23 56 4b fa 9e ed 4a 6c 5d db 4b
       1.3570716e+07 1.4033788e+07 7.786365e+06 2.87526e+07
000150 c7 e5 78 49 1f 1c 0c 4b 80 27 ad 4a d3 1b 95 4b
       1.01948444e+06 9.182239e+06 5.67392e+06 1.9543974e+07
000160 20 42 8c 4a 2f b5 1d 4b 43 d2 55 4a a3 3d bf 49
       4.595984e+06 1.0335535e+07 3.5032488e+06 1.5666444e+06
000170 49 56 80 4b c5 e9 bb 4a 6a 74 1d 4b d1 9c 76 4a
       1.6821394e+07 6.1575385e+06 1.0318954e+07 4.0405002e+06

weight f4 [32, 96, 1, 1]
000000 b1 bd 6c bc 49 b7 54 3d 64 3b 36 bd a3 24 20 bd
       -0.014449523 0.051932607 -0.044490233 -0.03909744
000010 c0 ee 01 3d 2e 65 c7 3d 4d 11 69 38 db bf 41 3d
       0.03172183 0.09736095 5.556764e-05 0.04730211
000020 9b 4b aa bd f2 57 4f bc 2d 38 d2 3d 1b 67 95 3c
       -0.08315202 -0.012655245 0.10264621 0.018237641
000030 cb 98 f1 bc 7c 85 79 bd 5c e5 eb bc 85 1b 7b bb
       -0.029491803 -0.060918316 -0.02879589 -0.0038315963
000040 86 29 3a 3d f8 4f 11 bd 36 ba 5d 3d 9c 5a 77 bd
       0.045449756 -0.035476655 0.054132663 -0.060389146
000050 48 f5 85 3b d6 c5 ec 3b ec 3d 95 bd e0 38 74 bd
       0.0040880777 0.0072257323 -0.07287201 -0.059624553
000060 9b 90 b2 bd dd 96 db bc 69 12 82 3d 17 aa f3 bd
       -0.087189876 -0.026805336 0.06351168 -0.118976764
000070 2d a1 f6 bb 41 d2 9c 3d 30 92 b0 3d 38 b3 9d bd
       -0.007526538 0.0765729 0.08621633 -0.07700199
000080 36 1f 12 bd 2c de d0 3c 3d 86 06 bd dc 49 d8 3c
       -0.035674296 0.025496565 -0.032842863 0.026402406
000090 e5 9c 22 3d 52 50 3f 3d 8b 94 d9 bc 1d d4 1f bd
       0.039700408 0.04670746 -0.026560089 -0.039020646
0000a0 36 6b 81 3d 3f 36 53 3d 4d 25 3d 3d 3f 93 6a 3d
       0.06319277 0.051565405 0.04617815 0.05726933
0000b0 0b be d2 bc ff 5b 5e 3d 64 82 5d bd 2e 04 54 bd
       -0.025725385 0.054286953 -0.05407943 -0.0517618
0000c0 da dc bf bd d8 7e a2 bd 28 2e 42 bd 4d ff 96 bd
       -0.09368296 -0.0793435 -0.0474073 -0.073729135
0000d0 f5 01 a2 3d 24 92 d4 3a 36 98 cb 3d e5 a6 3e 3d
       0.079105295 0.001621787 0.09941141 0.04654588
0000e0 cd d3 8f bd ce b8 6f bd 0a 0a cd bd 3a bf 71 3d
       -0.0702282 -0.058525853 -0.100116804 0.05902026
0000f0 f9 b3 3d 39 f3 c3 54 bd 00 aa 88 3b c4 6c 19 bc
       0.0001809149 -0.051944684 0.004170656 -0.009364311
000100 28 2e 9d 3d 80 ad cd bd ee c8 8d 3d 0d 8e 94 bb
       0.07674819 -0.10042858 0.0692309 -0.0045335353
000110 98 3a 75 3d 3d 08 28 bd c0 29 bd bd 08 30 35 bd
       0.059870332 -0.04102348 -0.09236479 -0.04423526
000120 66 26 a0 bd af 84 67 3d 14 ef e8 3c 2f e4 c8 bd
       -0.07819824 0.05652302 0.028434314 -0.098091476
000130 04 f6 ba bc 80 ab e5 bc 26 61 e3 3c 9b 7a 92 3d
       -0.022822388 -0.02803588 0.027756285 0.071522914
000140 b4 a3 af 3d c4 e1 1e 3d a4 a3 39 bc e5 8f 8f bd
       0.08576146 0.038789526 -0.011330519 -0.070098676
000150 b6 9f b6 3d 27 97 88 bd 0b 50 b5 3c 4e 4c 79 bd
       0.08917181 -0.06669455 0.022132894 -0.060863785
000160 67 11 58 bd 5b f8 d1 3c de c9 b6 bd e7 ad 89 bc
       -0.05275097 0.02563112 -0.08925222 -0.016806556
000170 31 7e 97 3d 6d d5 10 bd a0 72 08 bd ae ab 50 bd
       0.07397116 -0.03535979 -0.03331244 -0.050944977
000180 d3 24 1d bd f0 ef 34 3d c6 3a 12 bd 50 d6 6f 3c
       -0.038365196 0.044174135 -0.035700582 0.014638498
000190 fc a4 74 bc d0 2a 11 bd 6c ce dd bc 98 c7 dd bc
       -0.014931913 -0.03544122 -0.027075969 -0.027072713
0001a0 77 34 02 3d fb f4 40 3d 8e 4e 51 3d 10 c5 86 3d
       0.031788316 0.04710863 0.051100306 0.065805554
0001b0 e9 be d8 bc 77 25 a7 bd c9 03 10 3d 48 e1 a9 bd
       -0.02645822 -0.08161443 0.03515986 -0.08294922
0001c0 20 51 41 3d f6 ae 48 3d ed 2a aa 3d 98 0a 17 3d
       0.047196507 0.04899498 0.08308969 0.036875337
0001d0 58 63 ab 3d 00 0f 04 3d 53 bb 9c 3c 24 69 0d bd
       0.08368558 0.032240868 0.019132292 -0.034524098
0001e0 c8 60 ad 3d fc bb 13 3d ef 60 92 bd f0 55 89 3d
       0.08465725 0.036067948 -0.07147395 0.067058444
0001f0 97 69 e3 bc 4a e8 89 bd be 76 e1 bc 75 a9 84 3d
       -0.02776031 -0.06733759 -0.027522441 0.06477634
000200 2f e9 7f 3d 82 ec 8e 3d 2c 03 bf bd dc 43 b2 3d
       0.06247824 0.06978704 -0.09326777 0.087043494
000210 91 36 c4 bd e4 71 d2 3c 84 0e ae bd 88 23 0e bd
       -0.0958072 0.025689073 -0.084988624 -0.034701854
000220 ba f4 86 3b 02 28 40 bd 8f 52 85 bd d4 e1 a4 3d
       0.004118529 -0.046913154 -0.065098874 0.08050886
000230 bc 0b 7e bd dd 4f 95 3d 0e 7d f6 bc 23 77 2a 3d
       -0.06202291 0.07290623 -0.030088928 0.041617524
000240 e5 ec 78 bc 0e 90 4f 3c 4f 24 9b bd b5 90 a4 bc
       -0.015193199 0.012668623 -0.07575285 -0.020088533
000250 e1 89 a0 3d dc 02 5c 3d 05 9b fd 3c 80 1c 38 3c
       0.07838798 0.053713664 0.030957708 0.011237264
000260 55 1b 60 bd 2c 60 ab bd bd 90 ae bc e2 2b c8 bd
       -0.054713566 -0.08367953 -0.021309251 -0.09773995
000270 1c 8a 5b bc 2a b8 9a 3d 6a e9 13 3b 2d 98 88 bc
       -0.013399627 0.07554658 0.0022569546 -0.016674126
000280 5d 2b 86 bd 09 c3 4f bd 85 43 70 bc 57 6b 8b 3d
       -0.0655124 -0.05072311 -0.014664535 0.06807583
000290 40 e1 32 bd 60 5c 7f bd 0e d5 ab 3d 86 8c 08 bd
       -0.043671846 -0.062343955 0.08390246 -0.03333714
0002a0 6b 75 18 3d cb 5c ce 3d b5 7a 9c bd 12 db cd 3c
       0.037221354 0.100762926 -0.07640592 0.025128875
0002b0 f0 06 9b 3b 40 86 8e 3d 1b 8b b0 bd 79 60 b7 bc
       0.0047310516 0.069592 -0.08620282 -0.022384869
0002c0 4b 93 bb bd 15 10 8c bd 70 1e 23 bd fe c3 4a bc
       -0.09158953 -0.06839005 -0.03982395 -0.01237583
0002d0 f2 11 50 3d 13 08 b5 bc d4 59 7f 3d 60 5f f7 bb
       0.050798364 -0.022098577 0.062341526 -0.0075492114
0002e0 8a 95 88 3c 45 0c a5 3b 1f 66 99 3d f3 f4 9b bd
       0.016672868 0.005036863 0.07490181 -0.0761508
0002f0 9e 00 c4 bd 26 e4 78 3d 5b 0b 14 bd ba a7 cc 3d
       -0.0957043 0.060764454 -0.036143642 0.09992929
000300 b2 96 e0 3d 0b 29 0d bd 09 49 3e bd 84 78 95 bd
       0.10966243 -0.03446297 -0.04645637 -0.07298377
000310 a7 c6 0f bd 49 aa ae bd 24 8f 0b bd d4 1a 6a bd
       -0.03510156 -0.08528573 -0.034072056 -0.05715449
000320 e8 65 98 3d 07 b2 ae bd 7a 72 a2 bd 57 8b be bd
       0.07441312 -0.0853005 -0.07931991 -0.09303921
000330 6c 0d 35 bd f5 9c 0c bc 5e 31 b4 bd c3 78 3b bd
       -0.044202253 -0.008582343 -0.087984785 -0.045769464
000340 87 ab c1 b9 86 ca b6 bd 6d c7 c6 3d 94 4a e5 3c
       -0.00036939626 -0.08925347 0.09706006 0.027989663
000350 df 94 a7 3d 71 a4 e8 3c dc 78 6d 3d 10 f3 46 3d
       0.08182692 0.028398724 0.05797659 0.048571646
000360 b2 cd 8c 3d 93 e3 bb 3d 8c 22 ab 3d 3c 68 8d bd
       0.06875171 0.09174266 0.08356199 -0.06904647
000370 4d 8e 96 bd c3 12 08 3d 7c af da 3d d1 c9 a0 bd
       -0.073513605 0.033221018 0.10678002 -0.078509934
000380 78 81 c3 bd 0f 44 38 bd e8 a1 be 3d 83 b5 60 bd
       -0.095461786 -0.04498678 0.09308225 -0.054860603
000390 de 9d 56 bd 9c 99 ca 3d a5 3c b4 bd 5d b2 b7 bc
       -0.052396648 0.0989258 -0.088006295 -0.022423917
0003a0 64 f2 92 3d 5c a7 ed 3b a3 29 19 3d c7 a8 8c bc
       0.071751386 0.007252617 0.037393223 -0.017170323
0003b0 ef 08 b8 3d 60 33 2e bd 3f 4e 1b bd 90 93 93 bd
       0.08986079 -0.042529464 -0.03791642 -0.0720588
0003c0 b9 95 e1 3c 0a ab d9 bc ca a7 88 3d d4 b4 93 3c
       0.027537214 -0.026570816 0.06672628 0.018030562
0003d0 eb 96 80 bd 21 41 43 bd 35 72 b2 bd 9a 21 4e bd
       -0.06278785 -0.047669534 -0.087131895 -0.050325014
0003e0 b7 c0 14 3d 7c 2b 94 3c f4 e3 87 3b af eb b2 3d
       0.0363166 0.018087141 0.004147047 0.08736359
0003f0 49 fe 13 3d 5c b7 14 3d 65 13 2d 3c 1c 36 bb bd
       0.036131177 0.036307678 0.010563706 -0.0914118

weight f4 [32]
000000 c2 e5 7b 3f d8 55 7e 3f 4f 20 7c 3f 38 23 7a 3f
       0.9839746 0.9934974 0.984868 0.9770999
000010 78 40 79 3f ff ea 7d 3f 93 7c 7b 3f 6a 6c 7b 3f
       0.97363997 0.991867 0.9823696 0.982123
000020 6d 24 78 3f c4 fc 7b 3f 55 09 7d 3f 78 55 7a 3f
       0.9693058 0.98432565 0.98842365 0.97786665
000030 86 37 7b 3f 77 38 7d 3f a7 46 7b 3f 61 16 7f 3f
       0.981316 0.98914284 0.9815468 0.9964352
000040 dc f0 7a 3f 69 76 7a 3f fd c7 7c 3f 01 e5 7f 3f
       0.9802377 0.9783693 0.9874266 0.9995881
000050 1d 7f 7b 3f d2 6b 7b 3f 85 57 7e 3f 1d 9c 7a 3f
       0.98240834 0.98211396 0.99352294 0.9789446
000060 ca 7a 7c 3f 3d cc 7b 3f 23 c0 7d 3f 84 17 7d 3f
       0.9862486 0.9835852 0.991213 0.98864007
000070 28 b9 7d 3f 21 12 7c 3f 79 17 7b 3f cf 51 7b 3f
       0.9911065 0.9846516 0.9808269 0.98171705

bias f4 [32]
000000 2d 2e 1b bc 46 6f a4 39 e0 c4 ec bb 95 88 d3 39
       -0.009471458 0.00031363423 -0.0072256178 0.00040346818
000010 ae f2 de 3b 5a a3 59 3b ad 31 1e bc c0 4e 99 3b
       0.006803832 0.0033208937 -0.009655398 0.004678577
000020 92 5c c1 bb 75 1e 97 39 a1 df 39 3b d5 59 1e 3b
       -0.005900928 0.00028823657 0.0028362053 0.002416243
000030 f2 10 b0 3a 1e de 08 bb 45 1b b5 ba 2a a6 22 bc
       0.0013432784 -0.0020884345 -0.0013817331 -0.009927312
000040 e2 dd 8b b9 d8 99 e0 38 b1 0d 71 3b ec f1 cd bb
       -0.00026677462 0.00010709808 0.0036781842 -0.006284943
000050 06 f4 8c bb bc c6 57 ba 5a 46 85 bb 65 52 40 3b
       -0.004301551 -0.0008231213 -0.0040672245 0.0029345986
000060 2d ca 13 bc 0c c8 79 b9 fe 76 d9 bb c5 0c f3 3a
       -0.00902037 -0.00023821014 -0.0066364994 0.0018543234
000070 10 78 26 bc fa 6d 8a 3b b3 3b 87 3b c5 6b 31 3b
       -0.010160461 0.004224536 0.0041269897 0.0027072292

running_mean f4 [32]
000000 18 fc 6a be ed 4d db bb a2 62 03 bd e0 25 18 be
       -0.22947729 -0.006692639 -0.032076485 -0.14858198
000010 75 d8 5f 3e 9a b4 f2 bd 30 d0 d4 bc 9c 09 86 be
       0.21859916 -0.11850853 -0.025978178 -0.26179206
000020 6f e9 04 3e c1 06 ed 3d e5 bc 97 be a8 29 1e 3d
       0.12979673 0.11573554 -0.29636303 0.038613945
000030 bf d4 9b bd 32 c8 cc bd 6b 1e 03 3e 24 b4 48 3e
       -0.076089375 -0.09999122 0.12804572 0.19599968
000040 f6 f8 90 3c 7f 40 ac 3e 5c e8 e4 3e 26 4b 69 3e
       0.017696839 0.33642957 0.44708526 0.22782573
000050 a1 81 c6 3e 65 1f ca bd f5 68 8f bd 4a 3a 84 3e
       0.38770774 -0.09869269 -0.07002441 0.2582572
000060 02 7e a2 bc cc 39 27 3e 90 e1 f3 bd be d9 7a 3e
       -0.019835476 0.16330642 -0.11908257 0.24497125
000070 7f 78 c0 bc 1c 8f 21 3e 2f 44 cf bd 7f ce 5b 3e
       -0.023494957 0.15777248 -0.10120427 0.21465491

running_var f4 [32]
000000 05 92 a9 3c ed 72 6f 3d a8 1a 73 3c 23 28 ca 3d
       0.02069951 0.05845921 0.014837898 0.09870937
000010 22 74 22 3d 3d 08 0d 3d a2 18 5d 3c 93 0d ba 3d
       0.039661534 0.034431685 0.013494642 0.0908462
000020 b9 93 b9 3d cb 75 06 3d a8 3b d5 3c bd cb 8b 3d
       0.09061379 0.03282718 0.026029423 0.06825969
000030 39 be 26 3d 26 a7 05 3e a3 37 82 3d b2 b2 17 3d
       0.040708754 0.13052043 0.06358268 0.03703565
000040 f0 c8 2e 3e 86 f5 20 3d 97 a4 a6 3d ca 8e 49 3d
       0.17068839 0.03929665 0.08136862 0.04920844
000050 ac 1b 82 3d 11 8e 15 3d 48 87 9c 3c 87 3d 97 3d
       0.06352934 0.03651244 0.019107476 0.07384782
000060 7f 64 d1 3c e0 35 a6 3d 0a 16 2d 3d b7 ba 46 3d
       0.025560616 0.081157446 0.042257346 0.04851791
000070 5d cf 7c 3d 8e 93 84 3d e5 88 dc 3d 3f 3d 34 3d
       0.061721195 0.06473456 0.10768298 0.04400372

weight f4 [32, 96, 1, 1]
000000 81 0d 53 3d d4 55 80 bd 85 87 90 bd 7e be b6 bd
       0.05152655 -0.062663704 -0.07057098 -0.08923052
000010 cd bf 2b 3d 89 82 9a bd fc 38 44 bd d9 85 13 3d
       0.041930962 -0.07544429 -0.047905907 0.03601632
000020 e5 2b da 3d 84 5b c5 3d 69 ae 8e bd 69 7a 48 3d
       0.106529035 0.09636596 -0.0696686 0.048944864
000030 a5 26 35 bd 1f cb 78 3c 21 20 87 3d 09 98 5e 3d
       -0.044226307 0.015185147 0.06597925 0.05434421
000040 43 0d a1 bc 91 58 6a 3d c6 46 2a 3d 08 77 ff 3c
       -0.019659644 0.05721337 0.0415714 0.031184688
000050 3a 02 e0 bd e8 c7 dd 3d 37 7c e8 bc 45 28 b1 bc
       -0.10937925 0.10829145 -0.028379543 -0.021625647
000060 f4 f7 be bb 50 c0 d1 bd 04 ec 5f bd cb d2 a2 bd
       -0.005827898 -0.10241759 -0.05466844 -0.07950362
000070 c4 c4 08 3d e1 37 1b bd c9 7e 69 bd ce ce c7 3c
       0.033390775 -0.037895087 -0.057005677 0.024390604
000080 ca 47 4e bd 16 3e a0 bc 02 2f aa bc 90 de bc 3c
       -0.050361432 -0.019560855 -0.020774368 0.023055345
000090 90 5e 7f 3d 6f f3 01 bd e7 29 63 3d 8c a6 97 bd
       0.06234604 -0.031726297 0.055459883 -0.07404813
0000a0 ef 44 88 bd 57 3a b8 3d 0d 52 55 bd 7f 70 a5 3d
       -0.06653773 0.089955024 -0.052080203 0.080780976
0000b0 c7 bb ef 3b 39 33 81 3d bb 17 e4 bb 8f fa 09 bd
       0.007316086 0.06308598 -0.0069608367 -0.033686217
0000c0 6e bd b1 3c 56 77 69 bd 1f 4a 82 bc fc f2 eb 3c
       0.021696772 -0.056998573 -0.015904484 0.028802387
0000d0 58 82 a2 3a 6f b2 3e 3d 40 47 d8 bc 66 84 e2 bc
       0.0012398465 0.046556886 -0.026401162 -0.027651023
0000e0 0a 5b 7c 3d d0 59 85 bd da 76 14 bd 31 6e 8b 3d
       0.06161026 -0.06511271 -0.03624616 0.06808127
0000f0 47 3e 8c bd 70 d2 bd 3c a9 73 90 3d 38 64 fa 3c
       -0.06847816 0.023171633 0.070533104 0.030565366
000100 8c 20 37 bd 04 35 94 3d 16 8c a6 3c 23 b8 00 3d
       -0.044708773 0.072366744 0.02033047 0.031425606
000110 3c e8 16 bd e3 76 b4 3d 00 d8 1c 3d 5e b2 ae bd
       -0.03684257 0.08811738 0.03829193 -0.085301146
000120 13 1a 68 bd 59 bc 96 bd 47 ba a2 bd 2e 48 b8 bd
       -0.05666549 -0.07360143 -0.07945686 -0.08998142
000130 69 b0 83 3d 81 a5 7f 3d 0a f2 72 bd 65 da a2 3d
       0.06430132 0.062413696 -0.059312858 0.07951812
000140 c0 ec a5 bd ba 87 7f bd c3 f1 93 3d 6a 7e 86 3d
       -0.08101797 -0.0623853 0.07223847 0.0656708
000150 c5 d6 08 3d 9f ed 2f 3d a3 49 23 3d 63 2e 72 bc
       0.033407945 0.042951223 0.039865147 -0.014781567
000160 a0 17 11 bd 97 5d a3 bd b1 5a 09 3c a9 92 d7 3d
       -0.03542292 -0.07976835 0.008383439 0.1052602
000170 89 4c 15 bd 03 e3 a4 bd cf 0a 81 3d 42 76 5d bd
       -0.036449943 -0.080511115 0.0630089 -0.054067858
000180 e1 17 a9 bd 16 ab 91 bd fd 07 6e bb 91 03 d0 3b
       -0.08256508 -0.0711271 -0.003632068 0.0063480814
000190 42 a8 6d 3d 18 01 67 3d 3c 98 d2 bd 26 1d b4 3d
       0.05802179 0.056397527 -0.10282943 0.08794622
0001a0 47 e8 90 bc 11 4a 7d 3d 8b 15 93 bc a9 96 14 bd
       -0.017688883 0.061838213 -0.017954608 -0.036276493
0001b0 6e c9 82 bd f3 8e 27 3d 84 eb 9a bc 0e 48 40 bd
       -0.06386076 0.04090781 -0.01891113 -0.046943717
0001c0 1a 08 52 bd c8 15 af 3d 9d d3 3d bd 42 e6 5c 3d
       -0.051277258 0.08549076 -0.04634439 0.05393053
0001d0 97 93 92 bd 99 06 2d 3d 84 d7 8a bc 56 e7 88 3c
       -0.07157057 0.04224262 -0.016948469 0.016711872
0001e0 a6 d4 a9 bd b5 c0 8f 3d 7a e6 bf bd 1f b9 16 3a
       -0.082925126 0.07019178 -0.09370132 0.0005749631
0001f0 46 63 2f 3d 60 31 7b bd 29 ab bc bc 55 99 47 3d
       0.042819284 -0.061326385 -0.023030834 0.048730213
000200 4c cb 91 bd 63 0e bf bc 62 e4 5c bb b2 07 af 3c
       -0.07118854 -0.02332229 -0.0033705463 0.021365974
000210 a4 24 32 bc 68 19 9a bd 6e 8f 9c 3c d1 7b 99 3d
       -0.010872994 -0.07524377 0.019111361 0.07494319
000220 cf cc 1d 3d ce 89 89 bc 2a 0d 69 bd 3f 08 3d 3c
       0.0385254 -0.016789343 -0.05689732 0.011537611
000230 82 f2 f1 3d 94 9a 12 3d 12 40 7c 3d 25 95 82 bc
       0.11813833 0.03579195 0.06158454 -0.015940258
000240 fc 59 9f 3d 11 c1 11 3d b6 5d a9 bd 78 2b 8a 3a
       0.07780835 0.035584513 -0.08269827 0.0010541519
000250 ce d5 46 bb 46 92 a9 bd d7 84 6a 3d e8 0b 95 3d
       -0.003033984 -0.082798526 0.057255592 0.072776616
000260 09 fa 93 bd 61 56 90 bd 8c c2 46 3c a9 f9 0f bc
       -0.07225425 -0.070477255 0.0121313445 -0.008787551
000270 f0 a0 82 3d 39 57 af 3d d4 14 ac bd 40 19 3c 3d
       0.06378353 0.08561558 -0.0840241 0.045922518
000280 e6 37 9c 3c fb 5c c6 3c 1a 77 40 3d 47 c8 8b bd
       0.019069623 0.024214258 0.046988584 -0.06825309
000290 65 9f 91 3d 7c 7a c1 3c da 61 89 bd e0 80 57 bc
       0.0711048 0.023617975 -0.06708117 -0.013153285
0002a0 05 de 94 bd 5c 95 62 bd d5 a9 ba 3d ed a1 26 bc
       -0.07268909 -0.05531822 0.09114424 -0.010170442
0002b0 be 34 58 3a a9 c5 94 3a 44 0f 90 3d 99 e5 bb 3d
       0.00082476053 0.0011350411 0.07034162 0.09174652
0002c0 b2 58 d4 3d 2a 97 a9 bd bf 44 b7 bc e6 64 90 bd
       0.1036848 -0.082807854 -0.022371648 -0.07050495
0002d0 cc b5 8f 3d 33 1f b2 bd a9 9f 86 3d b4 32 a1 bd
       0.07017097 -0.08697357 0.065734215 -0.07870999
0002e0 cc b3 89 3c fe f7 fc 3c 35 27 19 3d 73 5c 1b 3d
       0.016809367 0.03087997 0.037390906 0.037929963
0002f0 45 97 b4 bd dc e7 f8 bc 3e db 84 bd 8e e8 8c ba
       -0.08817915 -0.030383997 -0.0648713 -0.0010750459
000300 90 99 b3 bd b2 ef a3 3d 80 a8 27 3d 9d c7 a1 3d
       -0.08769524 0.08004703 0.04093218 0.07899401
000310 16 25 9f 3c 17 aa 35 bd 97 7d 54 bd a6 55 78 3d
       0.019426864 -0.044351663 -0.051877584 0.060628556
000320 02 00 93 bd 70 64 39 bd 69 64 be bd 8e 2c 8f bd
       -0.07177736 -0.0452618 -0.092964955 -0.0699092
000330 00 a4 34 3c 87 54 98 bd d9 35 8e 3d 76 7b cd bd
       0.011025429 -0.07437997 0.069438644 -0.10033314
000340 a0 43 40 3b d1 5b 87 3d 93 00 8c 3d 00 bb 9a 3d
       0.0029337183 0.066093095 0.06836047 0.07555199
000350 2e 35 34 bd e2 36 c4 3d ef 06 87 bb 7b 2c ff bd
       -0.04399603 0.095807806 -0.0041206996 -0.12459656
000360 63 79 d5 bc 35 1c 7d bd 5e 09 9e bb 2e f2 ab 3d
       -0.026058858 -0.06179448 -0.004822894 0.083958015
000370 c3 9d c8 3c 7d 0b 97 bc 1c 6f 44 bd 46 e9 c4 bd
       0.02448929 -0.018438095 -0.047957525 -0.09614806
000380 48 b6 03 3d 22 fb 1b 3c 25 c1 1f 3c d6 d7 b4 bd
       0.03215626 0.009520324 0.009750639 -0.0883023
000390 1b 7c a0 bd 21 81 9f bd e0 db a3 bc 89 df c8 bd
       -0.07836171 -0.07788301 -0.020002306 -0.09808261
0003a0 32 b3 be bd e9 79 ba 3b d2 28 ac 3d 60 be 5d bd
       -0.093115225 0.0056908024 0.08406223 -0.054136634
0003b0 c8 9f 13 3d bd fc 84 3d bf 3c e7 3b 2c 5d ec bc
       0.03604105 0.064935185 0.007056802 -0.028853022
0003c0 87 d5 8b 3d 57 56 9f 3d cf 31 0a bc 79 24 56 bd
       0.068278365 0.0778014 -0.008434727 -0.052280877
0003d0 99 11 d3 3d 5a b2 3b 3c a3 a8 9b 3d 68 d3 13 bc
       0.10306091 0.011456097 0.07600524 -0.009022571
0003e0 bd c6 26 bd 5a e2 25 3b 66 1e b7 bd 61 21 63 bd
       -0.040716875 0.0025311918 -0.08941345 -0.055451754
0003f0 e8 b0 28 bd 4a 08 56 3d f0 f6 92 3c 31 44 16 3b
       -0.041184336 0.052254 0.017940015 0.002292883

weight f4 [32]
000000 7c 1b 81 3f 56 12 80 3f fb 12 7a 3f 26 5a 81 3f
       1.0086513 1.0005596 0.9768521 1.0105636
000010 48 48 85 3f 2d b9 83 3f 28 10 81 3f 9c 05 7c 3f
       1.0412683 1.0290886 1.0083055 0.9844606
000020 52 d0 7c 3f 47 3f 82 3f b6 9c 7b 3f c4 24 80 3f
       0.9875537 1.0175561 0.98285997 1.001122
000030 5d d4 80 3f 9f 58 78 3f 08 44 7f 3f bf dd 80 3f
       1.0064808 0.97010225 0.9971318 1.0067672
000040 78 01 80 3f fe 05 7f 3f c8 6b 7b 3f 1c 02 83 3f
       1.0000448 0.9961852 0.98211336 1.0235019
000050 67 63 83 3f 0d b9 7c 3f d4 cd 81 3f 9c a2 80 3f
       1.026471 0.98719865 1.0140939 1.0049624
000060 3f de 7c 3f 76 5f 84 3f 47 f3 7b 3f a2 42 80 3f
       0.9877662 1.0341632 0.98418087 1.0020335
000070 b4 cc 7d 3f c3 9f 7a 3f bd 10 7b 3f 93 5b 7f 3f
       0.9914048 0.9790003 0.98072416 0.99749106

bias f4 [32]
000000 ab 27 86 bc 43 67 28 bc a3 35 39 3b ff 9d 5f 3b
       -0.016376337 -0.010278526 0.002826073 0.0034121273
000010 27 57 1e 3c 2f ea 7e 3c ef 65 a3 bc 53 a4 32 3c
       0.009664333 0.015558763 -0.019946067 0.010903436
000020 d4 9f ae ba 7c 7e 2e 3c 14 f5 5f bb af 9f d4 39
       -0.0013322779 0.010650273 -0.0034173178 0.00040554765
000030 6c 8d ea ba be 34 21 3b 3f 66 90 3a ff 80 d4 bc
       -0.001789493 0.0024598087 0.00110168 -0.025940416
000040 bd 50 ef ba 13 c3 d6 3a 39 55 a6 3c 74 12 90 bb
       -0.0018258315 0.0016385041 0.02030431 -0.004396731
000050 ee 21 55 ba 46 d5 96 3a b5 d2 fa ba ab 43 41 bb
       -0.0008130361 0.0011507652 -0.0019136282 -0.0029489796
000060 e4 a8 24 bc 6b eb c8 3c 90 ba 3a bc 37 43 06 bc
       -0.010050032 0.024526319 -0.011397019 -0.008194736
000070 43 65 31 bc a2 4c 9c bb bc f7 13 3c 45 bc 09 3c
       -0.010827365 -0.0047698775 0.009031232 0.008406703

running_mean f4 [32]
000000 3b 9b a2 bd b9 1f d6 bc d9 d6 b4 be 99 67 b6 bd
       -0.07939764 -0.026138173 -0.35320166 -0.089064784
000010 7c 69 e2 bb cf 73 bc 3d 1d 9b ba 3e 1c a5 93 be
       -0.0069095474 0.09201776 0.36446467 -0.28836906
000020 86 88 81 3c e2 20 b4 3d 0a c5 25 bd b4 08 29 3e
       0.01581217 0.087953344 -0.040471114 0.16507226
000030 13 40 b2 be 9f da 5a be 5c b0 87 3d 2b 5b 09 3e
       -0.3481451 -0.2137246 0.06625435 0.13413684
000040 9d cb a9 bc 80 53 af 3d 65 91 36 3f a4 3a 90 bc
       -0.020726973 0.08560848 0.71315604 -0.017606087
000050 2f 7c 2b 3e 22 cb bc 3d c4 8e 0a be fb 1a 57 be
       0.16746591 0.09218432 -0.13531023 -0.21006386
000060 7f 54 cc 3e f8 ab a6 bd 88 c0 d2 3e f5 a6 84 bc
       0.39908215 -0.08138269 0.41162515 -0.016192893
000070 26 ac 17 3d a5 77 0b 3e 25 0d 95 3e bc f2 a2 3d
       0.037029408 0.1361986 0.2911159 0.07956454

running_var f4 [32]
000000 6e d6 92 3d 96 53 50 3c 9f 9e 57 3d 06 28 4b 3c
       0.071698055 0.012715241 0.052641507 0.012399679
000010 b4 2c 87 3c 1b b2 5f 3c 9a 10 84 3d 41 16 c0 3d
       0.016500808 0.0136533035 0.06448479 0.093792446
000020 1c 68 3e 3d a0 77 f6 3c a7 73 9a 3d 37 3e 11 3d
       0.046486005 0.030086339 0.0754159 0.035459723
000030 af c3 0d 3d 5e 66 f3 3c 05 64 f0 3c 52 41 af 3d
       0.034610447 0.029711898 0.029344568 0.08557381
000040 d9 33 80 3c 0e 1f 08 3d 58 ad 39 3e 38 52 9a 3c
       0.015649723 0.03323274 0.18132532 0.018838033
000050 be cd bc 3c 72 b1 0e 3d c0 2b 52 3c 15 6c a0 3d
       0.023047324 0.034837194 0.012827814 0.07833115
000060 0f 24 0a 3d 33 fa 6b 3c c8 09 cf 3c 42 df 7f 3d
       0.033725794 0.014402914 0.025273219 0.062468775
000070 e4 3a f4 3c be 12 3c 3d 16 9c ad 3d da ef b6 3c
       0.029813237 0.04591631 0.08477037 0.022331167

weight f4 [96, 32, 1, 1]
000000 c7 9f 21 be c6 89 49 3d 93 72 d7 3d 7b 67 b5 bc
       -0.15783606 0.049203657 0.105199 -0.02214407
000010 93 1a c3 3c 1b d4 98 3d ce 8c da 3d c2 3a 61 bd
       0.023816383 0.07462331 0.106713876 -0.054987676
000020 67 1f 78 bd 04 1d 7c bd 5b a4 05 be 96 37 e0 3c
       -0.060576823 -0.06155111 -0.13050978 0.027370255
000030 3f 78 91 3d 61 37 09 3d 78 5e 81 3d 11 22 23 3e
       0.07103013 0.03350008 0.063168466 0.15930964
000040 3b 83 32 3e bc 13 0c 3e 4f f1 10 be 98 e3 4d 3d
       0.17432873 0.13679403 -0.14154552 0.05026588
000050 7c e2 18 3e a2 37 19 be 68 f5 85 3d a3 36 27 be
       0.14930147 -0.14962628 0.06540948 -0.16329436
000060 8d bd 07 be 38 84 98 bd d0 eb 8f bd e1 fd 21 3e
       -0.13255902 -0.07447094 -0.070273995 0.15819503
000070 72 2d 86 bd 46 9c 57 bd 8b 24 aa 3c 32 cb 12 be
       -0.06551637 -0.05263927 0.020769378 -0.14335325
000080 53 fb 04 3e 7e 27 8e bd 77 06 e7 bc 45 00 c4 3c
       0.12986498 -0.06941126 -0.028201325 0.02392591
000090 47 1b 61 3b cd 94 bb 3d 13 2d 0e 3e 2a f7 c5 bd
       0.0034348534 0.09159241 0.13884382 -0.096662834
0000a0 ff 3a 28 be 0f e7 29 be 98 70 0e be 06 45 2e be
       -0.16428755 -0.16592048 -0.13910139 -0.17018518
0000b0 87 d7 0a be a3 c3 f9 bc 28 12 d1 3c 14 40 9f 3d
       -0.1355878 -0.030488795 0.025521353 0.07775894
0000c0 9f d5 6c 3d 28 2b 96 3d f5 1f 10 be 93 77 ed bd
       0.057820912 0.0733245 -0.1407469 -0.115950726
0000d0 c5 6f b1 bd ed d4 ca 3d ef 63 1a be d4 4a 1e be
       -0.086638965 0.099038936 -0.15077184 -0.15458232
0000e0 74 59 57 3d 35 ed 2a 3e 0b b3 ec bc 6b 4d 49 3d
       0.052575544 0.1669205 -0.028893968 0.049146097
0000f0 28 75 24 be 69 d0 12 3e 7a 04 ee 3d 80 de 49 bd
       -0.16060317 0.14337315 0.116219476 -0.04928446
000100 22 76 66 3d f8 8d 1e be 78 57 f8 3d 69 64 15 be
       0.056265004 -0.15483844 0.12126058 -0.14589085
000110 ac 00 28 be 19 7c 21 3e 1d 44 88 bd 81 ad be bd
       -0.16406506 0.15769996 -0.066536166 -0.09310437
000120 76 a9 7d bd ee 76 89 3d 54 c5 ea 3d c9 70 e1 3d
       -0.06192919 0.06712137 0.114634186 0.1100784
000130 46 41 cd 3d 89 9c 5a bd 80 9f 73 bb 3a 2f 39 3c
       0.100222155 -0.05337194 -0.0037173927 0.011302764
000140 f8 b6 27 3e 7a 76 45 3d ef cc 06 3e 7a f3 58 bd
       0.16378391 0.04820869 0.13164113 -0.052966572
000150 9e 32 f7 bd e6 3f 22 3e 9d d7 0a 3e 1a 86 c2 bb
       -0.12070201 0.15844688 0.13558812 -0.0059363963
000160 d6 92 2b be 44 b1 12 3e 8a ab 83 3d 5c 02 76 bc
       -0.16755232 0.14325434 0.06429203 -0.015015211
000170 15 63 c9 3c 84 60 0c 3e ea e9 3b 3c 82 e0 c5 bc
       0.024583379 0.13708693 0.011469344 -0.024154905
000180 36 20 32 be f0 e8 87 bd 9b 03 70 3c 9c 2d 41 bd
       -0.173951 -0.06636226 0.014649297 -0.047162637
000190 6c 44 d6 bc e3 18 27 3e c5 e4 4c bc df 05 64 bc
       -0.026155673 0.16318087 -0.012505715 -0.013917415
0001a0 a0 21 a0 bd b7 f1 01 3d 67 e3 e1 3d 68 fb 97 3d
       -0.078189135 0.031724658 0.11029702 0.07420999
0001b0 3c ca 8d 3d 34 58 79 bd 25 2e 12 3e 39 51 14 bd
       0.06923339 -0.060875133 0.14275415 -0.036210272
0001c0 14 9b 12 3c f4 6c 07 bd 71 9f a6 bd f8 b1 da 3d
       0.008948106 -0.03306289 -0.0813588 0.10678476
0001d0 bc d8 be bd 22 cb 2e 3d 25 c5 85 bd 7e c1 eb bd
       -0.093186826 0.04267419 -0.06531743 -0.11511515
0001e0 8a e9 ab bd 5a 1b 15 bd 58 82 13 3e 55 34 05 be
       -0.083941534 -0.036403038 0.14405191 -0.13008244
0001f0 b8 c4 30 be 2d 9c 1d 3d bb 59 40 3d a0 c9 ef 3d
       -0.17262542 0.03847902 0.046960574 0.11708379
000200 68 28 e6 bc ab e5 f5 3c b8 76 cb 3b bb 59 db bd
       -0.02809544 0.03001674 0.0062092207 -0.10710474
000210 d5 3c 18 3a 12 33 92 bb ac 4b fc 3c 57 65 19 3e
       0.00058074045 -0.0044616545 0.030797802 0.14980064
000220 6a fa d9 bd c5 97 ea 3d 8f 3f b9 3d 85 ad e3 3d
       -0.10643466 0.11454729 0.09045326 0.111170806
000230 40 c4 85 bb f9 aa 01 be c4 29 03 3e 4e ec 2f be
       -0.0040822327 -0.12662877 0.12808901 -0.17179987
000240 9f 0a 90 39 5e 20 b9 3d 17 08 2e bd 49 ab 0a 3e
       0.00027473734 0.09039377 -0.042488184 0.13541903
000250 e7 9d dd 3c a1 48 1b 3e 73 9c 32 3e 9e 90 d5 3d
       0.027052833 0.15164424 0.17442493 0.10427974
000260 95 9a 8e 3d da 72 c3 3d 90 22 f2 3c 20 7b 77 bd
       0.06963078 0.095433906 0.029557496 -0.060420156
000270 48 f7 81 bd 0c da 06 3e fb f8 89 bd c2 36 01 be
       -0.06345993 0.13169116 -0.067369424 -0.12618545
000280 0e 6a 82 bd b4 71 2e 3e 6e 9c 2a 3e a3 2e d7 3d
       -0.063678846 0.17035562 0.16661236 0.10506942
000290 b3 49 1b be c0 15 81 bc 4f 64 7f 3d 91 c1 89 3d
       -0.15164833 -0.015757442 0.06235152 0.06726373
0002a0 38 cf 25 3e 2e cc 5b 3d cc e3 04 3e 0a fc d1 3c
       0.16192329 0.053661518 0.12977523 0.025632877
0002b0 25 9c ad 3d f0 dc 14 be 56 e1 1f 3e 89 99 cc 3d
       0.08477048 -0.14537406 0.15613303 0.09990222
0002c0 1e 0e bd 3b 8e c9 05 3e 2d 05 0d 3c 93 05 51 3d
       0.005769505 0.13065168 0.008607191 0.051030707
0002d0 11 20 0c bd da 8c fd 3d 84 c7 3e bc 8b 2b 45 3d
       -0.03421027 0.12380381 -0.011644248 0.04813723
0002e0 c0 e7 20 be 99 19 02 3c 3b bf d7 3c e8 b8 85 bd
       -0.15713406 0.007940673 0.026336303 -0.06529409
0002f0 45 b9 a0 3c de e4 93 3d 2b c2 e8 bd c6 19 7f bc
       0.019619593 0.07221387 -0.113651596 -0.01557011
000300 bc fe 30 3e 69 5b 2c 3e 16 3a 23 3e 75 0e 18 3e
       0.17284673 0.16831745 0.15940127 0.14849265
000310 2a c1 d4 bc fd dc 7c 3d 75 52 d2 3d e2 47 b3 bd
       -0.025971014 0.06173419 0.10269634 -0.08753945
000320 1b d0 71 bd 2b 41 bb 3d d9 65 a5 bd 56 23 1a 3e
       -0.059036355 0.09143289 -0.080760665 0.15052542
000330 9d 38 2e be fe 40 2a be 65 77 32 3d 68 9b d5 bc
       -0.17013784 -0.16626355 0.043570895 -0.02607508
000340 b8 d3 21 be 03 3f 2e bc bf 48 1e bc 3c 76 b5 bd
       -0.1580342 -0.01063514 -0.009660899 -0.08860442
000350 05 15 71 bb 3b 0e 2b 3c 10 4f 38 3c 63 ad 16 3e
       -0.003678621 0.0104404045 0.011249319 0.1471458
000360 b7 33 15 bd 88 51 f1 3c 1f 3b 17 3e 6f 90 27 3e
       -0.036426272 0.029457822 0.14768647 0.16363691
000370 4b 41 a5 3d 8e ce b9 bc 7f d4 01 be 84 bc 36 3d
       0.08069094 -0.0226815 -0.12678717 0.044613376
000380 3f 3c f4 bd 6e 23 ba 3d 19 75 d8 bc 02 5f 17 3e
       -0.119255535 0.09088789 -0.026423024 0.14782336
000390 cd f2 51 3d 82 f6 a1 3d 27 c1 58 bd 86 ff a7 bb
       0.051256943 0.07908346 -0.05291858 -0.0051268963
0003a0 6f c8 ca bd 68 46 26 3e 2b be c7 bd 9f d6 d4 bc
       -0.09901511 0.16237795 -0.097530685 -0.025981246
0003b0 18 6f 61 bd b4 72 91 3d 12 47 30 be 25 0e 81 bd
       -0.055037588 0.07101956 -0.17214611 -0.06301526
0003c0 41 32 cf 3b 9e 58 4f bc 9f 1a aa bd a1 a9 52 bd
       0.0063231294 -0.012655405 -0.08305859 -0.051431302
0003d0 7e 37 0e be 13 c1 10 be d7 a8 21 be 81 88 84 bd
       -0.13888356 -0.14136152 -0.15787064 -0.064713486
0003e0 1e 59 f0 3d b7 b0 d3 bd c9 49 88 3c 0b 65 54 3d
       0.11735748 -0.1033644 0.016636746 0.051854175
0003f0 71 e5 06 be ae 46 93 bd 2f ae 35 3d 26 92 9d 3d
       -0.13173462 -0.071912155 0.044355568 0.07693891

weight f4 [96]
000000 76 93 7a 3f 7a 93 7a 3f 7d 93 7a 3f 80 93 7a 3f
       0.9788126 0.9788128 0.978813 0.9788132
000010 76 93 7a 3f 7b 93 7a 3f 7b 93 7a 3f 7b 93 7a 3f
       0.9788126 0.9788129 0.9788129 0.9788129
000020 79 93 7a 3f 7c 93 7a 3f 39 93 7a 3f 79 93 7a 3f
       0.97881275 0.97881293 0.97880894 0.97881275
000030 85 93 7a 3f 5d 93 7a 3f 7c 93 7a 3f 7a 93 7a 3f
       0.97881347 0.9788111 0.97881293 0.9788128
000040 74 93 7a 3f 43 93 7a 3f 7d 93 7a 3f 8c 93 7a 3f
       0.97881246 0.97880954 0.978813 0.9788139
000050 79 93 7a 3f 83 93 7a 3f 73 93 7a 3f 7a 93 7a 3f
       0.97881275 0.97881335 0.9788124 0.9788128
000060 81 93 7a 3f 81 93 7a 3f 80 93 7a 3f 7f 93 7a 3f
       0.97881323 0.97881323 0.9788132 0.9788131
000070 80 93 7a 3f 80 93 7a 3f 7a 93 7a 3f 7c 93 7a 3f
       0.9788132 0.9788132 0.9788128 0.97881293
000080 7f 93 7a 3f 7d 93 7a 3f 7a 93 7a 3f 7e 93 7a 3f
       0.9788131 0.978813 0.9788128 0.97881305
000090 7d 93 7a 3f 7c 93 7a 3f 81 93 7a 3f 7e 93 7a 3f
       0.978813 0.97881293 0.97881323 0.97881305
0000a0 80 93 7a 3f 7f 93 7a 3f 89 93 7a 3f 7f 93 7a 3f
       0.9788132 0.9788131 0.9788137 0.9788131
0000b0 85 93 7a 3f 81 93 7a 3f 8b 93 7a 3f 6c 93 7a 3f
       0.97881347 0.97881323 0.9788138 0.978812
0000c0 7d 93 7a 3f 7b 93 7a 3f 72 93 7a 3f 7f 93 7a 3f
       0.978813 0.9788129 0.97881234 0.9788131
0000d0 83 93 7a 3f 59 93 7a 3f 71 93 7a 3f 64 93 7a 3f
       0.97881335 0.97881085 0.9788123 0.9788115
0000e0 6f 93 7a 3f 89 93 7a 3f 7f 93 7a 3f 7a 93 7a 3f
       0.97881216 0.9788137 0.9788131 0.9788128
0000f0 78 93 7a 3f 74 93 7a 3f 85 93 7a 3f 78 93 7a 3f
       0.9788127 0.97881246 0.97881347 0.9788127
000100 86 93 7a 3f 82 93 7a 3f 7b 93 7a 3f 75 93 7a 3f
       0.9788135 0.9788133 0.9788129 0.9788125
000110 7e 93 7a 3f 73 93 7a 3f 81 93 7a 3f 7f 93 7a 3f
       0.97881305 0.9788124 0.97881323 0.9788131
000120 52 93 7a 3f 80 93 7a 3f 7d 93 7a 3f 6a 93 7a 3f
       0.9788104 0.9788132 0.978813 0.97881186
000130 74 93 7a 3f 6f 93 7a 3f 74 93 7a 3f 7a 93 7a 3f
       0.97881246 0.97881216 0.97881246 0.9788128
000140 79 93 7a 3f 77 93 7a 3f 6b 93 7a 3f 7c 93 7a 3f
       0.97881275 0.97881263 0.9788119 0.97881293
000150 77 93 7a 3f 7f 93 7a 3f 7f 93 7a 3f 81 93 7a 3f
       0.97881263 0.9788131 0.9788131 0.97881323
000160 72 93 7a 3f 71 93 7a 3f 77 93 7a 3f 7b 93 7a 3f
       0.97881234 0.9788123 0.97881263 0.9788129
000170 82 93 7a 3f 7d 93 7a 3f 81 93 7a 3f 88 93 7a 3f
       0.9788133 0.978813 0.97881323 0.97881365
