cnn/models/houston/houston3pmodel06-16-13-25-48_0-920734126984127.pkl (torch, 978843 bytes, 131 tensors)

weight f4 [96, 144, 3, 3]
-0.007316738 0.0054864297 -0.029911019 -0.027220445 -0.019242095 -0.0008777467 -0.0072014835 0.013189958
-0.008448161 -0.0023308056 -0.019200016 -0.014901269 -0.03481629 -0.028714994 -0.020837555 -0.0068187104
0.0013238533 0.0083743455 -0.027355833 -0.022998158 0.00049766264 0.013058113 -0.016770853 0.010723205
-0.011242785 -0.0057429853 0.01732581 -0.035713393 -0.03003058 -0.017614853 -0.021595152 0.009918292
-0.028021852 -0.020224486 -0.028500097 -0.03356884 -0.02677939 0.0090884715 0.00075081637 0.0012462798
-0.013030292 -0.024327483 -0.0030314296 -0.03476599 -0.02808262 -0.022959344 0.0046903896 0.0065571624
-0.022352122 -0.013564656 0.008003897 0.020696739 0.0022648557 -0.0032319801 0.007956604 -0.029736059
-0.0056178584 -0.03235277 -0.032914065 -0.023551326 0.006105941 0.0020916916 -0.023347415 -0.0013323312
0.0016490952 -0.013119137 -0.010908186 -0.008818328 0.006661373 0.02031653 -0.028991777 -0.017165104
0.0069638174 0.014452629 0.019345526 0.016145911 -0.0045311484 -0.026692199 0.0048857317 -0.017538728
-0.025903204 0.021464605 0.013963671 -0.029232005 -0.0022356608 -0.013472975 -0.006379132 -0.0075927447
0.012081203 -0.015463689 0.009603375 0.009605655 0.019785894 0.0042097187 -0.034299485 -0.01798367
0.020762786 0.009403808 -0.01926982 -0.012463004 0.02535138 0.022308184 -0.015805777 -0.011539145
-0.023012862 0.010011526 -0.013145661 -0.01675891 0.00290003 0.0053018807 -0.0054642954 0.012664584
-0.02049814 0.027989613 0.030635102 -0.013868106 -0.0015318317 0.0042694015 0.0045842235 0.011110885
0.006096642 -0.0029207172 -0.010496366 0.024230765 -0.01780892 -0.011633312 -0.007062147 -0.016205955
-0.0076458603 -0.029204408 -0.01448037 0.004465821 -0.009463502 0.0021508054 0.019564802 -0.0014347909
-0.00049846055 0.0013366459 -0.0013401073 0.0093195215 0.025545536 0.027242156 0.031267837 -0.0005283119
-0.022762721 -0.013965237 0.022199325 -0.008357687 -0.022237996 -0.020480253 -0.014667754 -0.01638707
-0.0039753243 0.01669597 0.013695366 -0.021348676 0.008262351 -0.029346306 -0.0046913303 0.0016053694
0.0031324015 -0.0028799227 -0.024151416 -0.025774665 -0.0008089245 -0.010723977 -0.023332233 0.009152621
-0.013056434 0.0049158023 0.024479704 -0.012234788 0.020698514 0.012214578 -0.037007913 0.0037513045
-0.0057273824 -0.0018896831 0.027070438 -0.022528056 0.0021146012 -0.008511334 0.022299927 -0.0046846704
0.0004153451 0.0077966824 0.0042069256 0.0004037794 -0.022703087 0.014042496 0.01898205 0.022015383
-0.031818774 -0.011849027 -0.020533128 -0.003791745 -0.009417687 0.008726364 -0.018426357 -0.0052981037
0.0026537057 0.003025198 -0.03519251 -0.022211788 -0.0066470834 0.022701183 -0.012297863 0.017988004
0.0033603446 0.0035207479 -0.01621628 -0.021898357 -0.001972982 0.0011053021 0.002055581 -0.0007787017
-0.026230576 -0.02079114 0.021526007 -0.038769864 -0.019456254 0.020398282 0.015650637 0.0015885428
-0.028663034 0.009110383 -0.024427224 -0.0066840914 -0.024810035 -0.019863551 -0.0046884497 0.029850837
0.005855116 0.020043507 0.0100611 -0.024216224 0.010501383 -0.035990063 -0.028888263 0.0009410933
0.0133088045 0.020159952 -0.015088379 -0.006808839 0.0058745327 -0.02759221 0.0018544204 -0.04019015
-0.006798564 -0.0003043468 -0.014290811 -0.002881714 0.0150048975 -0.016348781 -0.017879317 -0.028184874
00000000: 3fc1 efbb 82c7 b33b f407 f5bc 69fd debc
00000010: 99a1 9dbc 9518 66ba 6cfa ebbb b21a 583c
00000020: 286a 0abc 6ec0 18bb 5a49 9dbc 7424 74bc
00000030: 879b 0ebd b53b ebbc 85b3 aabc 7d6f dfbb
00000040: 2585 ad3a 8d34 093c 5719 e0bc a266 bcbc
00000050: 9375 023a b2f1 553c 0763 89bc 62b0 2f3c
00000060: a833 38bc a72f bcbb dbee 8d3c 3548 12bd
00000070: b102 f6bc 064d 90bc 51e8 b0bc 5580 223c
00000080: 158e e5bc d2ad a5bc 0979 e9bc 7b7f 09bd
00000090: 7460 dbbc d0e7 143c 6fd2 443a 365a a33a
000000a0: 017d 55bc 6e4a c7bc f3aa 46bb c866 0ebd
000000b0: 860d e6bc 3c15 bcbc d7b1 993b 77dd d63b
000000c0: cc1b b7bc 4a3e 5ebc c722 033c 358c a93c
000000d0: f96d 143b a1cf 53bb 6a5c 023c 0999 f3bc
000000e0: 0316 b8bb 5784 04bd e6d0 06bd b6ee c0bc
000000f0: 5814 c83b c314 093b 1443 bfbc 9ea1 aeba
00000100: 7426 d83a a6f1 56bc 40b8 32bc c07a 10bc
00000110: a647 da3b da6e a63c 2a80 edbc d59d 8cbc
00000120: bc30 e43b b8ca 6c3c 827a 9e3c 6e44 843c
00000130: 077a 94bb 99a9 dabc 7d18 a03b 61ad 8fbc
00000140: f532 d4bc 8ad6 af3c e2c7 643c f577 efbc
00000150: 2a84 12bb c1bd 5cbc 0a08 d1bb 8fcc f8bb
00000160: 3df0 453c 6a5b 7dbc 7957 1d3c 0a61 1d3c
00000170: 0716 a23c aef1 893b 9e7d 0cbd 7d52 93bc
00000180: b816 aa3c 6e12 1a3c bedb 9dbc a131 4cbc
00000190: b3ad cf3c a7bf b63c 1e7b 81bc af0e 3dbc
000001a0: 7885 bcbc 6207 243c e660 57bc fb49 89bc
000001b0: 6e0e 3e3b 66bb ad3b d50d b3bb 1e7f 4f3c
000001c0: b7eb a7bc 794a e53c 77f6 fa3c 0d37 63bc
000001d0: bec7 c8ba 56e6 8b3b 4137 963b 6e0a 363c
000001e0: 57c6 c73b 8169 3fbb f3f8 2bbc 997f c63c
000001f0: 03e4 91bc a699 3ebc 9569 e7bb 5ac2 84bc
00000200: 208a fabb 153e efbc 133f 6dbc 0656 923b
00000210: ce0c 1bbc 87f4 0c3b 5d46 a03c 980f bcba
00000220: 1fab 02ba 6532 af3a 8aa6 afba e8b0 183c
00000230: df44 d13c f12a df3c b412 003d 697e 0aba
00000240: e378 babc 73ce 64bc 5cdb b53c aeee 08bc
00000250: 752c b6bc 34c6 a7bc 0551 70bc 2d3e 86bc
00000260: 7043 82bb fdc5 883c 8762 603c 6be3 aebc
00000270: d05e 073c aa67 f0bc bbb9 99bb 426b d23a
00000280: fa48 4d3b 16bd 3cbb 31d9 c5bc 6425 d3bc
00000290: 010e 54ba 9fb3 2fbc 3d23 bfbc e0f4 153c
000002a0: a7ea 55bc bd14 a13b a989 c83c 6c74 48bc
000002b0: ee8f a93c a71f 483c 9c95 17bd 72d8 753b
000002c0: c4ac bbbb 3eaf f7ba d3c2 dd3c c28c b8bc
000002d0: 1f95 0a3b 1f73 0bbc 56ae b63c dd81 99bb
000002e0: adc2 d939 507b ff3b 40da 893b 5bb2 d339
000002f0: d3fb b9bc 7f12 663c 3e80 9b3c 9b59 b43c
00000300: 6754 02bd 6c22 42bc 1735 a8bc ed7e 78bb
00000310: a44c 1abc 06f9 0e3c dff2 96bc b79b adbb
00000320: cbe9 2d3b 6642 463b 0526 10bd 7ff5 b5bc
00000330: c7cf d9bb d5f7 b93c fa7c 49bc 945b 933c
00000340: 3a39 5c3b 59bc 663b 01d8 84bc 2f64 b3bc
00000350: 254d 01bb c9df 903a edb6 063b c921 4cba
00000360: 81e1 d6bc 2e52 aabc 4f57 b03c 26cd 1ebd
00000370: b962 9fbc 4c1a a73c c435 803c a736 d03a
00000380: bdce eabc b743 153c 9a1b c8bc 3906 dbbb
00000390: 6a3e cbbc e3b8 a2bc 91a1 99bb be89 f43c
000003a0: 46dc bf3b 4832 a43c 50d7 243c 1a61 c6bc
000003b0: fe0d 2c3c 516a 13bd 14a7 ecbc b4b3 763a
000003c0: 2c0d 5a3c 7c26 a53c 4035 77bc ae1c dfbb
000003d0: 277f c03b 0f09 e2bc 0610 f33a 6d9e 24bd
000003e0: 7dc6 debb bc90 9fb9 0124 6abc 23db 3cbb
000003f0: 1ad7 753c e1ed 85bc a577 92bc f7e3 e6bc

weight f4 [96]
0.9765023 0.961891 0.9675157 0.9700124 0.9639353 0.96368873 0.97191215 0.9614775
0.96733946 0.970747 0.9671643 0.9629364 0.9586765 0.96200955 0.96710545 0.9708359
0.97040766 0.96197176 0.9612057 0.9737398 0.97441095 0.97119236 0.9724644 0.98119456
0.969086 0.97156924 0.96820635 0.9741367 0.9723987 0.9625181 0.9757248 0.97749615
0.96781087 0.98070717 0.9675682 0.95804965 0.96915394 0.9711889 0.96712077 0.9669267
0.9714957 0.97948474 0.9705169 0.9670388 0.9682579 0.96695954 0.95996994 0.9702959
0.9637099 0.9754384 0.9704698 0.97934765 0.9636774 0.9671489 0.96271825 0.9760768
0.9543953 0.97459304 0.9657169 0.97502875 0.9819957 0.9634966 0.9661221 0.96803653
0.97919226 0.97027636 0.95681953 0.969433 0.9671968 0.96904397 0.9752007 0.9644999
0.97333056 0.97099817 0.9734031 0.9710758 0.961542 0.96972513 0.9608433 0.9756368
0.9702888 0.96712846 0.96473 0.97179836 0.9795882 0.95978856 0.96425956 0.96275777
0.9574528 0.9699023 0.9693883 0.9651384 0.9693179 0.9691673 0.9670925 0.9629992
00000000: 0efc 793f 7d3e 763f 1caf 773f bc52 783f
00000010: 77c4 763f 4eb4 763f 3ccf 783f 6423 763f
00000020: 8fa3 773f e082 783f 1498 773f 0083 763f
00000030: d36b 753f 4246 763f 3994 773f b488 783f
00000040: a36c 783f c843 763f 9411 763f 0347 793f
00000050: ff72 793f 10a0 783f 6df3 783f 912f 7b3f
00000060: 0516 783f c3b8 783f 5fdc 773f 0661 793f
00000070: 1fef 783f 9667 763f 1ac9 793f 303d 7a3f
00000080: 74c2 773f a00f 7b3f 8db2 773f be42 753f
00000090: 791a 783f d69f 783f 3a95 773f 8288 773f
000000a0: f1b3 783f 83bf 7a3f cc73 783f db8f 773f
000000b0: c0df 773f a98a 773f 97c0 753f 5065 783f
000000c0: b1b5 763f 55b6 793f b570 783f 87b6 7a3f
000000d0: 90b3 763f 1297 773f b474 763f 2be0 793f
000000e0: 4053 743f ee7e 793f 3939 773f 7c9b 793f
000000f0: 1264 7b3f b7a7 763f c753 773f 3ed1 773f
00000100: 58ac 7a3f 0864 783f 20f2 743f c32c 783f
00000110: 369a 773f 4413 783f c1a6 793f 77e9 763f
00000120: 312c 793f 5693 783f f230 793f 6c98 783f
00000130: 9e27 763f e83f 783f d4f9 753f 55c3 793f
00000140: d964 783f bb95 773f 8cf8 763f c7c7 783f
00000150: 4bc6 7a3f b4b4 753f b7d9 763f 4b77 763f
00000160: a01b 753f 844b 783f d529 783f 4f13 773f
00000170: 3825 783f 591b 783f 6093 773f 1e87 763f

bias f4 [96]
0.00027581403 0.012267826 -0.008415134 -0.004969656 -0.00030837455 -0.001832606 0.0049791858 -0.008037218
0.0047166124 -0.00023178167 0.0078476155 -0.0034890235 0.010894155 -0.009234611 -0.0026241152 -0.011408606
0.0030247322 0.010944739 -0.009945277 0.00054727815 -0.027957622 0.0022724266 -0.0015875939 -0.0072063007
-0.008065207 0.00561749 -0.0060778176 -0.00617044 0.006526654 -0.005114257 0.009216428 -0.0005963827
-0.005900062 0.0025277606 -0.0090147015 -0.002601639 -0.014033753 -0.0016647719 -0.00539383 0.0017962273
0.00066448544 -0.005071929 -0.020678591 0.0065798736 -0.03294632 -0.016401969 -0.008531215 -0.0019392213
-0.0058383453 -0.019082459 -0.0023367475 -0.0072447234 -0.011603073 -0.0027036127 -0.012673959 0.0062338985
0.009697361 -0.0027771627 0.0020540026 -0.009536016 -0.008440127 -0.010256361 -0.012093069 -0.007080697
-0.008455337 -0.004264881 0.0037576635 0.017754806 -0.007829335 -0.02557004 -0.011560039 0.0067028166
0.00146321 -0.002665875 -0.008003451 -0.0033958107 -0.015619121 -0.003445294 0.0041581546 0.005842276
0.011546732 -0.007445239 -0.02349451 -0.009827249 0.007737384 -0.01151792 -0.026944607 -0.016642766
0.009303998 -0.010108396 0.0010027284 0.00092193193 -0.008961728 0.006787437 -0.016127896 0.010704359
00000000: 229b 9039 fefe 483c a1df 09bc 7fd8 a2bb
00000010: 55ad a1b9 0e34 f0ba 7028 a33b 89ae 03bc
00000020: d08d 9a3b 6b0a 73b9 4993 003c 1aa8 64bb
00000030: 667d 323c c44c 17bc 59f9 2bbb 29eb 3abc
00000040: 963a 463b 9051 333c 84f1 22bc 3777 0f3a
00000050: 6207 e5bc feec 143b d016 d0ba d522 ecbb
00000060: ee23 04bc ec12 b83b 6e28 c7bb 6731 cabb
00000070: 8bdd d53b 7f95 a7bb 8000 173c 9156 1cba
00000080: 4f55 c1bb c9a8 253b 66b2 13bc 4280 2abb
00000090: d4ed 65bc 7a34 daba babe b0bb 636f eb3a
000000a0: dd30 2e3a 6d32 a6bb 2666 a9bc fb9b d73b
000000b0: b8f2 06bd 6c5d 86bc 82c6 0bbc 782d feba
000000c0: 974f bfbb d152 9cbc 1e24 19bb 2565 edbb
000000d0: d11a 3ebc 182f 31bb 70a6 4fbc bb45 cc3b
000000e0: aee1 1e3c 0f01 36bb 729c 063b f33c 1cbc
000000f0: 7548 0abc 4c0a 28bc 0222 46bc 3105 e8bb
00000100: 4188 0abc 6ac0 8bbb 2243 763b 8772 913c
00000110: 9c46 00bc 4378 d1bc 5166 3dbc 4da3 db3b
00000120: 2ec9 bf3a f6b5 2ebb e820 03bc 408c 5ebb
00000130: 57e7 7fbc 71ca 61bb 2141 883b 9070 bf3b
00000140: 812e 3d3c 31f7 f3bb 8f77 c0bc 7802 21bc
00000150: e289 fd3b a8b5 3cbc f0ba dcbc 6956 88bc
00000160: cc6f 183c b09d 25bc fb6d 833a cead 713a
00000170: 36d4 12bc 2669 de3b a61e 84bc 5661 2f3c

running_mean f4 [96]
-2942.4866 6136.3633 -2617.126 -7300.274 -2756.5618 278.312 5601.7153 -4092.371
1670.1182 1728.8761 1530.4707 -3592.439 1863.0021 -3266.2996 4513.736 -3474.363
-3304.864 5019.341 4875.695 1013.0424 -3052.3972 427.70386 673.09045 -1449.6501
-4253.2695 -2084.7021 -2370.4229 -1140.3408 -5555.3574 -5193.5215 2535.2573 -2341.4392
-1128.1344 -3011.1196 -545.30286 -6182.372 -2691.2034 3253.8547 -3407.1409 1393.8591
2428.5059 -1549.2068 -8108.721 -1779.0464 -2615.2485 -2169.6704 -1838.0133 1644.411
5491.2705 -1707.0701 -2178.9265 2071.0527 -2388.737 -111.29198 4558.8135 8250.108
7098.3345 -3708.5623 -898.5188 -2305.0676 -1937.4686 625.6181 2556.7522 150.6407
603.7939 -5495.968 2162.7654 2204.8489 -5900.7695 -3606.8235 2162.9126 1764.0691
-1750.8242 -2002.3336 -2916.4075 -600.6247 -4381.4336 1935.3214 6973.397 1917.3706
5613.463 -1384.365 -4247.867 9161.584 -744.9467 -4788.8213 -2127.4624 -2433.3928
2838.69 -3424.6235 2607.2485 1870.9607 -6183.881 -2540.1118 -4312.6836 1472.1943
00000000: c9e7 37c5 e8c2 bf45 0492 23c5 3122 e4c5
00000010: fd48 2cc5 f027 8b43 b90d af45 f0c5 7fc5
00000020: c8c3 d044 091c d844 104f bf44 0687 60c5
00000030: 11e0 e844 cb24 4cc5 e30d 8d45 cf25 59c5
00000040: d38d 4ec5 bada 9c45 8f5d 9845 b742 7d44
00000050: 5bc6 3ec5 18da d543 ca45 2844 ce34 b5c4
00000060: 28ea 84c5 3c4b 02c5 c426 14c5 e88a 8ec4
00000070: dc9a adc5 2c4c a2c5 1e74 1e45 0757 12c5
00000080: 4d04 8dc4 ea31 3cc5 6253 08c4 fa32 c1c5
00000090: 4133 28c5 ad5d 4b45 41f2 54c5 7e3b ae44
000000a0: 18c8 1745 9ea6 c1c4 c565 fdc5 7c61 dec4
000000b0: fa73 23c5 ba9a 07c5 6dc0 e5c4 278d cd44
000000c0: 2a9a ab45 3e62 d5c4 d32e 08c5 d870 0145
000000d0: cb4b 15c5 7e95 dec2 8276 8e45 6fe8 0046
000000e0: add2 dd45 ffc8 67c5 34a1 60c4 1511 10c5
000000f0: ff2e f2c4 8f67 1c44 09cc 1f45 05a4 1643
00000100: cff2 1644 bebf abc5 3f2c 0745 95cd 0945
00000110: 2866 b8c5 2d6d 61c5 9a2e 0745 3682 dc44
00000120: 60da dac4 ad4a fac4 8546 36c5 fb27 16c4
00000130: 78eb 88c5 49ea f144 2deb d945 dcab ef44
00000140: b46b af45 ae0b adc4 f0be 84c5 5626 0f46
00000150: 973c 3ac4 92a6 95c5 66f7 04c5 4916 18c5
00000160: 0a6b 3145 fa09 56c5 faf3 2245 bede e944
00000170: 0c3f c1c5 cac1 1ec5 78c5 86c5 3806 b844

running_var f4 [96]
1.8733522e+06 1.2724812e+07 9.879563e+06 1.711513e+07 8.814081e+06 2.2023658e+07 1.0340419e+07 1.4652255e+07
3.3796635e+06 2.6002305e+06 3.686682e+06 1.0445523e+07 3.0865272e+06 8.2546675e+06 7.080576e+06 1.0750358e+07
3.391979e+06 1.0500178e+07 8.71128e+06 3.0844248e+06 4.498859e+06 2.055611e+06 6.4277445e+06 535082.9
6.551938e+06 1.4427152e+07 1.545347e+07 953352.2 8.861713e+06 1.2034944e+07 4.0296838e+06 1.6414935e+06
1.1624049e+07 3.1107342e+06 1.1915444e+07 1.2310118e+07 7.661076e+06 5.04274e+06 8.3065235e+06 1.3555318e+06
2.862714e+06 824058.0 2.3182828e+07 758697.6 2.803426e+06 5.5866855e+06 8.365169e+06 1.527223e+06
1.0320501e+07 1.03250575e+06 2.0944692e+07 1.9293806e+06 6.079734e+06 6.9103245e+06 8.56552e+06 2.1717038e+07
1.753227e+07 4.755851e+06 8.995048e+06 7.064739e+06 1.3354259e+06 4.6163925e+06 2.12034e+06 7.2204825e+06
1.2474871e+06 8.912357e+06 2.9833658e+06 1.0371346e+07 1.1383459e+07 4.4252895e+06 2.446214e+06 3.5589805e+06
498191.4 2.8512825e+06 3.2233188e+06 1.3630033e+07 6.707898e+06 8.680949e+06 1.410884e+07 2.8063595e+06
1.3071529e+07 1.6561494e+07 7.4752535e+06 2.6172372e+07 952467.4 9.775491e+06 3.565829e+06 2.2314378e+07
4.2184615e+06 1.0945019e+07 3.0792728e+06 972703.75 1.5669578e+07 7.0810845e+06 8.183888e+06 3.2056038e+06
00000000: 42ae e449 4c2a 424b 0bc0 164b fd93 824b
00000010: 017e 064b f506 a84b 43c8 1d4b 5f93 5f4b
00000020: 3e47 4e4a 9ab4 1e4a 6804 614a d362 1f4b
00000030: fd62 3c4a 97e9 fb4a 0015 d84a 9609 244b
00000040: ac07 4f4a 5238 204b 70ec 044b 2342 3c4a
00000050: 564b 894a d8ed fa49 c128 c44a aea2 0249
00000060: 04f3 c74a 1024 5c4b 1ecd 6b4b 83c0 6849
00000070: 1138 074b 80a3 374b cff3 754a ac60 c849
00000080: 715e 314b 39dd 3d4a b4d0 354b 66d6 3b4b
00000090: 28cc e94a 68e4 994a b77e fd4a 5e78 a549
000000a0: e8b9 2e4a a02f 4949 f6de b04b 9a3a 3949
000000b0: 881b 2b4a fb7d aa4a e248 ff4a b86d ba49
000000c0: 757a 1d4b 9c13 7c49 9acb 9f4b 2585 eb49
000000d0: ec89 b94a e9e2 d24a 10b3 024b 17b0 a54b
000000e0: b7c2 854b 1623 914a e840 094b 4699 d74a
000000f0: 0f04 a349 91e1 8c4a 506a 014a 055a dc4a
00000100: f947 9849 e5fd 074b 1717 364a 1241 1e4b
00000110: a3b2 2d4b 930c 874a 184e 154a 1239 594a
00000120: ed41 f348 4a07 2e4a 5bbc 444a 51fa 4f4b
00000130: 74b5 cc4a f575 044b a848 574b 5e49 2b4a
00000140: a974 474b 56b5 7c4b 6b20 e44a eaad c74b
00000150: 3689 6849 8329 154b 14a4 594a c53e aa4b
00000160: bbbc 804a fb01 274b a3f1 3b4a fc79 6d49
00000170: 4a19 6f4b f918 d84a a0c0 f94a 8fa7 434a

weight f4 [32, 96, 1, 1]
-0.017041247 0.05328928 -0.04604654 -0.036648016 0.02982296 0.09416257 -0.0017004651 0.044033512
-0.080884255 -0.011872168 0.102459684 0.014963103 -0.028918337 -0.05732828 -0.03210548 -0.00295606
0.04419582 -0.03501569 0.050694242 -0.060800936 0.003702765 0.007824223 -0.07188247 -0.05711703
-0.08880829 -0.028882444 0.06071062 -0.118981384 -0.007228524 0.07442866 0.0847044 -0.07824021
-0.037253976 0.02365026 -0.034425057 0.024692912 0.03988418 0.043823507 -0.02534873 -0.03930506
0.063030906 0.050531723 0.046569385 0.0580885 -0.024697836 0.05199331 -0.052558847 -0.047748208
-0.094627276 -0.080087416 -0.04850099 -0.06961134 0.081746675 -0.0010735422 0.099982396 0.046158623
-0.06918264 -0.05880234 -0.10031024 0.059144694 0.00077113963 -0.052762732 0.0027569442 -0.00808735
0.07941566 -0.10111044 0.06741725 -0.004627698 0.058677014 -0.03985307 -0.0916279 -0.041434944
-0.076147355 0.054919623 0.026683504 -0.09977125 -0.023882844 -0.025731258 0.027512375 0.070954666
0.08142101 0.036540963 -0.011910553 -0.068940245 0.08671129 -0.064612724 0.024002789 -0.06057153
-0.052755043 0.027113456 -0.088677615 -0.014193293 0.07475886 -0.032592293 -0.032014534 -0.049453214
-0.038842406 0.04318103 -0.032979477 0.013786228 -0.0130237 -0.03435467 -0.026841545 -0.02460182
0.031454727 0.04657651 0.049470197 0.067539506 -0.026683193 -0.08106213 0.034294322 -0.08252343
0.045824308 0.048094716 0.08129187 0.03835487 0.08511311 0.033392526 0.018434577 -0.03418742
0.08445246 0.037717722 -0.06932889 0.06820261 -0.027979452 -0.066097416 -0.025342034 0.06454591
0.063359044 0.06915284 -0.091184385 0.085913934 -0.0944491 0.028292874 -0.085749924 -0.031433754
0.004127838 -0.04468118 -0.06480782 0.07928226 -0.06031431 0.07312647 -0.028215718 0.041492462
-0.013513294 0.010535603 -0.072641075 -0.0204347 0.07804842 0.05307001 0.0299141 0.011309972
-0.054029696 -0.08453536 -0.020625602 -0.096179545 -0.014065879 0.076156504 0.003085255 -0.017584296
-0.06375504 -0.049620178 -0.013839113 0.066071324 -0.044380315 -0.062406115 0.08299696 -0.032425836
0.033720918 0.10083097 -0.07618882 0.026347633 0.005434021 0.06831124 -0.0855215 -0.022870658
-0.09068377 -0.066235505 -0.03956036 -0.012738784 0.05180351 -0.022600902 0.061583344 -0.0056934394
0.016742382 0.0045501753 0.07438018 -0.07358009 -0.094636455 0.059810456 -0.03606521 0.09861689
0.10937331 -0.033577353 -0.047685433 -0.07403213 -0.034853056 -0.084618084 -0.036723297 -0.057714388
0.076351866 -0.08248545 -0.07453367 -0.09239357 -0.043814562 -0.009125524 -0.08799839 -0.04566497
-0.000983909 -0.087865494 0.09582524 0.027680935 0.08151935 0.029195989 0.057817142 0.05098522
0.06493751 0.089363545 0.08044872 -0.07626058 -0.07229776 0.033236083 0.10454691 -0.07503666
-0.09621663 -0.043309733 0.092226446 -0.055381566 -0.053886212 0.09779999 -0.088602796 -0.021961594
0.072141714 0.0072481316 0.03472531 -0.01586315 0.086662106 -0.047526367 -0.03694728 -0.07673346
0.02514582 -0.027118945 0.065630734 0.012898569 -0.0621826 -0.046102718 -0.086778164 -0.04976443
0.035786685 0.01694131 0.0039553037 0.08481462 0.032673232 0.035136282 0.010590949 -0.09117429
00000000: 169a 8bbc dc45 5a3d 4c9b 3cbd 3b1c 16bd
00000010: 484f f43c 4ed8 c03d 24e2 deba 7c5c 343d
00000020: a5a6 a5bd 7b83 42bc 62d6 d13d ce27 753c
00000030: 26e6 ecbc 0fd1 6abd 0981 03bd 75ba 41bb
00000040: ad06 353d 9d6c 0fbd c4a4 4f3d 670a 79bd
00000050: 17aa 723b 2b31 003c 1e37 93bd 8cf3 69bd
00000060: 1fe1 b5bd e09a ecbc b3ab 783d 83ac f3bd
00000070: 41dd ecbb 0e6e 983d 8079 ad3d 673c a0bd
00000080: a097 18bd 31be c13c 4a01 0dbd ca48 ca3c
00000090: 985d 233d 4780 333d 24a8 cfbc 58fe 20bd
000000a0: 5916 813d 5afa 4e3d 8abf 3e3d 35ee 6d3d
000000b0: 1e53 cabc f0f6 543d f247 57bd a093 43bd
000000c0: f2cb c1bd df04 a4bd f9a8 46bd 6490 8ebd
000000d0: cd6a a73d 19b6 8cba 92c3 cc3d d310 3d3d
000000e0: a1af 8dbd b9da 70bd 756f cdbd b541 723d
000000f0: 4e26 4a3a bc1d 58bd d9ad 343b ce80 04bc
00000100: ada4 a23d fe12 cfbd 0e12 8a3d f2a3 97bb
00000110: 4f57 703d f93c 23bd 69a7 bbbd b0b7 29bd
00000120: 25f3 9bbd 66f3 603d 5d97 da3c de54 ccbd
00000130: f4a5 c3bc 5cca d2bc a261 e13c ae50 913d
00000140: 0fc0 a63d faab 153d 7b24 43bc 8b30 8dbd
00000150: b095 b13d ad53 84bd 7fa1 c43c da19 78bd
00000160: ac15 58bd 0a1d de3c 9c9c b5bd fc8a 68bc
00000170: 2c1b 993d 7f7f 05bd ac21 03bd 748f 4abd
00000180: 3719 1fbd 97de 303d 7d15 07bd a2df 613c
00000190: 5b61 55bc 7cb7 0cbd cde2 dbbc c289 c9bc
000001a0: acd6 003d 03c7 3e3d 43a1 4a3d 2752 8a3d
000001b0: b696 dabc e703 a6bd 3478 0c3d 0b02 a9bd
000001c0: 45b2 3b3d f7fe 443d 5a7c a63d ff19 1d3d
000001d0: c84f ae3d 9ac6 083d 1c04 973c 1c08 0cbd
000001e0: 69f5 ac3d e67d 1a3d 4efc 8dbd cfad 8b3d
000001f0: 2a35 e5bc 155e 87bd 199a cfbc a530 843d
00000200: 63c2 813d 01a0 8d3d e1be babd a5f3 af3d
00000210: 886e c1bd 75c6 e73c a89d afbd aec0 00bd
00000220: d142 873b 9d03 37bd f6b9 84bd bd5e a23d
00000230: 230c 77bd 55c3 953d a624 e7bc 00f4 293d
00000240: dd66 5dbc 869d 2c3c d8c4 94bd ac66 a7bc
00000250: dad7 9f3d f05f 593d 6a0e f53c 764d 393c
00000260: 3e4e 5dbd e020 adbd 06f7 a8bc c8f9 c4bd
00000270: 9374 66bc f1f7 9b3d fd31 4a3b f10c 90bc
00000280: 0192 82bd 873e 4bbd 72bd 62bc 6750 873d
00000290: 22c8 35bd 8e9d 7fbd 4ffa a93d f4d0 04bd
000002a0: f21e 0a3d 7880 ce3d e208 9cbd fed6 d73c
000002b0: df0f b23b c3e6 8b3d e525 afbd 3f5b bbbc
000002c0: 6ab8 b9bd 7ba6 87bd 0b0a 22bd 55b6 50bc
000002d0: eb2f 543d 8725 b9bc d13e 7c3d 0890 babb
000002e0: 5227 893c a319 953b a354 983d 29b1 96bd
000002f0: c2d0 c1bd cffb 743d 1db9 13bd a7f7 c93d
00000300: 1dff df3d 6888 09bd cd51 43bd 289e 97bd
00000310: 14c2 0ebd 3f4c adbd 2b6b 16bd ec65 6cbd
00000320: 5e5e 9c3d 22ee a8bd 1ca5 98bd d738 bdbd
00000330: e676 33bd 3983 15bc 8038 b4bd 310b 3bbd
00000340: 82f6 80ba d3f2 b3bd 0640 c43d 21c3 e23c
00000350: 9ef3 a63d 6d2c ef3c abd1 6c3d e1d5 503d
00000360: f5fd 843d 3c04 b73d 4cc2 a43d 822e 9cbd
00000370: d910 94bd 8f22 083d b11c d63d d2ac 99bd
00000380: 390d c5bd 8c65 31bd 38e1 bc3d c8d7 62bd
00000390: cab7 5cbd 5c4b c83d 6275 b5bd cde8 b3bc
000003a0: 09bf 933d bc81 ed3b 203c 0e3d 70f3 81bc
000003b0: e77b b13d 02ab 42bd 0856 17bd 6f26 9dbd
000003c0: 9bfe cd3c 8d28 debc 6869 863d 8554 533c
000003d0: 2fb3 7ebd 34d6 3cbd c0b8 b1bd c9d5 4bbd
000003e0: 0f95 123d 81c8 8a3c 7e9b 813b 4ab3 ad3d
000003f0: 5ed4 053d 10eb 0f3d a985 2d3c 96b9 babd

weight f4 [32]
0.97554505 0.98518693 0.97680503 0.96650094 0.9638097 0.9835104 0.97375995 0.973432
0.95769894 0.97664726 0.9800515 0.9677961 0.9709944 0.98011655 0.97223836 0.98818356
0.97218233 0.9679726 0.97932607 0.9915067 0.9722591 0.9736846 0.98724747 0.9696244
0.9774967 0.97428274 0.98250073 0.97933143 0.9815971 0.97546726 0.9706884 0.97218543
00000000: 52bd 793f 3635 7c3f e50f 7a3f 9b6c 773f
00000010: 3cbc 763f 56c7 7b3f 5548 793f d732 793f
00000020: c22b 753f 8e05 7a3f a8e4 7a3f 7cc1 773f
00000030: 1793 783f ebe8 7a3f 9de4 783f 99f9 7c3f
00000040: f1e0 783f 0dcd 773f 1db5 7a3f 62d3 7d3f
00000050: f9e5 783f 6543 793f 40bc 7c3f 4e39 783f
00000060: 393d 7a3f 986a 793f 2b85 7b3f 77b5 7a3f
00000070: f349 7b3f 39b8 793f 097f 783f 25e1 783f

bias f4 [32]
-0.009806689 0.00070593774 -0.0072807213 0.0003616527 0.007150526 0.0031009435 -0.009820601 0.004986934
-0.0060780044 0.0007724192 0.0029670238 0.0022247953 0.0008691106 -0.002408788 -0.0015400235 -0.009488978
-0.00016020873 0.00019602691 0.0035236888 -0.0057593365 -0.004579171 -0.00089421927 -0.0041041817 0.0035397431
-0.009079566 -6.4125634e-05 -0.0065309573 0.001973159 -0.009816575 0.004014537 0.003553188 0.0030545255
00000000: 3cac 20bc ae0e 393a 1e93 eebb 349c bd39
00000010: f64e ea3b 3339 4b3b 96e6 20bc 6f69 a33b
00000020: ff29 c7bb 2d7c 4a3a 6672 423b dfcd 113b
00000030: 06d5 633a c2dc 1dbb 9dda c9ba a977 1bbc
00000040: b4fd 27b9 938c 4d39 b0ed 663b d1b8 bcbb
00000050: df0c 96bb 0a6a 6aba 5f7c 86bb 09fb 673b
00000060: 76c2 14bc 307b 86b8 a401 d6bb 1d50 013b
00000070: b3d5 20bc 618c 833b 9adc 683b 6f2e 483b

running_mean f4 [32]
-0.22823007 0.00348032 -0.045213718 -0.15357658 0.21131551 -0.11998097 -0.01213943 -0.25738004
0.10206743 0.13729592 -0.26036733 0.03432803 -0.08844606 -0.11227616 0.10798491 0.1856485
0.037287798 0.3187475 0.4381088 0.1920657 0.3608285 -0.07619886 -0.049002986 0.24344698
-0.01612996 0.13586813 -0.11962912 0.23471174 -0.021196742 0.14554062 -0.103628896 0.2240376
00000000: 25b5 69be 1516 643b 0532 39bd 2e43 1dbe
00000010: 1863 583e 95b8 f5bd 76e4 46bc 51c7 83be
00000020: bb08 d13d 4d97 0c3e de4e 85be 8c9b 0c3d
00000030: 3523 b5bd 0bf1 e5bd 3127 dd3d a41a 3e3e
00000040: 17bb 183d df32 a33e cc4f e03e dfac 443e
00000050: 83be b83e 260e 9cbd 5bb7 48bd 2a4a 793e
00000060: fa22 84bc 0421 0b3e 1d00 f5bd 4658 703e
00000070: caa4 adbc 9a08 153e 633b d4bd 1d6a 653e

running_var f4 [32]
0.018188711 0.057601504 0.012185371 0.0847672 0.040017392 0.031954907 0.012840175 0.07968625
0.08551903 0.030102255 0.020935748 0.06393389 0.035766013 0.11339228 0.051630713 0.033292037
0.15097831 0.040903814 0.07597488 0.04254778 0.05949403 0.027529195 0.019774918 0.071965404
0.024141219 0.08495365 0.045419615 0.035320316 0.061527964 0.06115356 0.10053075 0.044441357
00000000: 7e00 953c 8eef 6b3d 26a5 473c 6d9a ad3d
00000010: 47e9 233d 26e3 023d 995f 523c 8b32 a33d
00000020: 9a24 af3d 0199 f63c 7281 ab3c c5ef 823d
00000030: 627f 123d 363a e83d ba7a 533d 3b5d 083d
00000040: 0f9a 1a3e c28a 273d b898 9b3d 9546 2e3d
00000050: 03b0 733d e884 e13c 02ff a13c 9962 933d
00000060: cec3 c53c 2efc ad3d eb09 3a3d 09ac 103d
00000070: bf04 7c3d 287c 7a3d 11e3 cd3d 2408 363d

weight f4 [32, 96, 1, 1]
0.05258226 -0.06116854 -0.070743136 -0.08854799 0.04075702 -0.07533002 -0.04734213 0.03445779
0.10436851 0.0944818 -0.0682482 0.047547072 -0.043177146 0.018403623 0.06464073 0.05136841
-0.016808083 0.055591624 0.03967596 0.03120248 -0.1077131 0.10804699 -0.026751786 -0.020086031
-0.008599407 -0.10241534 -0.055382974 -0.07967838 0.036027838 -0.036915973 -0.054955497 0.02595176
-0.049430825 -0.018297464 -0.021489343 0.021886593 0.061793458 -0.029271051 0.059483103 -0.070673704
-0.067989595 0.091438964 -0.052882347 0.08111048 0.008136162 0.061972782 -0.0063143373 -0.0350842
0.021396333 -0.056614567 -0.017622566 0.03032101 -0.00036902056 0.046236668 -0.025790626 -0.026401363
0.060898695 -0.06519785 -0.037780825 0.06973397 -0.0686438 0.025238566 0.06985705 0.0326867
-0.04530598 0.069320135 0.020845471 0.030621912 -0.034361124 0.088334255 0.036643256 -0.08113386
-0.057229403 -0.06855909 -0.077583216 -0.090935014 0.064975426 0.062312473 -0.05612901 0.07802262
-0.07967086 -0.063027866 0.07159693 0.06488132 0.03238937 0.043396518 0.040006056 -0.015857289
-0.034900922 -0.079414204 0.0069679283 0.10270035 -0.035862304 -0.08080785 0.06023284 -0.052856103
-0.07933509 -0.07035345 -0.0005631362 0.006672453 0.05658367 0.05851309 -0.106768124 0.08854207
-0.016067263 0.06642518 -0.019029047 -0.031511277 -0.066083275 0.034219496 -0.022741184 -0.045910995
-0.054879464 0.08434756 -0.045319505 0.06019258 -0.057461593 0.040853664 -0.012105461 0.0187836
-0.08532607 0.06922234 -0.09206012 0.0020143616 0.044093966 -0.060479734 -0.028701223 0.05529652
-0.06807769 -0.02566277 -0.0018082683 0.02253519 -0.0077098897 -0.071880154 0.023890741 0.06660028
0.04060924 -0.017944375 -0.054035172 0.011527007 0.11898627 0.034060467 0.05854372 -0.015541968
0.0789869 0.029590804 -0.07903294 -0.00048440925 -0.001957597 -0.083900005 0.05604443 0.07313177
-0.06926761 -0.064830706 0.013303889 -0.011141637 0.06585368 0.08145995 -0.08088807 0.054163374
0.021149278 0.030573431 0.050597116 -0.0662633 0.07887545 0.029044531 -0.07641605 -0.010729236
-0.07442543 -0.051108185 0.08873975 -0.009037666 0.0017704504 -0.0015560638 0.06945719 0.09271922
0.10546689 -0.08004414 -0.022457415 -0.07016067 0.055889383 -0.08781605 0.06350636 -0.07589097
0.012474113 0.029362917 0.039128926 0.035856567 -0.08773882 -0.033133946 -0.06397818 0.00017184514
-0.08288489 0.07770445 0.040497363 0.07765899 0.01709732 -0.045444444 -0.05593653 0.058497466
-0.07168638 -0.04467977 -0.09101378 -0.06880471 0.010854097 -0.074152455 0.06276632 -0.09793893
-0.0016686872 0.06531076 0.063221 0.07277567 -0.03972987 0.09490213 -0.0061778445 -0.12905617
-0.025279185 -0.058998436 -0.005649575 0.08290845 0.022549307 -0.018743875 -0.04836266 -0.09551176
0.031468753 0.021653896 0.0075623957 -0.0875947 -0.07424568 -0.08388306 -0.018429538 -0.09820292
-0.09377317 0.008606569 0.081945516 -0.0579168 0.034914568 0.06293948 0.005287816 -0.030189909
0.05804477 0.07502856 -0.010975968 -0.05329686 0.104465455 0.011304494 0.07318801 -0.011417498
-0.041918095 0.0018599469 -0.08789259 -0.0578921 -0.04429484 0.05461237 0.013823968 -0.0024336895
00000000: 7f60 573d dd8b 7abd c7e1 90bd a658 b5bd
00000010: d5f0 263d a046 9abd d2e9 41bd 9d23 0d3d
00000020: 28bf d53d ad7f c13d b6c5 8bbd b8c0 423d
00000030: 85da 30bd 32c3 963c 5c62 843d af67 523d
00000040: 1bb1 89bc 0bb4 633d 4283 223d 589c ff3c
00000050: b098 dcbd be47 dd3d 9026 dbbc 768b a4bc
00000060: 87e4 0cbc 22bf d1bd 42d9 62bd 6b2e a3bd
00000070: ed91 133d 3435 17bd 0419 61bd c998 d43c
00000080: fa77 4abd 90e4 95bc 6b0a b0bc 834b b33c
00000090: 231b 7d3d d8c9 efbc 8ea4 733d 60bd 90bd
000000a0: 213e 8bbd 5a44 bb3d 299b 58bd 401d a63d
000000b0: 894d 053c 2cd7 7d3d 80e8 cebb 73b4 0fbd
000000c0: 5d47 af3c ade4 67bd 335d 90bc c463 f83c
000000d0: 1a79 c1b9 a962 3d3d dd46 d3bc ac47 d8bc
000000e0: e970 793d 7386 85bd 11c0 1abd afd0 8e3d
000000f0: 1f95 8cbd 1cc1 ce3c 3711 8f3d 7de2 053d
00000100: c392 39bd b7f7 8d3d 1fc4 aa3c ceda fa3c
00000110: 40be 0cbd 97e8 b43d 3d17 163d 8229 a6bd
00000120: 6169 6abd b568 8cbd f3e3 9ebd 233c babd
00000130: d611 853d 5d3b 7f3d 88e7 65bd 53ca 9f3d
00000140: 7a2a a3bd c114 81bd 69a1 923d 7fe0 843d
00000150: b7aa 043d 8cc0 313d 64dd 233d 25e7 81bc
00000160: 45f4 0ebd eaa3 a2bd 3853 e43b 9054 d23d
00000170: 5ae4 12bd 967e a5bd b6b6 763d a47f 58bd
00000180: 707a a2bd 7815 90bd 6e9f 13ba 98a4 da3b
00000190: 47c4 673d 6cab 6f3d 3fa9 dabd 8b55 b53d
000001a0: 7e9f 83bc ed09 883d cee2 9bbc f811 01bd
000001b0: ab56 87bd be29 0c3d b84b babc 2b0d 3cbd
000001c0: 4ac9 60bd 6abe ac3d f2a0 39bd 7f8c 763d
000001d0: d95c 6bbd 2c56 273d fc55 46bc 10e0 993c
000001e0: 6fbf aebd 71c4 8d3d 048a bcbd 6103 043b
000001f0: e09b 343d 99b9 77bd d41e ebbc 9b7e 623d
00000200: 516c 8bbd bb3a d2bc 6a03 edba b89b b83c
00000210: 3ea3 fcbb e735 93bd 84b6 c33c ba65 883d
00000220: e055 263d 1500 93bc fc53 5dbd c6db 3c3c
00000230: 13af f33d fd82 0b3d 8acb 6f3d bda3 7ebc
00000240: e2c3 a13d 6a68 f23c 06dc a1bd 4ff8 fdb9
00000250: 074b 00bb c4d3 abbd d88e 653d 1cc6 953d
00000260: 2ddc 8dbd f6c5 84bd 8ef8 593c 6a8b 36bc
00000270: 4bde 863d 79d4 a63d a5a8 a5bd 6ada 5d3d
00000280: 4041 ad3c 2275 fa3c ec3e 4f3d 0eb5 87bd
00000290: 7489 a13d ccee ed3c 0580 9cbd adc9 2fbc
000002a0: 5c6c 98bd d156 51bd 30bd b53d b812 14bc
000002b0: 750e e83a d6f4 cbba 923f 8e3d 93e3 bd3d
000002c0: 06ff d73d 2fee a3bd 9df8 b7bc 66b0 8fbd
000002d0: 44ec 643d e7d8 b3bd 9f0f 823d ba6c 9bbd
000002e0: 3960 4c3c 808a f03c a745 203d 56de 123d
000002f0: 69b0 b3bd 76b7 07bd fe06 83bd 5431 3439
00000300: 8ebf a9bd 8323 9f3d 90e0 253d ad0b 9f3d
00000310: ae0f 8c3c f423 3abd b41d 65bd 0a9b 6f3d
00000320: 4fd0 92bd 2202 37bd 6f65 babd 7ce9 8cbd
00000330: 62d5 313c 3edd 97bd a18b 803d 3594 c8bd
00000340: dab7 daba a6c1 853d 037a 813d 690b 953d
00000350: cabb 22bd 0c5c c23d 846f cabb 4d27 04be
00000360: 4b16 cfbc 58a8 71bd 1220 b9bb e8cb a93d
00000370: 53b9 b83c c18c 99bc ed17 46bd ab9b c3bd
00000380: 61e5 003d 8363 b13c f9cd f73b da64 b3bd
00000390: 1e0e 98bd e2ca abbd 8bf9 96bc 9d1e c9bd
000003a0: 260c c0bd 9102 0d3c 0dd3 a73d 2b3a 6dbd
000003b0: 9402 0f3d 6ae6 803d 6a45 ad3b d450 f7bc
000003c0: 5ac0 6d3d 93a8 993d 8cd4 33bc cf4d 5abd
000003d0: fcf1 d53d 7c36 393c 98e3 953d 7510 3bbc
000003e0: 4fb2 2bbd 76c9 f33a 0801 b4bd 4420 6dbd
000003f0: 826e 35bd 38b1 5f3d ed7d 623c 897e 1fbb

weight f4 [32]
1.0014104 0.9979037 0.9664806 1.01429 1.0464892 1.0325452 1.0022454 0.97603536
0.978313 1.0112486 0.9711543 0.9949968 0.9993818 0.9600514 0.99314505 0.9992272
0.9975504 0.9890733 0.9731237 1.029291 1.0250195 0.9804753 1.013446 0.9977322
0.979592 1.0355319 0.978082 0.9951283 0.98458385 0.9678475 0.97097945 0.99078023
00000000: 372e 803f 9e76 7f3f 466b 773f 41d4 813f
00000010: 5cf3 853f 712a 843f 9449 803f 74dd 793f
00000020: b972 7a3f 9870 813f 919d 783f 1cb8 7e3f
00000030: 7cd7 7f3f eec5 753f c13e 7e3f 5bcd 7f3f
00000040: 775f 7f3f e833 7d3f a31e 793f cfbf 833f
00000050: d733 833f 6e00 7b3f 99b8 813f 616b 7f3f
00000060: 8bc6 7a3f 4f8c 843f 9563 7a3f bac0 7e3f
00000070: b00d 7c3f dbc4 773f 1c92 783f c6a3 7d3f

bias f4 [32]
-0.016429428 -0.00961131 0.0021154073 0.0048610307 0.010708405 0.015077128 -0.020058956 0.0111275865
-0.0016601008 0.011842675 -0.0018640109 0.0013339707 -0.0027023917 0.002897167 0.0017400656 -0.025501806
-0.0017897681 0.0016886161 0.020731904 -0.00289032 -0.00092859304 0.00046728065 -0.0012330585 -0.002833667
-0.011587901 0.02482206 -0.011741908 -0.0069959974 -0.010607378 -0.0051663145 0.0077347807 0.0082861865
00000000: 0297 86bc c278 1dbc a5a2 0a3b 4849 9f3b
00000010: 4e72 2f3c 0f06 773c ae52 a4bc 7b50 363c
00000020: bd97 d9ba c707 423c d451 f4ba a1d8 ae3a
00000030: 9c1a 31bb 66de 3d3b ea12 e43a 2ae9 d0bc
00000040: a796 eaba 8e54 dd3a f4d5 a93c 866b 3dbb
00000050: d36c 73ba 59fd f439 949e a1ba 0bb5 39bb
00000060: 2edb 3dbc a257 cb3c 2261 40bc ae3e e5bb
00000070: 91ca 2dbc 304a a9bb 0b74 fd3b c9c2 073c

running_mean f4 [32]
-0.069067016 -0.007124105 -0.37503213 -0.09267953 0.004130502 0.11445578 0.35613388 -0.27733845
0.024792742 0.08022732 -0.043740883 0.13559555 -0.334197 -0.23165227 0.05628644 0.12111749
-0.026068255 0.045486517 0.67036355 -0.01637743 0.12195994 0.119485326 -0.107892096 -0.18795213
0.3074525 -0.07650487 0.36434114 -0.006536645 0.054031324 0.12871526 0.24587171 0.08056904
00000000: 0273 8dbd 5371 e9bb 3604 c0be c4ce bdbd
00000010: 2a59 873b cb67 ea3d 2e57 b63e 4eff 8dbe
00000020: 261a cb3c 394e a43d a429 33bd 8fd9 0a3e
00000030: df1b abbe 4136 6dbe 9c8c 663d 720c f83d
00000040: 188d d5bc 1250 3a3d f29c 2b3f f629 86bc
00000050: 22c6 f93d b9b4 f43d 88f6 dcbd 8676 40be
00000060: 6a6a 9d3e 96ae 9cbd ec8a ba3e 5a31 d6bb
00000070: f34f 5d3d efcd 033e cbc5 7b3e 6101 a53d

running_var f4 [32]
0.06292953 0.010496986 0.059386663 0.009453434 0.012866226 0.01406885 0.063085265 0.07949035
0.031791255 0.030197391 0.06024781 0.031801462 0.035505053 0.02369733 0.027222449 0.07273041
0.008794935 0.024279973 0.16036172 0.014777611 0.018610105 0.030358274 0.011095384 0.07003727
0.024033595 0.012352053 0.018049186 0.044467594 0.024978828 0.048653472 0.07396323 0.021322604
00000000: 33e1 803d 8dfb 2b3c 6e3f 733d 93e2 1a3c
00000010: ddcc 523c 0981 663c d932 813d d6cb a23d
00000020: 8c37 023d 8560 f73c 68c6 763d 4042 023d
00000030: bf6d 113d e720 c23c 9d01 df3c aef3 943d
00000040: a218 103c cbe6 c63c dd35 243e cb1d 723c
00000050: 3874 983c eab1 f83c 6ac9 353c b36f 8f3d
00000060: 1ae2 c43c 4460 4a3c e3db 933c a723 363d
00000070: 66a0 cc3c dd48 473d 097a 973d beac ae3c

weight f4 [96, 32, 1, 1]
-0.15623163 0.049021926 0.10405761 -0.021604113 0.023653088 0.074526615 0.106291704 -0.05379214
-0.060362767 -0.060362868 -0.12983294 0.028009819 0.07029571 0.03279556 0.061557166 0.15747166
0.17280114 0.13461193 -0.1405615 0.048682768 0.14699481 -0.14793205 0.065207936 -0.16133097
-0.13108832 -0.074601695 -0.069994524 0.1565073 -0.06469494 -0.05210345 0.021573976 -0.14192559
0.12864731 -0.068737425 -0.027373696 0.0237239 0.0033141102 0.090649895 0.13798186 -0.09553504
-0.16271679 -0.16401319 -0.13772857 -0.1679137 -0.13414434 -0.030143935 0.025132695 0.07652311
0.057295166 0.07236857 -0.13924481 -0.11536638 -0.08567388 0.09770458 -0.14914018 -0.15312625
0.05217908 0.16467378 -0.028754776 0.048254382 -0.15921788 0.14201783 0.115594305 -0.04884083
0.05558132 -0.15290073 0.11953952 -0.14422497 -0.16223726 0.15622257 -0.06608961 -0.09166888
-0.061721504 0.06632874 0.112960346 0.10940691 0.099278055 -0.052946303 -0.0041510197 0.010585213
0.16218211 0.047096353 0.12965879 -0.05326061 -0.120146565 0.1570385 0.13445139 -0.0058447183
-0.1660474 0.14150184 0.063838854 -0.014563948 0.024731616 0.1356935 0.011818809 -0.024398247
-0.17205213 -0.06606159 0.01348111 -0.046804048 -0.025633818 0.16171086 -0.012763009 -0.013741302
-0.076940395 0.03216782 0.108963475 0.07341728 0.0680631 -0.059697285 0.1409553 -0.034884367
0.008439456 -0.034151822 -0.08051706 0.10550654 -0.09207519 0.043571524 -0.06477603 -0.11417431
-0.08243744 -0.03620666 0.14263639 -0.12944658 -0.17043822 0.03768058 0.04631856 0.11654409
-0.027040511 0.029758995 0.0064948886 -0.106268615 0.00013104182 -0.004803815 0.0315203 0.14887324
-0.10501814 0.11330927 0.090132095 0.109955445 -0.003920318 -0.12510133 0.12719777 -0.17048223
0.00047674717 0.08865228 -0.04208958 0.13305603 0.02721376 0.15006652 0.17231819 0.10258528
0.069276966 0.09452553 0.028950216 -0.060229402 -0.06302146 0.13006335 -0.066768385 -0.1250754
-0.06319283 0.16829611 0.16450498 0.10406646 -0.14991532 -0.015737092 0.061726764 0.06614616
0.16056535 0.05294666 0.12820454 0.025085313 0.08381948 -0.14371039 0.15482202 0.09928414
0.0056055114 0.1296797 0.008841057 0.050846804 -0.033623938 0.122576475 -0.011950963 0.04762443
-0.1553255 0.007910585 0.02637711 -0.064632885 0.019447345 0.07150627 -0.112746574 -0.015413073
0.17115952 0.16668034 0.1573207 0.1469326 -0.02560771 0.06126703 0.101572 -0.08625028
-0.058506392 0.09036143 -0.07959458 0.14909501 -0.16814873 -0.16488664 0.04274113 -0.02583556
-0.15657988 -0.01063586 -0.0100213075 -0.08750549 -0.0038950494 0.010361342 0.011395588 0.14592814
-0.035745475 0.028894562 0.14629115 0.16203861 0.07992171 -0.02253851 -0.1254087 0.04435391
-0.11802171 0.09002449 -0.02598744 0.14626318 0.050713565 0.078101784 -0.052293718 -0.004910088
-0.098090984 0.16058055 -0.096865125 -0.025674507 -0.0544365 0.07001359 -0.17043394 -0.062371176
0.0061490685 -0.012355415 -0.08211186 -0.050921526 -0.13749847 -0.13991284 -0.15627097 -0.06396137
0.11626829 -0.10240465 0.016428204 0.05162339 -0.13015802 -0.07122261 0.044020593 0.07603318
00000000: 2ffb 1fbe 37cb 483d 281c d53d 1cfb b0bc
00000010: 1fc4 c13c 69a1 983d 77af d93d 2655 5cbd
00000020: f33e 77bd 0e3f 77bd edf2 04be d974 e53c
00000030: 32f7 8f3d a354 063d 5e23 7c3d 4040 213e
00000040: c8f2 303e b6d7 093e 5bef 0fbe 9567 473d
00000050: cf85 163e 807b 17be bd8b 853d f233 25be
00000060: 043c 06be c6c8 98bd 4a59 8fbd 7343 203e
00000070: c87e 84bd 6d6a 55bd e8bb b03c f154 11be
00000080: 1fbc 033e 35c6 8cbd cd3e e0bc a058 c23c
00000090: 8b31 593b a7a6 b93d 1e4b 0d3e e0a7 c3bd
000000a0: 3b9f 26be 13f3 27be b808 0dbe 92f1 2bbe
000000b0: 225d 09be 6af0 f6bc 15e3 cd3c 26b8 9c3d
000000c0: 56ae 6a3d f935 943d 3196 0ebe 3545 ecbd
000000d0: ca75 afbd 5719 c83d 34b8 18be 21cd 1cbe
000000e0: bbb9 553d 3ea0 283e 238f ebbc 63a6 453d
000000f0: 030a 23be 1f6d 113e b5bc ec3d 520d 48bd
00000100: 3da9 633d 0292 1cbe 23d1 f43d b6af 13be
00000110: 8621 26be cff8 1f3e fd59 87bd e5bc bbbd
00000120: b0cf 7cbd 5dd7 873d c157 e73d bb10 e03d
00000130: 4b52 cb3d 39de 58bd 4705 88bb 9a6d 2d3c
00000140: 1113 263e 1be8 403d 46c5 043e cc27 5abd
00000150: 670f f6bd b3ce 203e a0ad 093e 0d85 bfbb
00000160: 5408 2abe dce5 103e f2bd 823d a09d 6ebc
00000170: f599 ca3c 3df3 0a3e aea3 413c d5de c7bc
00000180: 6f2e 30be 4d4b 87bd e0df 5c3c 9ab5 3fbd
00000190: 03fe d1bc 8897 253e f11b 51bc 3323 61bc
000001a0: ed92 9dbd 67c2 033d 3e28 df3d cd5b 963d
000001b0: ab64 8b3d 2485 74bd 9656 103e e9e2 0ebd
000001c0: a545 0a3c c8e2 0bbd 21e6 a4bd d013 d83d
000001d0: eb91 bcbd 0e78 323d 4ca9 84bd 38d4 e9bd
000001e0: f6d4 a8bd 6f4d 14bd 460f 123e a58d 04be
000001f0: 5b87 2ebe f456 1a3d 88b8 3d3d abae ee3d
00000200: 1084 ddbc 23c9 f33c 13d3 d43b 5ca3 d9bd
00000210: 4568 0939 5269 9dbb 6e1b 013d 3a72 183e
00000220: c013 d7bd b10e e83d 2d97 b83d 5230 e13d
00000230: 0376 80bb 901a 00be 2240 023e e592 2ebe
00000240: ecf3 f939 548f b53d 2066 2cbd d73f 083e
00000250: 64ef de3c 0aab 193e 2e74 303e 3b18 d23d
00000260: 15e1 8d3d 9a96 c13d 0129 ed3c 1bb3 76bd
00000270: 6511 81bd 542f 053e ddbd 88bd c413 00be
00000280: 3e6b 81bd d155 2c3e fe73 283e cc20 d53d
00000290: 6783 19be 13eb 80bc 34d5 7c3d a377 873d
000002a0: 3e6b 243e 99de 583d 0d48 033e b77f cd3c
000002b0: 8ca9 ab3d d128 13be aa89 1e3e 7c55 cb3d
000002c0: 70ae b73b c1ca 043e 15da 103c bd44 503d
000002d0: 41b9 09bd 6009 fb3d f9cd 43bc d611 433d
000002e0: a60d 1fbe 669b 013c cf14 d83c 3f5e 84bd
000002f0: 0a50 9f3c e171 923d ade7 e6bd 1d87 7cbc
00000300: 7144 2f3e 40ae 2a3e ad18 213e 8075 163e
00000310: 43c7 d1bc 23f3 7a3d fb04 d03d fda3 b0bd
00000320: 66a4 6fbd 6a0f b93d 7c02 a3bd 5dac 183e
00000330: 2e2f 2cbe 0bd8 28be 5311 2f3d 19a5 d3bc
00000340: 7a56 20be 0842 2ebc 6930 24bc 1436 b3bd
00000350: 1644 7fbb 9ec2 293c 8fb4 3a3c 306e 153e
00000360: d969 12bd 4ab4 ec3c 59cd 153e 73ed 253e
00000370: fead a33d aea2 b8bc 236b 00be 72ac 353d
00000380: 5eb5 f1bd c35e b83d 9de3 d4bc 04c6 153e
00000390: 07b9 4f3d d4f3 9f3d f031 56bd cee4 a0bb
000003a0: ede3 c8bd 3a6f 243e 3961 c6bd 5853 d2bc
000003b0: cff8 5ebd 4963 8f3d 3c86 2ebe eb78 7fbd
000003c0: 207e c93b 5e6e 4abc 432a a8bd 1793 50bd
000003d0: 66cc 0cbe 5045 0fbe 7f05 20be 2efe 82bd
000003e0: 121e ee3d 87b9 d1bd 7194 863c 0c73 533d
000003f0: 2548 05be 29dd 91bd f04e 343d 49b7 9b3d

weight f4 [96]
0.96871686 0.96871716 0.9687174 0.96871734 0.9687167 0.96871746 0.9687171 0.9687174
0.96871674 0.9687173 0.96870804 0.96871674 0.9687179 0.96871525 0.9687175 0.9687171
0.9687166 0.9687082 0.96871734 0.96871823 0.96871704 0.9687176 0.96871656 0.968717
0.9687175 0.9687176 0.96871746 0.96871746 0.9687177 0.9687176 0.96871704 0.9687172
0.96871746 0.9687174 0.96871704 0.96871734 0.96871734 0.9687172 0.9687176 0.96871734
0.9687175 0.96871746 0.96871805 0.9687174 0.96871793 0.9687175 0.96871823 0.96871614
0.9687172 0.96871716 0.9687165 0.9687174 0.96871763 0.96871465 0.96871644 0.9687155
0.9687163 0.9687181 0.9687174 0.9687171 0.968717 0.96871686 0.96871775 0.96871704
0.96871793 0.9687175 0.96871716 0.96871704 0.96871734 0.9687166 0.9687176 0.968718
0.96871513 0.96871746 0.9687176 0.96871614 0.96871656 0.9687165 0.9687165 0.9687171
0.968717 0.9687169 0.9687163 0.96871716 0.9687169 0.96871734 0.9687174 0.9687175
0.9687158 0.96871644 0.96871656 0.9687171 0.96871793 0.9687172 0.9687176 0.96871805
00000000: d4fd 773f d9fd 773f ddfd 773f dcfd 773f
00000010: d1fd 773f defd 773f d8fd 773f ddfd 773f
00000020: d2fd 773f dbfd 773f 40fd 773f d2fd 773f
00000030: e5fd 773f b9fd 773f dffd 773f d8fd 773f
00000040: d0fd 773f 43fd 773f dcfd 773f ebfd 773f
00000050: d7fd 773f e0fd 773f cffd 773f d6fd 773f
00000060: dffd 773f e0fd 773f defd 773f defd 773f
00000070: e2fd 773f e0fd 773f d7fd 773f dafd 773f
00000080: defd 773f ddfd 773f d7fd 773f dcfd 773f
00000090: dcfd 773f dafd 773f e0fd 773f dcfd 773f
000000a0: dffd 773f defd 773f e8fd 773f ddfd 773f
000000b0: e6fd 773f dffd 773f ebfd 773f c8fd 773f
000000c0: dafd 773f d9fd 773f cefd 773f ddfd 773f
000000d0: e1fd 773f affd 773f cdfd 773f bdfd 773f
000000e0: cbfd 773f e9fd 773f ddfd 773f d8fd 773f
000000f0: d6fd 773f d4fd 773f e3fd 773f d7fd 773f
00000100: e6fd 773f dffd 773f d9fd 773f d7fd 773f
00000110: dcfd 773f d0fd 773f e0fd 773f e7fd 773f
00000120: b7fd 773f defd 773f e0fd 773f c8fd 773f
00000130: cffd 773f cefd 773f cefd 773f d8fd 773f
00000140: d6fd 773f d5fd 773f cbfd 773f d9fd 773f
00000150: d5fd 773f dcfd 773f ddfd 773f dffd 773f
00000160: c2fd 773f cdfd 773f cffd 773f d8fd 773f
00000170: e6fd 773f dafd 773f e0fd 773f e8fd 773f

bias f4 [96]
0.000562943 -0.0004830215 -0.0002035169 -0.0012196434 0.0014034412 0.0011421622 0.0009352767 -0.00069144304
-0.001130775 -0.00033976036 -0.0043507554 -0.001221678 5.9612317e-05 -0.0007045056 0.00091351406 0.0016190358
0.00060153555 -0.005252739 0.00047053857 -0.00018250136 -0.0009462543 -0.00074150064 0.0012995229 -0.00084985857
0.00018130061 0.0010865987 8.234668e-05 -0.00037625595 -1.8406e-06 0.00060201075 0.0006631638 -0.00083074835
-0.0004090377 -0.0009636705 2.1871057e-05 0.00027091085 -0.0015849314 0.0009198295 0.00038997276 -0.00041058395
0.0017265581 0.000530416 0.00027897322 0.0005499424 -0.0010588116 0.0006854445 7.972401e-05 -0.00087231287
0.0010335976 0.0013155335 0.0005484003 0.00024021644 0.00020546874 0.0029419789 -0.0009775336 -0.0026748378
-0.0018510366 -3.8797898e-05 -6.2495914e-05 -0.0006582634 -0.0010415611 -0.0015373982 -0.00096826773 -0.00091878977
8.55887e-06 -0.0015313769 0.0001488772 1.6182761e-05 0.00032786722 -0.0017262857 6.536019e-05 0.0005572078
-0.0029002153 -0.00041740818 0.0011284474 -0.00199438 0.0018269939 -0.0022317294 -0.0011908408 0.0011509708
2.3817702e-05 0.00043710228 0.0019214059 -8.236011e-05 -0.001331855 0.00062283006 -0.00031524667 -0.000115751776
-0.0028701818 -0.0022402895 -0.0016670713 -0.00016311377 0.0007278732 0.000641586 -0.00091524865 -0.0001624656
00000000: 7792 133a 0c3e fdb9 2767 55b9 71dc 9fba
00000010: acf3 b73a 9bb4 953a 5b2d 753a f541 35ba
00000020: 8336 94ba dd21 b2b9 c890 8ebb b620 a0ba
00000030: 3d08 7a38 92ae 38ba e478 6f3a d435 d43a
00000040: 5eb0 1d3a 2b1f acbb 9eb2 f639 d65d 3fb9
00000050: 0d0e 78ba 4461 42ba c154 aa3a 0bc9 5eba
00000060: 831b 3e39 346c 8e3a 8ab1 ac38 3844 c5b9
00000070: 890a f7b5 42d0 1d3a 2bd8 2d3a 94c6 59ba
00000080: 1c74 d6b9 d59e 7cba bd77 b737 0a09 8e39
00000090: 79bd cfba b620 713a 4275 cc39 a543 d7b9
000000a0: ad4d e23a 9d0b 0b3a 2743 9239 022a 103a
000000b0: d2c7 8aba 67af 333a 8131 a738 edab 64ba
000000c0: c879 873a fb6d ac3a 85c2 0f3a 9ce2 7b39
000000d0: 1873 5739 37ce 403b 9620 80ba 554c 2fbb
000000e0: 7b9e f2ba edba 22b8 3d10 83b8 4f8f 2cba
000000f0: fe84 88ba 8682 c9ba 59d3 7dba f0da 70ba
00000100: 1198 0f37 7bb8 c8ba eb1b 1c39 37c0 8737
00000110: 98e5 ab39 8944 e2ba fc11 8938 9511 123a
00000120: 8a11 3ebb 94d7 dab9 69e8 933a 25b4 02bb
00000130: be77 ef3a 3542 12bb fd15 9cba 2cdc 963a
00000140: 20cc c737 e02a e539 afd7 fb3a bfb8 acb8
00000150: a391 aeba 6b45 233a b147 a5b9 c3bf f2b8
00000160: a919 3cbb d2d1 12bb a181 daba 8509 2bb9
00000170: bece 3e3a 1c30 283a 4ced 6fba 875b 2ab9

running_mean f4 [96]
-0.0018464772 -0.0006098289 0.0009718777 0.0044507342 0.0016564671 -0.0022986452 -0.0036514737 0.005069207
0.0037561262 0.0075201765 0.003117767 0.0011090897 -0.0012626892 0.0032922174 -0.00036840484 -0.0017899296
-0.0046218354 0.002797251 -0.0026980094 -0.0005844566 0.0018659391 0.0019149682 0.0020161036 -0.0005376383
0.0020743909 -0.0012382556 0.0051606144 0.00064611837 0.0010651563 4.5514344e-06 0.0059952866 0.0042414824
0.0043063615 -0.005525043 -0.002908333 0.0009075462 0.0026133887 0.0042591384 0.006280188 -0.0015499054
0.0043876967 0.0007189409 -0.0010920119 -0.0066849813 -0.00069676456 -0.0024985585 0.0026898894 -0.0005620362
-0.003215263 -0.0031120663 0.001322365 -0.001543284 0.00080743956 -0.004369121 0.00054857315 0.0023611488
-0.00033639764 -0.0025909606 0.004648339 0.0020121688 -0.0052200374 -0.002315748 -0.0017716825 0.0021991974
-0.00048173926 0.0013172416 -0.0012569933 0.0020260261 0.003301108 0.0019991565 -0.003396153 0.0027991005
0.0017862468 0.0016987572 0.003818315 0.0036220287 -0.0008480624 0.002715688 0.0032562285 -0.0040060845
0.0021016537 0.00090575597 0.00079660374 -0.0033355409 0.0004133419 -0.0005643227 -0.0023682665 -0.00061785715
-0.0011437975 -0.00010883662 -0.00025899438 -0.002888775 0.0003466902 0.0021661061 -0.0007355386 -0.0006271675
00000000: 7e05 f2ba eddc 1fba 9cc5 7e3a 77d7 913b
00000010: d01d d93a dea4 16bb 904d 6fbb 971b a63b
00000020: 5729 763b d06b f63b 7353 4c3b e05e 913a
00000030: d280 a5ba 3ec2 573b 7626 c1b9 129c eaba
00000040: c472 97bb 1652 373b 16d1 30bb 3836 19ba
00000050: 8792 f43a acff fa3a 9b20 043b 4cf0 0cba
00000060: 81f2 073b f74c a2ba 5f1a a93b 4560 293a
00000070: b79c 8b3a 86b8 9836 1c74 c43b 22fc 8a3b
00000080: 611c 8d3b 6b0b b5bb bb99 3ebb 65e8 6d3a
00000090: 6345 2b3b 3e90 8b3b 09ca cd3b 3226 cbba
000000a0: abc6 8f3b 4f77 3c3a d721 8fba b00d dbbb
000000b0: 14a7 36ba dbbe 23bb db48 303b 9c55 13ba
000000c0: 29b7 52bb cff3 4bbb 3553 ad3a 0548 caba
000000d0: 5aaa 533a d82a 8fbb 1fce 0f3a 81bd 1a3b
000000e0: 875e b0b9 1bcd 29bb 1851 983b 97de 033b
000000f0: d90c abbb cec3 17bb cd37 e8ba 6920 103b
00000100: f391 fcb9 4ba7 ac3a b2c1 a4ba 14c7 043b
00000110: 6757 583b 4804 033b fe91 5ebb 1d71 373b
00000120: 7f20 ea3a d5a8 de3a b23c 7a3b 8f5f 6d3b
00000130: 8150 5eba aff9 313b 7366 553b 7945 83bb
00000140: e6bb 093b 4170 6d3a 2cd3 503a 1799 5abb
00000150: d0b5 d839 0eef 13ba eb34 1bbb b1f7 21ba
00000160: 7aeb 95ba 373f e4b8 a3c9 87b9 9a51 3dbb
00000170: f9c3 b539 3bf5 0d3b 29d1 40ba 8068 24ba
